checkpoint_critic_1_agent.pth (torch_old, 615395 bytes, 17 tensors)

bn1.weight f4 [33]
0.61043453 0.54370046 0.54340166 0.3718824 0.47089258 0.41932666 0.3702513 0.15416266
0.23204175 0.15611134 0.24233572 0.29696295 0.2636648 1.1212463 0.85878843 1.0784073
0.54747635 0.5081707 0.5485242 0.57507443 0.18731432 0.15351056 0.16720393 0.61598796
0.5835766 0.579334 1.14756 0.6793862 1.0383823 0.39059627 0.16613507 0.26361597
0.9604677
00000000: 7045 1c3f f42f 0b3f 5f1c 0b3f 5f67 be3e
00000010: d518 f13e fcb1 d63e 9491 bd3e d1dc 1d3e
00000020: 5a9c 6d3e a7db 1f3e db26 783e 870b 983e
00000030: 13ff 863e 0085 8f3f 8fd9 5b3f 4009 8a3f
00000040: 6927 0c3f 7a17 023f 156c 0c3f 1438 133f
00000050: 53cf 3f3e df31 1d3e 8237 2b3e 63b1 1d3f
00000060: 4765 153f 3c4f 143f 3fe3 923f 41ec 2d3f
00000070: b6e9 843f 3cfc c73e 501f 2a3e acf8 863e
00000080: 36e1 753f

bn1.bias f4 [33]
-0.0009981454 -0.0015684341 -0.00047432538 -0.0009896292 0.0005484254 -8.9863875e-05 0.0006047381 -0.0002503471
-0.0005328567 0.00032433408 -0.0004253002 -0.00038336482 -0.0005273038 -0.00044355716 -0.00047196227 -0.0008901855
0.00010752094 0.00019629854 -0.00012710433 0.000107955144 0.0010156864 0.00054189225 0.00023623386 0.0001110817
0.0009101807 -0.000106549305 0.00010164315 5.7152352e-05 0.0010861779 2.5709176e-05 -5.486839e-07 -1.0635925e-05
-0.00092070806
00000000: 34d4 82ba ea93 cdba e0ae f8b9 72b6 81ba
00000010: 35c4 0f3a 4d75 bcb8 4987 1e3a 0541 83b9
00000020: 68af 0bba 620b aa39 d4fa deb9 5bfe c8b9
00000030: c23a 0aba 3c8d e8b9 b471 f7b9 565b 69ba
00000040: dd7c e138 7dd5 4d39 4f47 05b9 fa65 e238
00000050: c820 853a c60d 0e3a 8bb5 7739 89f4 e838
00000060: 3199 6e3a 3973 dfb8 4029 d538 dfb6 6f38
00000070: 155e 8e3a 09aa d737 4549 13b5 f370 32b7
00000080: ac5b 71ba

bn1.running_mean f4 [33]
0.05882402 -1.9697621 -0.4066494 0.38203126 0.0009770716 0.022815304 -0.022134056 0.031108778
-0.007936675 0.0125167575 0.08518363 0.11366809 -0.04429927 -0.043892097 -2.7646203 -0.56868327
0.034165658 -0.07589427 -0.00021673682 0.07184412 -0.012861336 0.013393236 -0.053269774 0.10533447
0.2617901 0.10008847 -0.12680541 -0.99999976 -0.009933312 0.0 0.99999976 0.0
-0.011278641
00000000: 75f1 703d 2a21 fcbf 5a34 d0be 9a99 c33e
00000010: 1511 803a 29e7 ba3c 7b52 b5bc d6d7 fe3c
00000020: d408 02bc 1613 4d3c c174 ae3d d1ca e83d
00000030: 2773 35bd 33c8 33bd 8aef 30c0 3a95 11bf
00000040: 4af1 0b3d 746e 9bbd d943 63b9 0323 933d
00000050: 5ab8 52bc 4e6f 5b3c 6831 5abd 99b9 d73d
00000060: 5a09 863e 2ffb cc3d 47d9 01be fcff 7fbf
00000070: 55bf 22bc 0000 0000 fcff 7f3f 0000 0000
00000080: 0dca 38bc

bn1.running_var f4 [33]
4.254855 2.6615603 5.096969 0.4559638 0.09791895 0.14095503 0.15412828 1.3751025
0.1573592 0.2996824 5.3894463 6.595956 6.088789 18.06955 7.6040487 21.512253
0.20103204 0.22200067 0.18281434 0.38303894 4.763792 1.1410906 2.1045475 16.717161
23.280006 20.538002 31.797596 6e-45 32.199352 6e-45 6e-45 6e-45
0.3169811
00000000: c627 8840 0157 2a40 5f1a a340 1674 e93e
00000010: bb89 c83d 8456 103e ced3 1d3e 5c03 b03f
00000020: c522 213e f96f 993e 5876 ac40 1212 d340
00000030: 5cd7 c240 708e 9041 5e54 f340 1819 ac41
00000040: 58db 4d3e 2554 633e af33 3b3e ae1d c43e
00000050: fc70 9840 420f 923f e8b0 0640 bfbc 8541
00000060: 743d ba41 d44d a441 7a61 fe41 0400 0000
00000070: 23cc 0042 0400 0000 0400 0000 0400 0000
00000080: 594b a23e

fcs1.weight f4 [512, 33]
0.015604809 0.008497197 -0.03581485 -0.023667311 0.010114544 -0.014479054 -0.030833121 -0.018319009
-0.016415896 -0.0073052547 -0.0017684113 -0.001623799 0.014982895 -0.03959061 -0.008453793 -0.0150555605
-0.00687197 -0.015884392 -0.0069883335 -0.009468199 0.03148247 -0.0033185421 0.012089299 -0.029736366
-0.024639294 -0.01034139 -0.040946934 -0.004580915 -0.023824321 0.011998042 -0.03238015 -0.0376984
0.020612719 -0.42084846 0.1626787 0.5792913 0.44265914 -0.4636771 -0.019393748 -0.024799123
0.10271469 0.07184756 0.15746593 0.45191678 -0.036775026 -0.35474274 0.51229876 -0.6697766
-0.96222353 0.48174548 0.18983488 -0.066016085 0.45960099 -0.08419969 -0.30789238 0.071793176
0.20425667 -0.8804165 0.34901628 -0.103955284 0.009550158 0.14645307 -0.033155262 0.016625699
0.0060583614 0.082648836 0.5030738 -0.030110372 -0.30845076 0.3633696 -0.28306243 -0.43260258
-0.5803461 0.3837065 0.056844287 0.33071238 0.064091906 -0.1757523 -1.0138057 -0.42025578
0.45596904 -0.2355794 -0.15116818 -1.3135327 -0.24742414 0.13875122 -0.25484148 -0.11388965
0.56812835 -0.16360049 0.80099094 -0.05769278 -0.012359154 -0.012292635 -0.123511285 0.015449032
0.0075450502 0.015932381 -0.22524789 -0.17295389 0.11787315 -0.029676573 -0.21075399 -0.6769419
0.5264205 -0.22381105 -0.23032022 -1.5565202 -0.80047536 -0.7398203 -0.18461318 -0.5135528
0.6208204 -0.46089244 0.25002414 0.9196275 0.2257245 -0.09842811 -0.38374943 0.2460132
-0.5076903 -0.27223605 -0.34740418 0.08733791 0.1474663 -0.016104218 0.028384935 -0.3690722
-0.0053708516 -0.01903468 0.012063388 -0.020723877 0.15928908 0.026180215 -0.09949553 -0.09211346
0.1472505 -0.019785805 0.25860673 -0.3995783 -0.21629381 -0.2550364 0.42214182 0.18344538
-0.68548137 0.19673717 -0.03964567 -0.000897915 0.22059736 -0.5029953 -0.12845413 0.46962926
0.057807025 -0.21303263 0.044122692 0.29562768 -0.029545866 0.008064679 -0.73294806 -0.0025794655
-0.7080966 0.0028890967 -0.026972027 0.009200882 1.201222 0.40494207 -0.99717844 0.48256072
-0.31547636 -0.24495733 0.28355747 -0.626303 -0.17130516 0.1327507 0.3616772 0.71123135
-0.633028 -0.47149524 -0.03933979 0.37899807 0.22701803 0.060002297 -0.42787397 -0.75137925
-0.33401886 0.5683054 -0.3756399 -0.46838617 0.5079292 -0.26061377 0.90892005 0.32244027
-0.0035459548 -0.29372853 -0.0055961795 0.02191222 0.0439288 -0.2791058 -0.19850089 -1.0073503
0.028494261 0.1740294 -0.26217762 -0.0936207 -0.06434369 -0.035722975 0.16032226 0.43142125
0.09776337 0.24016078 0.09649875 0.51502573 1.6525358 0.08069282 -0.15124421 -0.3275475
0.035660114 -0.066896364 0.28704807 0.026655853 -0.12842667 0.16257815 0.85536987 -0.34907615
-0.3113043 0.022286471 0.0076040355 -0.023008348 0.021794219 -0.025315119 -0.07580944 0.04760025
-0.6856143 0.78074896 -0.035323404 0.030938435 0.102143474 0.2197242 0.16865635 -0.26654643
-0.18624434 -0.06549071 -0.5218843 -0.30079034 0.11775207 0.3100725 -1.7021334 -0.12131634
-0.31955382 0.14654289 -0.003892386 -0.099628225 0.09308393 0.21364596 -0.28135267 0.2544212
00000000: 50ab 7f3c d437 0b3c 98b2 12bd f3e1 c1bc
00000010: 79b7 253c 8e39 6dbc be95 fcbc bf11 96bc
00000020: a17a 86bc eb60 efbb 09ca e7ba a7d5 d4ba
00000030: d17a 753c c329 22bd c781 0abc 99ab 76bc
00000040: 432e e1bb fc1f 82bc 64fe e4bb 8120 1bbc
00000050: c3f3 003d e67b 59bb 3212 463c ae99 f3bc
00000060: 58d8 c9bc ef6e 29bc f9b7 27bd 801b 96bb
00000070: 392b c3bc 7093 443c 0ca1 04bd a369 1abd
00000080: 01dc a83c 7379 d7be 3f95 263e 6f4c 143f
00000090: 38a4 e23e 1667 edbe a3df 9ebc 8827 cbbc
000000a0: 145c d23d d024 933d c03e 213e a361 e73e
000000b0: 69a1 16bd d7a0 b5be 0326 033f 7b76 2bbf
000000c0: 4854 76bf 58a7 f63e 1364 423e 7133 87bd
000000d0: d250 eb3e e370 acbd 12a4 9dbe 4d08 933d
000000e0: a928 513e fa62 61bf 43b2 b23e 82e6 d4bd
000000f0: 4478 1c3c cbf7 153e d0cd 07bd 9e32 883c
00000100: 3885 c63b cb43 a93d 72c9 003f 07aa f6bc
00000110: 42ed 9dbe 950b ba3e 8fed 90be 167e ddbe
00000120: 9091 14bf 2e75 c43e 8ed5 683d 2253 a93e
00000130: 9e42 833d 69f8 33be 63c4 81bf c42b d7be
00000140: c674 e93e ba3b 71be d5cb 1abe d721 a8bf
00000150: c15c 7dbe cd14 0e3e 957a 82be fa3e e9bd
00000160: dc70 113f e386 27be be0d 4d3f 444f 6cbd
00000170: 0d7e 4abc 0c67 49bc 7cf3 fcbd f01d 7d3c
00000180: 783c f73b a084 823c 62a7 66be d31a 31be
00000190: 7a67 f13d 491c f3bc e5cf 57be 104c 2dbf
000001a0: 7ec3 063f b92e 65be 10d9 6bbe 0e3c c7bf
000001b0: f4eb 4cbf dd64 3dbf 3d0b 3dbe 3278 03bf
000001c0: 16ee 1e3f 18fa ebbe 2a03 803e b56c 6b3f
000001d0: 5324 673e ad94 c9bd ce7a c4be e2ea 7b3e
000001e0: fef7 01bf 8662 8bbe f6de b1be 38de b23d
000001f0: 6801 173e feec 83bc 8687 e83c 08f7 bcbe
00000200: f8fd afbb 9eee 9bbc 84a5 453c 1fc5 a9bc
00000210: ad1c 233e e477 d63c 50c4 cbbd fba5 bcbd
00000220: d6c8 163e d715 a2bc 1a68 843e 8795 ccbe
00000230: 207c 5dbe 2294 82be f922 d83e 1bd9 3b3e
00000240: b57b 2fbf 7875 493e 8063 22bd 0e62 6bba
00000250: 46e4 613e 4dc4 00bf 7b89 03be 3f73 f03e
00000260: 0fc7 6c3d 3a25 5abe ffb9 343d 835c 973e
00000270: 2c0a f2bc b721 043c 7ca2 3bbf 400c 29bb
00000280: d245 35bf 0057 3d3b 71f4 dcbc 4cbf 163c
00000290: a4c1 993f 9154 cf3e 1647 7fbf 3312 f73e
000002a0: 1e86 a1be 18d6 7abe 722e 913e 6555 20bf
000002b0: 9f6a 2fbe cdef 073e c12d b93e 4213 363f
000002c0: 1f0e 22bf d367 f1be c222 21bd 090c c23e
000002d0: 6a77 683e f8c4 753d 4c12 dbbe 645a 40bf
000002e0: 8504 abbe 767c 113f df53 c0be 50d0 efbe
000002f0: a607 023f 2b6f 85be fcae 683f e416 a53e
00000300: 4063 68bb 9663 96be 2860 b7bb 4281 b33c
00000310: afee 333d f5e6 8ebe d143 4bbe dbf0 80bf
00000320: cc6c e93c c334 323e 253c 86be 36bc bfbd
00000330: a0c6 83bd 4152 12bd 852b 243e 3fe3 dc3e
00000340: 2938 c83d b5ec 753e 23a1 c53d bad8 033f
00000350: 4b86 d33f 4742 a53d c3df 1abe 4eb4 a7be
00000360: 5710 123d f600 89bd f7f7 923e 605d da3c
00000370: 4882 03be e37a 263e 85f9 5a3f 1cba b2be
00000380: 4763 9fbe 1e92 b63c 462b f93b 017c bcbc
00000390: ca89 b23c a761 cfbc fb41 9bbd 7bf8 423d
000003a0: 6b84 2fbf 2adf 473f 46af 10bd 9a72 fd3c
000003b0: 9930 d13d 61ff 603e 40b4 2c3e c678 88be
000003c0: d6b6 3ebe fe1f 86bd 369a 05bf 3101 9abe
000003d0: ff27 f13d d3c1 9e3e 82df d9bf b474 f8bd
000003e0: 8f9c a3be 570f 163e 6717 7fbb e209 ccbd
000003f0: caa2 be3d 02c6 5a3e 750d 90be 7f43 823e

fcs1.bias f4 [512]
0.13966087 0.05750025 0.028406732 -0.12707235 0.00980981 -0.13266458 0.10149366 0.11471745
0.14930947 0.09348855 0.069646165 -0.015232973 0.16191675 -0.16704631 -0.017018503 0.17068565
0.09284103 -0.060117118 0.14538565 -0.13345301 -0.07986759 0.15581577 0.002142923 -0.011103462
-0.031683538 0.0063335113 0.053682126 0.0512583 0.069622695 -0.0010324782 0.06311798 -0.07466058
0.07330785 0.0008153477 -0.07504338 -0.13867141 -0.06590167 0.09647405 0.01682828 0.0682448
0.018883776 -0.14225215 0.09057519 0.113913745 -0.017146196 0.11103156 0.10469636 -0.03866896
-0.11209834 -0.044651296 0.050301693 -0.08199015 0.019316396 0.073519126 0.02826801 0.058682743
0.1738787 -0.1344003 0.055258587 -0.03081956 0.16640216 0.11924168 0.0010808093 0.14890613
-0.017417056 -0.003992471 0.12095487 0.13838032 -0.04279892 0.024480518 -0.05671914 0.096766345
0.14674547 0.13067241 -0.16901748 0.15527673 -0.14261532 -0.020882452 0.15877193 -0.10793335
-0.06778782 0.050934147 -0.0015533618 -0.1529858 0.07099492 -0.05047113 0.01182377 -0.029270936
0.16120936 0.049824186 0.13742672 0.14265521 -0.14316776 0.15550284 -0.05088356 0.11337106
-0.034643807 0.054651555 -0.1704445 0.13040553 -0.13942455 -0.039890826 -0.14735788 0.10852912
-0.021643477 0.0813403 -0.1058205 -0.13805814 0.15740599 0.1255161 0.06638903 -0.1009281
-0.13410889 0.016689576 0.007927731 0.16279031 0.156454 -0.033010338 -0.07648527 0.04403264
0.011415548 -0.0039961957 -0.10959007 -0.17106749 0.060859583 0.10607158 0.043725498 -0.09330602
0.120768726 -0.07215597 -0.072141446 0.016500907 0.0363775 0.077397786 -0.018200828 -0.13467191
-0.111838445 -0.07059883 0.042434596 -0.05999826 -0.11777568 -0.07657898 0.17229326 -0.0338356
0.15932871 0.016157836 0.082597144 0.14181265 -0.15232907 -0.08642741 -0.09225937 0.15251529
-0.11159882 -0.17188132 0.0050399634 -0.054799125 0.006306108 -0.024234423 -0.06883629 -0.022653546
0.12474497 -0.13156949 -0.0662241 -0.0007018084 -0.015259546 -0.027519751 -0.099212356 0.10118412
-0.020044332 0.04994359 -0.109000705 0.1688883 0.029620072 0.16532192 -0.011871799 -0.14298011
-0.0022205329 0.024257759 -0.16272342 0.0032233028 -0.13752255 -0.15564121 0.1436822 0.15389314
-0.052665453 -0.020169329 -0.042496774 0.01699787 -0.106154375 -0.044955697 0.055741582 0.09508293
0.08139431 -0.031595565 -0.16031855 -0.11828728 0.11946615 -0.16119923 0.128848 0.11801736
0.11839347 0.16460711 -0.0062124413 -0.07865931 -0.027860725 0.11393741 -0.05221358 0.012129089
0.022489663 0.083312705 0.09247197 -0.13001022 -0.03957876 0.11105239 0.10344471 -0.16868426
-0.09603724 0.13917561 0.13037655 0.014809556 -0.14715846 0.11462442 0.0578766 0.011029069
-0.16692194 -0.026244953 0.15999262 -0.030221634 0.16134408 0.061230227 0.15561745 0.076363154
-0.0994447 -0.16802338 0.045021582 -0.038227398 -0.0077817477 -0.009553629 0.03551042 -0.089717835
-0.17328934 -0.05050393 -0.0903374 -0.03206019 -0.115198344 0.15885307 0.13511454 0.07088028
0.085089654 0.14482608 -0.004941114 -0.011442422 -0.1163554 0.0963034 0.09979039 0.051691424
00000000: 4203 0f3e 6285 6b3d 3cb5 e83c 411f 02be
00000010: 53b9 203c 39d9 07be e8db cf3d fcf0 ea3d
00000020: 95e4 183e ed76 bf3d a6a2 8e3d b893 79bc
00000030: 81cd 253e 300e 2bbe 636a 8bbc 38c8 2e3e
00000040: 7023 be3d 5e3d 76bd fadf 143e e8a7 08be
00000050: 9e91 a3bd 2b8e 1f3e 4870 0c3b 4ceb 35bc
00000060: 99c6 01bd 5889 cf3b cae1 5b3d 39f4 513d
00000070: 5896 8e3d 3854 87ba 0044 813d a5e7 98bd
00000080: 6d22 963d 0fbd 553a 58b0 99bd e1ff 0dbe
00000090: 74f7 86bd 3094 c53d 76db 893c eec3 8b3d
000000a0: 26b2 9a3c 8caa 11be 7c7f b93d 9c4b e93d
000000b0: 2e76 8cbc 8464 e33d 0c6b d63d 5863 1ebd
000000c0: d193 e5bd 47e4 36bd 2609 4e3d 74ea a7bd
000000d0: 6b3d 9e3c 3291 963d 5092 e73c 515d 703d
000000e0: 420d 323e 3ba0 09be d456 623d 4d79 fcbc
000000f0: 5465 2a3e fb34 f43d f1a9 8d3a d97a 183e
00000100: 37ae 8ebc 46d3 82bb 30b7 f73d 92b3 0d3e
00000110: ec4d 2fbd 5e8b c83c 5452 68bd 6f2d c63d
00000120: 7244 163e fdce 053e eb12 2dbe dd00 1f3e
00000130: c009 12be ad11 abbc 1c95 223e 290c ddbd
00000140: 57d4 8abd 53a0 503d 2c9a cbba 4fa8 1cbe
00000150: c965 913d d1ba 4ebd 7cb8 413c 9ac9 efbc
00000160: 1114 253e 7214 4c3d 97b9 0c3e 3514 123e
00000170: 929a 12be 233c 1f3e 486b 50bd 162f e83d
00000180: aae6 0dbd 4fda 5f3d 0189 2ebe 0789 053e
00000190: 4fc5 0ebe 9064 23bd fce4 16be 8444 de3d
000001a0: a94d b1bc be95 a63d 6bb8 d8bd 1d5f 0dbe
000001b0: 092f 213e 4b87 003e f9f6 873d 64b3 cebd
000001c0: d753 09be 94b8 883c 50e3 013c 81b2 263e
000001d0: 7a35 203e d935 07bd 4fa4 9cbd 925b 343d
000001e0: 4708 3b3c 85f2 82bb c270 e0bd 512c 2fbe
000001f0: e647 793d 0e3c d93d 8219 333d 3a17 bfbd
00000200: 9855 f73d 82c6 93bd e5be 93bd e92c 873c
00000210: 9300 153d bb82 9e3d e719 95bc 6fe7 09be
00000220: 8e0b e5bd 1f96 90bd e6cf 2d3d bcc0 75bd
00000230: 6034 f1bd 71d5 9cbd a56d 303e 3397 0abd
00000240: 1127 233e 705d 843c b128 a93d 5637 113e
00000250: 27fc 1bbe db00 b1bd 7bf2 bcbd f82c 1c3e
00000260: ec8d e4bd a801 30be 4726 a53b 0c75 60bd
00000270: 78a3 ce3b 4587 c6bc 0afa 8cbd ee93 b9bc
00000280: 4a7a ff3d 27ba 06be 80a0 87bd 91f9 37ba
00000290: 2d03 7abc 1a71 e1bc d92f cbbd 9f39 cf3d
000002a0: 0334 a4bc a691 4c3d c33b dfbd 0ef1 2c3e
000002b0: cba5 f23c 264a 293e ef81 42bc 6169 12be
000002c0: 5c86 11bb 35b8 c63c f8a0 26be 0c3e 533b
000002d0: b6d2 0cbe 6960 1fbe 6d21 133e 2a96 1d3e
000002e0: bbb7 57bd 263a a5bc 1911 2ebd 1e3f 8b3c
000002f0: 7767 d9bd 7723 38bd 4951 643d d7ba c23d
00000300: 0fb2 a63d 5a6a 01bd 8c2a 24be 9a40 f2bd
00000310: abaa f43d 6911 25be bbf0 033e 16b3 f13d
00000320: 4778 f23d c48e 283e bc91 cbbb 2218 a1bd
00000330: 2d3c e4bc 0458 e93d e8dd 55bd 16b9 463c
00000340: 3e3c b83c da9f aa3d f261 bd3d 6621 05be
00000350: 561d 22bd 6f6f e33d d2da d33d 91bb 2cbe
00000360: 2caf c4bd 0d84 0e3e 6e81 053e c8a3 723c
00000370: b5b0 16be 35c0 ea3d 0410 6d3d 45b3 343c
00000380: 96ed 2abe a8ff d6bc 1bd5 233e 5c93 f7bc
00000390: 6237 253e 8ccc 7a3d 2e5a 1f3e 4964 9c3d
000003a0: aaa9 cbbd 520e 2cbe 8d68 383d 5594 1cbd
000003b0: 08fe febb d386 1cbc 6073 113d fcbd b7bd
000003c0: c372 31be 35dd 4ebd d102 b9bd 8c51 03bd
000003d0: 1ced ebbd 61aa 223e 775b 0a3e ae29 913d
000003e0: 7c43 ae3d 4a4d 143e 12e9 a1bb ff78 3bbc
000003f0: bd4b eebd b83a c53d e75e cc3d 63ba 533d

bn2.weight f4 [512]
0.0051176534 0.866788 0.47814915 0.5453809 0.86218834 0.68627477 0.815178 0.64058083
0.8204607 0.6256201 0.53392476 0.6860783 0.43849373 0.66053325 0.6871705 1.0133485
0.6326833 0.6178136 0.73598325 0.65058607 0.53534245 0.45982146 0.7117582 0.44977582
0.80254066 0.6903886 0.59100324 0.41794074 0.8514933 0.6786292 0.6005512 0.60749006
0.78862065 0.62418336 0.615132 0.7747601 0.5843297 0.6592067 0.6843359 1.0098176
0.55839884 0.6443139 0.70398307 0.66572815 0.59694767 0.6767339 0.89408815 0.61362016
0.5466178 0.99739987 0.7535278 0.63703424 0.74390435 0.53485775 0.0030352338 0.7040489
0.7427173 0.56928366 0.5228813 0.6010598 0.59091955 0.8528722 0.77682 0.8755062
0.76701117 0.5214959 0.64537096 0.5467779 0.58841205 0.7174005 0.82009923 1.6092509
0.59747 0.49774548 0.59290576 0.71514547 0.6760239 0.44877627 0.66167223 0.40065688
0.643769 0.6379488 0.5431266 0.5424401 0.6731704 0.9075055 0.56254935 0.89491385
0.5910164 0.47780216 0.9379868 0.5266841 0.4124327 0.73560435 0.5711589 0.76597345
0.8123569 0.57376987 0.7836845 0.60313714 0.52068514 0.002083836 0.8300002 0.7085025
0.5705942 0.5613613 0.67212397 0.6462504 0.4320674 0.6530571 0.64013815 0.7672136
0.63199526 0.6116096 0.8368103 0.57078815 0.5674645 0.895458 0.5669237 0.6203693
0.55943173 0.5590448 0.67552614 0.6947443 0.55632216 0.6558858 0.6715802 0.8566622
0.8103757 0.5322699 0.8126507 0.60768604 0.5399116 0.70747626 0.6058856 0.66876686
0.7321581 0.7926067 0.867045 0.6065463 0.6079022 0.8258516 0.45110103 0.9544201
0.6422673 0.7446574 0.6865211 0.6267921 0.7497811 0.61991304 0.6041918 0.60133564
0.6473209 0.674289 0.6463102 0.5087208 0.7268251 0.57862973 0.6734337 0.74200296
0.60158306 0.54118186 0.48648292 0.63360393 0.57695097 0.90884525 0.71585107 0.54488105
0.56464463 0.69819844 0.5650397 0.5869156 0.5093579 0.74604803 0.84713787 0.5112359
0.49082944 0.7162991 0.49905455 0.6827399 0.63157785 0.81760216 0.6245001 0.7901116
0.7245287 0.9601056 0.75235003 0.6774782 0.80819756 0.53696847 0.56287616 0.64655167
0.69236314 0.74926054 0.0024476692 0.6273915 0.5957723 0.56694824 0.6700998 0.74357563
0.6183849 0.95927376 0.76403373 0.53456396 0.55688906 0.63446337 0.5800417 0.54899704
0.6218226 0.45061722 0.5431096 0.57810754 0.6756351 0.86914194 0.51298034 0.6793119
0.54488915 0.782671 0.6711737 0.65667814 0.546483 0.6595149 -0.0014935691 0.8554504
0.72547066 1.0741876 0.5175207 0.6270857 0.6197694 0.5092713 0.8524722 0.8447421
0.91402125 0.6704467 0.69762063 0.7974538 0.63925064 0.8390177 0.74976534 0.7314485
0.570196 0.46969536 0.56743497 0.7886275 1.0028205 0.6138827 0.78445256 0.59420496
0.3701512 0.63032925 0.8235258 0.7436736 0.82209736 0.646843 0.5876136 0.75350684
00000000: fdb1 a73b d2e5 5d3f f7cf f43e 159e 0b3f
00000010: 60b8 5c3f b4af 2f3f 81af 503f 1bfd 233f
00000020: b609 523f a428 203f 4baf 083f d4a2 2f3f
00000030: 4082 e03e b518 293f 68ea 2f3f 67b5 813f
00000040: 88f7 213f 0829 1e3f 6669 3c3f cf8c 263f
00000050: 340c 093f b86d eb3e c935 363f 0449 e63e
00000060: 4e73 4d3f 4fbd 303f fd4b 173f 54fc d53e
00000070: 77fb 593f a5ba 2d3f b9bd 193f 7884 1b3f
00000080: 0be3 493f 7bca 1f3f 4a79 1d3f ae56 463f
00000090: a296 153f c5c1 283f a330 2f3f b441 813f
000000a0: 3af3 0e3f c1f1 243f 3c38 343f 296d 2a3f
000000b0: 90d1 183f 6f3e 2d3f f6e2 643f 3616 1d3f
000000c0: 25ef 0b3f 9955 7f3f 33e7 403f ad14 233f
000000d0: 8470 3e3f 70ec 083f c6ea 463b 8c3c 343f
000000e0: b922 3e3f 93bc 113f 8ddb 053f 0edf 193f
000000f0: 8146 173f d555 5a3f addd 463f 2d21 603f
00000100: d85a 443f c180 053f 0837 253f a3f9 0b3f
00000110: 2ca2 163f 8fa7 373f 06f2 513f effb cd3f
00000120: cbf3 183f 7fd8 fe3e acc8 173f c613 373f
00000130: e70f 2d3f 01c6 e53e 5a63 293f e622 cd3e
00000140: 0cce 243f 9d50 233f 580a 0b3f 5bdd 0a3f
00000150: e554 2c3f 4852 683f 3c03 103f 1319 653f
00000160: da4c 173f 7ca2 f43e e71f 703f c5d4 063f
00000170: 612a d33e 9150 3c3f 7837 123f d616 443f
00000180: 9ff6 4f3f 95e2 123f 8c9f 483f 3267 1a3f
00000190: 9f4b 053f f790 083b e57a 543f 6b60 353f
000001a0: 7612 123f 60b5 0f3f 5110 2c3f ab70 253f
000001b0: f037 dd3e c02e 273f 18e0 233f 1c68 443f
000001c0: 71ca 213f 7292 1c3f 3339 563f 2c1f 123f
000001d0: 5a45 113f bc3c 653f e921 113f 86d0 1e3f
000001e0: eb36 0f3f 8f1d 0f3f 48ef 2c3f c3da 313f
000001f0: 216b 0e3f 22e8 273f aeec 2b3f 374e 5b3f
00000200: c874 4f3f d742 083f e009 503f 5091 1b3f
00000210: a637 0a3f 2a1d 353f 521b 1b3f 4e34 2b3f
00000220: b76e 3b3f 46e8 4a3f a9f6 5d3f 9e46 1b3f
00000230: 7b9f 1b3f 036b 533f b7f6 e63e e054 743f
00000240: a16b 243f dea1 3e3f d9bf 2f3f 7275 203f
00000250: a7f1 3f3f 9fb2 1e3f 50ac 1a3f 22f1 193f
00000260: d3b6 253f 349e 2c3f 9674 253f 873b 023f
00000270: 3611 3a3f 1421 143f 2766 2c3f e8f3 3d3f
00000280: 5901 1a3f e58a 0a3f 4a14 f93e de33 223f
00000290: 0fb3 133f 15aa 683f 0442 373f 537d 0b3f
000002a0: 8d8c 103f 22bd 323f 71a6 103f 1a40 163f
000002b0: 4865 023f 01fd 3e3f 07de 583f 5be0 023f
000002c0: ff4d fb3e 615f 373f 1484 ff3e 0bc8 2e3f
000002d0: 16af 213f 604e 513f 3ddf 1f3f c144 4a3f
000002e0: b67a 393f 7bc9 753f 039a 403f 366f 2d3f
000002f0: 09e6 4e3f c476 093f a718 103f 6984 253f
00000300: b63e 313f 8acf 3f3f 1369 203b bb9c 203f
00000310: 8984 183f 8523 113f a98b 2b3f f95a 3e3f
00000320: 794e 1e3f f792 753f b797 433f 2fd9 083f
00000330: 4890 0e3f 316c 223f 9d7d 143f 128b 0c3f
00000340: c42f 1f3f 4db7 e63e 3b09 0b3f dbfe 133f
00000350: 6cf6 2c3f 1680 5e3f ae52 033f 62e7 2d3f
00000360: db7d 0b3f 205d 483f 0ad2 2b3f 0f1c 283f
00000370: 4fe6 0b3f f8d5 283f ddc3 c3ba ccfe 5a3f
00000380: 72b8 393f fb7e 893f 3d7c 043f b088 203f
00000390: 35a9 1e3f 9b5f 023f 9e3b 5a3f 0541 583f
000003a0: 4cfd 693f 65a2 2b3f 4497 323f ef25 4c3f
000003b0: eea5 233f ddc9 563f 9ff0 3f3f 3540 3b3f
000003c0: 5df8 113f e97b f03e 6b43 113f 7ee3 493f
000003d0: 6c5c 803f 6b27 1d3f e2d1 483f d11d 183f
000003e0: 7584 bd3e 425d 213f 96d2 523f 6561 3e3f
000003f0: f974 523f 8197 253f d86d 163f d3e5 403f

bn2.bias f4 [512]
-0.021493401 -0.47711387 -0.49202037 -0.42718023 -0.59220487 -0.5029798 -0.5226744 -0.19406427
-0.6607424 -0.5745544 -0.45847818 -0.480492 -0.04300885 -0.72836447 -0.5360321 -0.60605013
-0.5005503 -0.25466362 -0.5315525 -0.5973701 -0.4097297 -0.29843912 -0.554612 -0.24093437
-0.36893803 -0.5590663 -0.6229794 -0.20519884 -0.47431573 -0.418176 -0.50817835 -0.46034878
-0.4176251 -0.504842 -0.4715039 -0.7624235 -0.20666842 -0.59057593 -0.3768124 -0.48655766
-0.32388487 -0.615862 -0.56122303 -0.54258144 -0.6280824 -0.4763732 -0.843329 -0.75651807
-0.45784652 -0.763262 -0.40406865 -0.56712794 -0.5066995 -0.33149448 -0.01686695 -0.53591627
-0.4961121 -0.22454637 -0.31051034 -0.34247124 -0.6872852 -0.39464462 -0.70375174 -0.74101925
-0.6217047 -0.3900323 -0.45354673 -0.408168 -0.4851089 -0.75274396 -0.367176 -0.3433573
-0.25200877 -0.16336162 -0.18257232 -0.67153776 -0.58167934 -0.28759116 -0.6531425 -0.355948
-0.5587665 -0.5915541 -0.29578707 -0.37904838 -0.6522612 -0.32717398 -0.5044467 -0.70084345
-0.45114017 -0.31280112 -0.66972077 -0.08919066 -0.15645558 -0.45233485 -0.57159567 -0.5630076
-0.57296956 -0.5257551 -0.29449105 -0.43880406 -0.49835217 -0.013985877 -0.7544281 -0.5346197
-0.057800177 -0.32325783 -0.59735745 -0.597809 -0.14376736 -0.4569931 -0.67045224 -0.6326389
-0.7415255 -0.4355855 -0.8981212 -0.34697607 -0.42324883 -0.5444732 -0.64517343 -0.5092663
-0.4290283 -0.4000207 -0.39392975 -0.6373346 -0.36416954 -0.47833937 -0.4909153 -0.749532
-0.6469937 -0.41901535 -0.79377294 -0.65278196 -0.4925458 -0.49245703 -0.39572108 -0.77998215
-0.51335365 -0.80458707 -0.5669428 -0.40086314 -0.39144576 -0.4964994 -0.31788254 -0.8624862
-0.67070824 -0.68054116 -0.6940038 -0.5323628 -0.74543977 -0.79026175 -0.39114788 -0.5253113
-0.52309096 -0.4755743 -0.45073214 -0.44710875 -0.5203164 -0.2958954 -0.59808034 -0.786372
-0.510048 -0.4589863 -0.40226847 -0.65583915 -0.5666767 -0.44532865 -0.6572057 -0.4633735
-0.22039908 -0.59398675 -0.37390023 -0.69823635 -0.21708028 -0.57900023 -0.7135378 -0.62115955
-0.49435744 -0.15406731 -0.42876732 -0.7597608 -0.57798374 -0.8116905 -0.55801505 -0.72227424
-0.63136035 -0.5796126 -0.5655765 -0.5659865 -0.6223282 -0.36935678 -0.38047692 -0.59947634
-0.6342941 -0.42038295 -0.011817652 -0.6602997 -0.6056172 -0.4333358 -0.54494745 -0.36072096
-0.68400544 -0.76086724 -0.56939393 -0.45161042 -0.25402242 -0.50393903 -0.645307 -0.19958732
-0.5938575 -0.45268226 -0.45037055 -0.57581246 -0.5663071 -0.5204408 -0.3859814 -0.42636633
-0.4530736 -0.7324698 -0.56645197 -0.5387753 -0.40255272 -0.53898495 -0.012778577 -0.57502514
-0.55261385 -0.4219184 -0.32609242 -0.64269894 -0.5587195 -0.35957423 -0.5572668 -0.82955366
-0.9710181 -0.27181396 -0.5496437 -0.605097 -0.56217563 -0.7498627 -0.50611603 -0.5154515
-0.28970283 -0.26243255 -0.4758847 -0.3989259 -0.45082498 -0.462655 -0.8855355 -0.35680333
-0.2569905 -0.4175863 -0.69638073 -0.5118531 -0.8097241 -0.47677785 -0.3541778 -0.7287634
00000000: ee12 b0bc 4548 f4be 18ea fbbe 5eb7 dabe
00000010: bd9a 17bf 49c3 00bf fdcd 05bf c9b8 46be
00000020: 6a26 29bf ff15 13bf a7bd eabe 0c03 f6be
00000030: 0c2a 30bd 1876 3abf 6639 09bf 1a26 1bbf
00000040: 1124 00bf 4563 82be d313 08bf 3fed 18bf
00000050: 17c8 d1be 03cd 98be 0dfb 0dbf 80b7 76be
00000060: 72e5 bcbe f81e 0fbf 947b 1fbf a51f 52be
00000070: 83d9 f2be 2a1b d6be fa17 02bf d6b2 ebbe
00000080: f5d2 d5be 533d 01bf f668 f1be 302e 43bf
00000090: e3a0 53be fc2f 17bf 8eed c0be 161e f9be
000000a0: 3dd4 a5be 22a9 1dbf 50ac 0fbf 9ee6 0abf
000000b0: 02ca 20bf 30e7 f3be 69e4 57bf 2bab 41bf
000000c0: dc6a eabe 2365 43bf 16e2 cebe 4c2f 11bf
000000d0: 0fb7 01bf a5b9 a9be 8f2c 8abc cf31 09bf
000000e0: 6802 febe 7cef 65be 36fb 9ebe 6458 afbe
000000f0: ecf1 2fbf dc0e cabe 1329 34bf 70b3 3dbf
00000100: 0a28 1fbf 50b2 c7be 4737 e8be 65fb d0be
00000110: 3260 f8be d4b3 40bf 7efe bbbe 87cc afbe
00000120: 4b07 81be 4548 27be 3df4 3abe e6e9 2bbf
00000130: f0e8 14bf 263f 93be 5934 27bf d13e b6be
00000140: 520b 0fbf 1770 17bf 6771 97be a112 c2be
00000150: 97fa 26bf 5983 a7be 6b23 01bf 7a6a 33bf
00000160: d8fb e6be 7827 a0be d272 2bbf 98a9 b6bd
00000170: e435 20be 6f98 e7be 1854 12bf 4421 10bf
00000180: 22ae 12bf e397 06bf 88c7 96be edaa e0be
00000190: 0428 ffbe 0525 65bc 3322 41bf d6dc 08bf
000001a0: e1bf 6cbd 0d82 a5be 6bec 18bf 030a 19bf
000001b0: c037 13be 00fb e9be c2a2 2bbf 9ff4 21bf
000001c0: 9dd4 3dbf 1005 dfbe 45eb 65bf d9a6 b1be
000001d0: 12b4 d8be 9862 0bbf 162a 25bf 475f 02bf
000001e0: 99a9 dbbe 83cf ccbe 29b1 c9be 5c28 23bf
000001f0: 6e74 babe e6e8 f4be 4059 fbbe 54e1 3fbf
00000200: 61a1 25bf 2e89 d6be b434 4bbf b81c 27bf
00000210: f72e fcbe 5423 fcbe f49b cabe e9ac 47bf
00000220: 256b 03bf 6bf9 4dbf 2a23 11bf ef3d cdbe
00000230: 946b c8be 2b35 febe 80c1 a2be e5cb 5cbf
00000240: 89b3 2bbf f237 2ebf 3caa 31bf ee48 08bf
00000250: 24d5 3ebf 984e 4abf 8944 c8be cd7a 06bf
00000260: 4ae9 05bf 7a7e f3be 5dc6 e6be 70eb e4be
00000270: 7533 05bf 9a7f 97be cb1b 19bf ad4f 49bf
00000280: 8192 02bf 4100 ebbe 22f6 cdbe 13e5 27bf
00000290: b911 11bf 1e02 e4be a23e 28bf 4b3f edbe
000002a0: 4cb0 61be 840f 18bf da6f bfbe 9ebf 32bf
000002b0: 4b4a 5ebe 5c39 14bf 6aaa 36bf 5004 1fbf
000002c0: 6b1c fdbe d2c3 1dbe 6487 dbbe af7f 42bf
000002d0: bef6 13bf f3ca 4fbf 13da 0ebf f7e6 38bf
000002e0: d5a0 21bf 7e61 14bf 9fc9 10bf 7ee4 10bf
000002f0: e750 1fbf 551c bdbe dfcd c2be 4877 19bf
00000300: 1961 22bf 6f3c d7be d39e 41bc 6709 29bf
00000310: bb09 1bbf 31de ddbe ad81 0bbf 6bb0 b8be
00000320: fb1a 2fbf 32c8 42bf cdc3 11bf 7b39 e7be
00000330: 3a0f 82be 2602 01bf d732 25bf 9e60 4cbe
00000340: 0c07 18bf f8c5 e7be f896 e6be 7268 13bf
00000350: 81f9 10bf 9c3b 05bf 5b9f c5be b04c dabe
00000360: 43f9 e7be 2483 3bbf ff02 11bf 2eed 09bf
00000370: 641b cebe ebfa 09bf 3d5d 51bc d934 13bf
00000380: 1a78 0dbf b005 d8be 96f5 a6be eb87 24bf
00000390: 3e08 0fbf 1d1a b8be 09a9 0ebf a15d 54bf
000003a0: a494 78bf 332b 8bbe 73b5 0cbf a3e7 1abf
000003b0: beea 0fbf 00f7 3fbf d290 01bf a1f4 03bf
000003c0: ee53 94be 8f5d 86be 29a7 f3be 0440 ccbe
000003d0: 88d2 e6be 1ee1 ecbe 74b2 62bf edae b6be
000003e0: 4294 83be dfcd d5be 0246 32bf ce08 03bf
000003f0: 144a 4fbf 3a1c f4be cb56 b5be 3d90 3abf

bn2.running_mean f4 [512]
0.13965577 0.05679393 0.028380146 -0.12675358 0.008163414 -0.1321007 0.10276726 0.11776335
0.14986414 0.096263126 0.068234645 -0.0147523815 0.16272356 -0.16463569 -0.017894061 0.17227648
0.093009256 -0.060792282 0.14653999 -0.1332509 -0.07959473 0.15831208 0.0024625347 -0.012447793
-0.03588666 0.009377762 0.053897474 0.053383693 0.067451395 -0.0007704872 0.06357528 -0.07375698
0.07725976 -0.0019675847 -0.073407836 -0.13971937 -0.06564962 0.093073234 0.014975886 0.06752047
0.021852659 -0.14366221 0.08854665 0.114795975 -0.019104026 0.112753704 0.105340734 -0.038644288
-0.11182133 -0.048067756 0.049172558 -0.08188621 0.018913696 0.07303001 0.028272992 0.058998242
0.17317371 -0.13482994 0.057005614 -0.029427279 0.16724494 0.12019436 -5.324997e-06 0.1450047
-0.015076354 -0.0032916071 0.11929431 0.1411881 -0.041855738 0.027033886 -0.058328133 0.098269284
0.14667101 0.13095541 -0.16646059 0.15820512 -0.14365205 -0.019439787 0.15900093 -0.107228555
-0.06846643 0.053018853 -0.0015841902 -0.15098223 0.07163268 -0.049310148 0.011474999 -0.029660413
0.16108118 0.049599364 0.13859197 0.14244688 -0.14256106 0.1535268 -0.05240051 0.1126902
-0.036431387 0.05703383 -0.16757935 0.13005227 -0.14160003 -0.03982857 -0.14705364 0.11005143
-0.021398723 0.079857044 -0.106667064 -0.13670331 0.15638061 0.12752965 0.06774834 -0.10196593
-0.13331884 0.019255435 0.0067793983 0.16331358 0.15592596 -0.032367572 -0.07741979 0.043911632
0.012324891 -0.0043235654 -0.1085977 -0.17083076 0.06106855 0.10611567 0.043340363 -0.09270848
0.12177187 -0.07209159 -0.07370546 0.015255876 0.035489492 0.078847185 -0.017122118 -0.13283527
-0.11406991 -0.071036324 0.045043346 -0.061447248 -0.11798542 -0.07809952 0.17302738 -0.034151077
0.16115637 0.017803943 0.080548234 0.14245091 -0.15003525 -0.08381749 -0.09241031 0.15232714
-0.112616144 -0.16991012 0.0044990666 -0.05904494 0.009243366 -0.02742927 -0.06597704 -0.023400558
0.12781155 -0.12963535 -0.06648801 -0.0019330092 -0.013488746 -0.027196422 -0.09911735 0.10056088
-0.019153746 0.049608216 -0.10753158 0.17023575 0.02933822 0.16371629 -0.012595699 -0.1454087
-0.0018354364 0.022006167 -0.16258322 0.0019513809 -0.1389471 -0.15722835 0.14330137 0.15427478
-0.052736074 -0.019428618 -0.041977175 0.01751628 -0.10524488 -0.046369407 0.054436766 0.09387663
0.08411595 -0.031108882 -0.16034797 -0.12037327 0.1174818 -0.1644665 0.13191646 0.11779301
0.11760759 0.16201103 -0.0056879167 -0.079101495 -0.02800619 0.112841986 -0.05100785 0.012664721
0.020521805 0.08392115 0.09146335 -0.13088176 -0.038626805 0.110738456 0.10395171 -0.16916206
-0.096233726 0.13910568 0.13055158 0.015695518 -0.14665666 0.115647495 0.05784509 0.0100274235
-0.16716143 -0.025688648 0.16150749 -0.029774247 0.16144262 0.06241599 0.15516973 0.0759048
-0.09967107 -0.16780256 0.0436956 -0.03664603 -0.0075593987 -0.008730626 0.035273146 -0.08885936
-0.1727425 -0.050243102 -0.08980094 -0.03075575 -0.11495008 0.16142283 0.1341426 0.07239083
0.08819324 0.14444782 -0.005238244 -0.010675739 -0.11622106 0.10003123 0.09832364 0.04896983
00000000: ec01 0f3e c0a0 683d 7b7d e83c b1cb 01be
00000010: d7bf 053c 6845 07be a477 d23d e92d f13d
00000020: fc75 193e 9a25 c53d 9bbe 8b3d f9b3 71bc
00000030: 01a1 263e 4296 28be 9196 92bc 3f69 303e
00000040: a37b be3d 5401 79bd 940e 163e ed72 08be
00000050: 9002 a3bd 901c 223e 7a62 213b d4f1 4bbc
00000060: e4fd 12bd 2fa5 193c 99c3 5c3d dca8 5a3d
00000070: f523 8a3d 85fa 49ba c233 823d e60d 97bd
00000080: 5d3a 9e3d 98f2 00bb d956 96bd 9812 0fbe
00000090: 4f73 86bd 2e9d be3d 6b5d 753c 2c48 8a3d
000000a0: 5904 b33c 301c 13be f257 b53d 271a eb3d
000000b0: 0c80 9cbc 6aeb e63d e2bc d73d 7949 1ebd
000000c0: 9502 e5bd b2e2 44bd 2a69 493d f5b3 a7bd
000000d0: e5f0 9a3c c290 953d c39c e73c 24a8 713d
000000e0: 7354 313e dc10 0abe b87e 693d 7a11 f1bc
000000f0: 4242 2b3e 7628 f63d 60ad b2b6 1d7c 143e
00000100: d002 77bc 01b8 57bb 9350 f43d 9d93 103e
00000110: ec70 2bbd 2b76 dd3c 7be9 6ebd 6841 c93d
00000120: ed30 163e 2d19 063e a574 2abe 8600 223e
00000130: 8619 13be 3040 9fbc 24d1 223e a59a dbbd
00000140: 2138 8cbd 4c2a 593d 9aa4 cfba 169b 1abe
00000150: 28b4 923d 70f9 49bd a201 3c3c 65fa f2bc
00000160: 77f2 243e b428 4b3d 0eeb 0d3e 98dd 113e
00000170: 87fb 11be 2136 1d3e eba1 56bd 1fca e63d
00000180: 1439 15bd 4e9c 693d ec99 2bbe 6c2c 053e
00000190: 99ff 10be 4823 23bd 3b95 16be a562 e13d
000001a0: 604c afbc 178c a33d 4374 dabd f4fb 0bbe
000001b0: 3d22 203e 2297 023e a4bf 8a3d 83d3 d0bd
000001c0: bc84 08be 93bd 9d3c b725 de3b ad3b 273e
000001d0: 0eab 1f3e dc93 04bd 448e 9ebd afdc 333d
000001e0: 57ee 493c b2ac 8dbb 7968 debd 42ee 2ebe
000001f0: 0423 7a3d 2c53 d93d aa85 313d f2dd bdbd
00000200: 8863 f93d c1a4 93bd e3f2 96bd c8f3 793c
00000210: 6e5d 113d a27a a13d af43 8cbc f805 08be
00000220: 7c9d e9bd 7e7b 91bd 5f7f 383d 1cb0 7bbd
00000230: 57a2 f1bd a4f2 9fbd 172e 313e 00e2 0bbd
00000240: 2d06 253e 93d9 913c 79f6 a43d a7de 113e
00000250: d7a2 19be 81a8 abbd 9e41 bdbd a5fb 1b3e
00000260: 4ba3 e6bd ebfc 2dbe e86c 933b 1bd9 71bd
00000270: 7d71 173c 59b3 e0bc f81e 87bd 87b2 bfbc
00000280: 08e1 023e 21bf 04be de2a 88bd 075d fdba
00000290: e7ff 5cbc 08cb debc 0afe cabd ddf2 cd3d
000002a0: 51e8 9cbc fc31 4b3d 8439 dcbd 4852 2e3e
000002b0: b556 f03c 3ea5 273e 315e 4ebc 05e6 14be
000002c0: 0793 f0ba 4746 b43c 377c 26be 7ac5 ff3a
000002d0: 2648 0ebe 7800 21be 98bd 123e 35fa 1d3e
000002e0: c801 58bd c428 9fbc 42f0 2bbd 4d7e 8f3c
000002f0: a18a d7bd d9ed 3dbd 16f9 5e3d 6442 c03d
00000300: fc44 ac3d 0ed8 febc 4232 24be 4386 f6bd
00000310: 4c9a f03d e869 28be 1c15 073e 763d f13d
00000320: 40dc f03d 38e6 253e b461 babb f7ff a1bd
00000330: 3d6d e5bc b319 e73d 9bed 50bd b17f 4f3c
00000340: 581d a83c dade ab3d 2351 bb3d de05 06be
00000350: 2437 1ebd d8ca e23d a2e4 d43d d238 2dbe
00000360: 3016 c5bd b871 0e3e 50af 053e e393 803c
00000370: 2a2d 16be 98d8 ec3d f9ee 6c3d 104a 243c
00000380: 5e2c 2bbe 0071 d2bc 3862 253e 1fe9 f3bc
00000390: 3751 253e e9a7 7f3d d0e4 1e3e fa73 9b3d
000003a0: 5920 ccbd 6fd4 2bbe 28fa 323d 261a 16bd
000003b0: d5b4 f7bb e60a 0fbc 937a 103d e5fb b5bd
000003c0: 69e3 30be b6cb 4dbd 8ee9 b7bd 7cf3 fbbc
000003d0: f36a ebbd 074c 253e ae5c 093e a541 943d
000003e0: a89e b43d 21ea 133e 93a5 abbb 4be9 2ebc
000003f0: 4f05 eebd 2cdd cc3d e85d c93d 9794 483d

bn2.running_var f4 [512]
0.009608818 1.2826328 1.5634122 1.2718031 2.6251442 1.4481156 1.6926848 2.811221
1.8382468 1.6604675 1.8799682 1.6532259 0.7636268 1.1528157 1.1920036 1.1890876
2.5912325 1.9667605 2.0035632 2.0756404 1.1962692 1.3446181 1.6217034 0.8404707
2.5280855 2.2325468 1.3118101 0.9003562 2.2362282 1.7018261 1.4574357 1.5883838
1.5073991 1.3923887 2.0743499 2.093193 1.2696632 1.6797531 1.4933475 0.77505386
1.5131006 1.729024 2.5281641 1.5460991 1.604756 1.6839521 2.5283823 1.8581016
1.5079354 2.177498 1.3290352 1.5288464 2.385402 1.7974147 0.013123225 1.2242274
1.9739296 1.9214989 1.525407 1.3935872 1.2590842 1.2166404 1.1132829 2.5643725
1.0604017 1.4712806 2.3367498 1.1200645 2.0605357 2.4080486 2.343399 0.6433995
1.2901994 2.0218678 1.4420946 2.8180547 1.2898122 1.6785821 1.4088227 0.84570354
1.3995882 1.5554068 1.304967 1.5664628 1.8694313 1.7788507 1.3802327 1.805487
1.8106732 1.2797296 1.9244764 1.5814145 1.3587927 1.6169342 1.1369535 1.6240506
1.5260797 1.7655612 1.4268061 0.97755164 0.8943474 0.008094736 2.5074804 1.311654
1.8205532 1.182692 4.295148 0.96628755 1.7940726 1.5846434 1.3039063 1.7168998
1.5717262 1.7734755 2.0471187 1.3638691 1.5010872 1.9025102 1.665315 1.6840106
1.1971284 1.186129 2.0326478 2.5226488 1.4095058 1.1384265 0.94404376 2.7877672
1.384401 2.5205176 1.56785 1.4033047 1.1532508 1.7356683 2.272141 0.9517444
1.9299567 1.4911016 1.4919232 1.4014814 1.9072983 1.6025704 0.89951384 2.236213
1.7583389 2.3945632 1.4836558 1.845114 1.3684095 1.3178458 1.2531135 1.7007413
1.2920759 1.4396273 1.2676287 0.8051858 1.2130326 1.2100295 1.388216 2.4147856
1.7307047 1.8311743 1.7866611 1.1251565 1.109781 1.4516153 1.4561226 1.9657518
2.0286555 2.3286676 1.9895653 1.3138988 1.4713389 1.566858 2.4699602 1.1731371
0.95824456 2.7327712 1.850524 4.057672 1.3994412 1.6078141 1.6506393 2.7628489
1.3793029 1.7712088 1.262646 1.6994816 1.6433309 1.3277845 1.4089762 1.761264
1.7424977 1.2649974 0.007453941 1.3775864 1.2500157 1.0347613 2.8245747 1.2198523
1.388058 1.4760932 2.217831 1.4562942 2.1090364 2.3421817 2.310056 1.5292222
1.6664002 0.84429795 1.0820993 1.9357747 2.8016453 1.1577604 2.209434 1.3071741
1.2643644 1.1395333 1.4242963 2.5097024 1.1705481 1.8548564 0.006614525 2.610421
2.0053976 0.72654843 0.9609114 1.9749882 1.8447863 1.9865544 2.0284352 1.9542382
2.0131679 1.8230984 1.476309 3.07892 0.7820856 2.1773093 1.628047 2.1329849
1.1524177 1.7815174 1.3422058 0.9026879 2.2924135 1.6506792 1.3772227 1.3353311
0.653944 1.5461755 2.027906 1.4848094 1.5245943 2.275588 1.563407 2.2120774
00000000: 4e6e 1d3c 502d a43f e41d c83f 72ca a23f
00000010: 5d02 2840 da5b b93f e5a9 d83f 0beb 3340
00000020: ac4b eb3f 338a d43f cca2 f03f e89c d33f
00000030: 0c7d 433f 778f 933f 9393 983f 0634 983f
00000040: c1d6 2540 cfbe fb3f 613a 0040 4bd7 0440
00000050: 591f 993f 721c ac3f fa93 cf3f 1629 573f
00000060: 27cc 2140 0ce2 0e40 65e9 a73f be7d 663f
00000070: 5d1e 0f40 70d5 d93f 418d ba3f 2950 cb3f
00000080: 74f2 c03f cb39 b23f 26c2 0440 e0f6 0540
00000090: 5384 a23f 2602 d73f 0326 bf3f ee69 463f
000000a0: 48ad c13f a950 dd3f 71cd 2140 93e6 c53f
000000b0: a568 cd3f be8b d73f 04d1 2140 46d6 ed3f
000000c0: 0704 c13f 215c 0b40 d31d aa3f 3db1 c33f
000000d0: 6daa 1840 af11 e63f cc02 573c 7cb3 9c3f
000000e0: baa9 fc3f adf3 f53f 8940 c33f 1161 b23f
000000f0: ac29 a13f dfba 9b3f 0e80 8e3f ae1e 2440
00000100: 3ebb 873f ec52 bc3f 4f8d 1540 465e 8f3f
00000110: d1df 0340 781d 1a40 40fa 1540 d4b5 243f
00000120: 4125 a53f 4866 0140 8e96 b83f 025b 3440
00000130: 9118 a53f c7db d63f 4d54 b43f 0780 583f
00000140: b525 b33f 9217 c73f 2909 a73f da81 c83f
00000150: 8649 ef3f 61b1 e33f 77ab b03f 331a e73f
00000160: 24c4 e73f 2ece a33f 3e55 f63f ca6b ca3f
00000170: ebec ad3f b3f7 ce3f b187 913f e4e0 cf3f
00000180: 9456 c33f e9fd e13f 95a1 b63f d340 7a3f
00000190: f4f3 643f c99f 043c 8f7a 2040 47e4 a73f
000001a0: e307 e93f 7462 973f da71 8940 9f5e 773f
000001b0: 2ca4 e53f 98d5 ca3f 67e6 a63f 5fc3 db3f
000001c0: 532e c93f 3f01 e33f fe03 0340 4393 ae3f
000001d0: a023 c03f 7485 f33f 0b29 d53f a98d d73f
000001e0: 813b 993f 13d3 973f e716 0240 1473 2140
000001f0: b06a b43f f6b7 913f daac 713f c76a 3240
00000200: 0d34 b13f 2950 2140 4faf c83f 7d9f b33f
00000210: b99d 933f 612a de3f c26a 1140 85a5 733f
00000220: d208 f73f 6bdc be3f 57f7 be3f be63 b33f
00000230: 5a22 f43f 0721 cd3f 8a46 663f 1d1e 0f40
00000240: 4011 e13f 8640 1940 6fe8 bd3f b22c ec3f
00000250: 0b28 af3f 2caf a83f 0666 a03f e4b1 d93f
00000260: be62 a53f b545 b83f a841 a23f a820 4e3f
00000270: a744 9b3f 3fe2 9a3f 10b1 b13f d98b 1a40
00000280: bb87 dd3f eb63 ea3f 50b1 e43f 2105 903f
00000290: 4e0d 8e3f 88ce b93f 3a62 ba3f c19d fb3f
000002a0: 7ed5 0140 e408 1540 13aa fe3f d62d a83f
000002b0: d554 bc3f ce8e c83f d413 1e40 5b29 963f
000002c0: 844f 753f b9e5 2e40 f8dd ec3f 73d8 8140
000002d0: e420 b33f dacc cd3f 2648 d33f 84d2 3040
000002e0: ff8c b03f f8b6 e23f 629e a13f 9d88 d93f
000002f0: ab58 d23f d8f4 a93f 5559 b43f 1971 e13f
00000300: 2a0a df3f 6feb a13f 3040 f43b c054 b03f
00000310: 8400 a03f 0f73 843f d5c5 3440 1f24 9c3f
00000320: e2ab b13f 9ff0 bc3f f1f0 0d40 d967 ba3f
00000330: 74fa 0640 4ee6 1540 f5d7 1340 8ebd c33f
00000340: 9a4c d53f e923 583f 3b82 8a3f 77c7 f73f
00000350: 284e 3340 7e31 943f 5e67 0d40 7b51 a73f
00000360: b1d6 a13f 3adc 913f 574f b63f f79e 2040
00000370: 85d4 953f ef6b ed3f a8be d83b 2311 2740
00000380: 6f58 0040 14ff 393f 4afe 753f 6acc fc3f
00000390: f521 ec3f 6a47 fe3f e2d1 0140 7a24 fa3f
000003a0: bed7 0040 4a5b e93f b1f7 bc3f 060d 4540
000003b0: c336 483f 0959 0b40 d863 d03f d382 0840
000003c0: 6c82 933f c308 e43f 66cd ab3f 8e16 673f
000003d0: e7b6 1240 7549 d33f d548 b03f 21ec aa3f
000003e0: e068 273f 14e9 c53f 36c9 0140 3c0e be3f
000003f0: e825 c33f 3ca3 1140 b81d c83f ad92 0d40

fc2.weight f4 [256, 516]
-0.02783275 0.017309245 -0.016916553 -0.02296339 -0.06554716 -0.04242778 -0.041275676 0.073898874
-0.0072773322 -0.011206489 -0.04735244 -0.031047061 -0.05329771 0.03647718 -0.0056478796 0.040892456
0.042394225 0.0061036926 0.05940354 -0.065571845 -0.048291486 0.05560769 0.018542316 -0.030108036
0.062705174 -0.06317549 0.004606829 -0.038091525 0.06851406 0.003172469 -0.0054566665 0.0014914285
-0.025140261 0.062073536 -0.0046447967 -0.040267088 0.027996175 0.02242894 0.03220067 -0.062161196
-0.0034472926 0.021806657 0.039617743 -0.047503762 -0.048287332 0.053743083 -0.021785282 0.017450338
-0.06474856 -0.046443313 -0.07392967 -0.026207764 -0.017052094 0.045594487 -0.03612023 0.061765786
-0.022419775 -0.053135496 -2.9775374e-05 -0.030170403 0.012758264 -0.06524606 0.019155465 -0.0666325
0.021172889 0.002790848 -0.044774376 -0.0336598 0.008667505 -0.015491187 0.0322101 -0.025222559
0.0031935528 0.03893247 -0.044937164 0.07109597 0.07003351 -0.045774225 0.017654173 0.01577147
-0.042546175 0.02978036 -0.006903339 -0.0009173673 -0.038117602 -0.05426727 0.007757947 0.01091438
-0.012633926 -0.048416324 -0.04050744 0.011188101 -0.027887734 -0.0057197763 -0.055335194 -0.055209316
-0.052838396 0.011235078 0.031719238 -0.024789013 0.028540852 0.005707314 0.048509806 0.016553387
-0.04483421 0.028082313 -0.01637397 -0.05191711 0.047529712 -0.031252846 -0.06728045 0.002645736
0.0024596718 -0.00020923153 -0.019047387 0.0002656416 -0.018192522 0.01897272 -0.0366409 0.049858287
-0.034049787 -0.05280901 -0.07676221 -0.0048988145 0.032658737 0.042161465 -0.03644207 0.033528
0.008387629 -0.047134183 -0.028573101 0.05680349 -0.04143177 0.070135064 -0.055990685 -0.038163465
-0.0224781 -0.005581974 -0.017499827 -0.0051377136 -0.040647797 -0.045237057 0.006232241 0.017373629
-0.056360006 -0.035970308 -0.04064249 0.016196843 0.04793037 -0.035333037 -0.064481124 0.02794325
-0.009557068 -0.018461924 -0.06273783 -0.05073895 -0.008579313 0.013295641 -0.005974917 0.06158289
-0.028055098 -0.029744092 0.025138825 -0.019314623 0.003803618 -0.044564422 -0.06025873 0.0019159408
0.040477604 0.046659686 -0.019256031 0.06370855 -0.0560723 0.026337747 -0.05310506 0.01771534
-0.014171614 -0.050841432 0.02714087 0.004458714 0.02998651 -0.06170742 0.048648268 -0.008558547
0.005749184 -0.02434131 -0.05534621 0.022174492 -0.06844409 -0.009726793 0.022124812 0.022713427
-0.06033916 0.07571088 0.03584055 0.05319776 -0.029444804 -0.08766681 -0.0029941143 0.01926487
-0.057595618 -0.0100481855 -0.02748604 0.03381123 0.029952014 -0.0017389597 0.0584137 -0.012070983
0.009611135 -0.01576342 0.030909145 0.0630166 0.039409116 0.032772083 0.02801797 0.026136767
-0.044959538 -0.031552456 -0.05704766 -0.009892488 -0.063139826 0.05346865 -0.013063164 0.032754283
-0.019901246 -0.062445942 0.023456404 0.0362881 -0.07828528 -0.0050251707 0.0013300885 -0.017749963
-0.025177611 -0.05226565 0.03980161 -0.04012738 0.062039167 0.0025341522 -0.0015477107 0.010034337
-0.0009345057 -0.020942781 -0.030942857 -0.045861375 -0.07527659 0.044418834 0.0071874685 0.043002743
-0.017092459 -0.012734861 -0.058967516 -0.058505792 -0.06988679 0.022472538 0.0139583 0.030435111
00000000: 8201 e4bc 1ecc 8d3c 9594 8abc b81d bcbc
00000010: 973d 86bd c0c8 2dbd af10 29bd 4b58 973d
00000020: b076 eebb 6c9b 37bc a2f4 41bd 6856 febc
00000030: b34e 5abd 1869 153d d911 b9bb d97e 273d
00000040: 91a5 2d3d 7c01 c83b 2051 733d 884a 86bd
00000050: 4bcd 45bd e4c4 633d 0ee6 973c 21a5 f6bc
00000060: 926b 803d 2762 81bd e2f4 963b dc05 1cbd
00000070: 1951 8c3d 33e9 4f3b d6cd b2bb 097c c33a
00000080: f3f2 cdbc d240 7e3d 6133 98bb 1aef 24bd
00000090: 3c58 e53c e5bc b73c dae4 033d bd9c 7ebd
000000a0: f9eb 61bb e0a3 b23c 3746 223d 4e93 42bd
000000b0: f0c8 45bd b521 5c3d 0c77 b2bc 03f4 8e3c
000000c0: e59a 84bd 583b 3ebd 7068 97bd aab1 d6bc
000000d0: d5b0 8bbc 49c1 3a3d cef2 13bd 1ffe 7c3d
000000e0: ada9 b7bc 9ba4 59bd 21c6 f9b7 ec27 f7bc
000000f0: 0a08 513c ba9f 85bd eceb 9c3c 9f76 88bd
00000100: c472 ad3c a9e6 363b 5665 37bd dcde 09bd
00000110: 2702 0e3c bfce 7dbc bdee 033d 8a9f cebc
00000120: ed4a 513b a777 1f3d 0810 38bd c49a 913d
00000130: bb6d 8f3d c17d 3bbd 7c9f 903c 2b33 813c
00000140: e644 2ebd f1f5 f33c 6835 e2bb 7a7b 70ba
00000150: 3421 1cbd 5b47 5ebd 6036 fe3b 3ad2 323c
00000160: 87fe 4ebc 3250 46bd 21eb 25bd 4c4e 373c
00000170: d174 e4bc f66c bbbb 28a7 62bd 2a23 62bd
00000180: 136d 58bd 5513 383c 08ec 013d 5412 cbbc
00000190: 81ce e93c 6b04 bb3b 38b2 463d f89a 873c
000001a0: 14a4 37bd e10c e63c b422 86bc 09a7 54bd
000001b0: 84ae 423d fc02 00bd 55ca 89bd 1664 2d3b
000001c0: 7232 213b 2965 5bb9 4409 9cbc d045 8b39
000001d0: 7c08 95bc ad6c 9b3c c514 16bd 3438 4c3d
000001e0: ca77 0bbd 434e 58bd 8135 9dbd 3c86 a0bb
000001f0: 2bc5 053d 80b1 2c3d 4844 15bd a854 093d
00000200: 446c 093c c60f 41bd 2312 eabc c7aa 683d
00000210: 5cb4 29bd f9a2 8f3d 7d56 65bd 4b51 1cbd
00000220: fe23 b8bc fee8 b6bb cc5b 8fbc 445a a8bb
00000230: 4e7e 26bd 7e4a 39bd d437 cc3b 2453 8e3c
00000240: c0d9 66bd 9a55 13bd bd78 26bd 3eaf 843c
00000250: a352 443d 60b9 10bd ae0e 84bd 3ee9 e43c
00000260: 4095 1cbc 763d 97bc b17c 80bd a5d3 4fbd
00000270: 3f90 0cbc f6d5 593c 3dc9 c3bb 573e 7c3d
00000280: ced3 e5bc e2a9 f3bc f0ef cd3c b339 9ebc
00000290: 1f46 793b 2f89 36bd dcd1 76bd 4e20 fb3a
000002a0: d8cb 253d 3a1e 3f3d d3be 9dbc a179 823d
000002b0: 11ac 65bd 42c2 d73c b184 59bd c31f 913c
000002c0: 0f30 68bc 1b3f 50bd 8856 de3c 671a 923b
000002d0: 45a6 f53c ebc0 7cbd 6843 473d 2639 0cbc
000002e0: a763 bc3b 6d67 c7bc b5b2 62bd 48a7 b53c
000002f0: 6a2c 8cbd 205d 1fbc 183f b53c 8211 ba3c
00000300: 3226 77bd 4e0e 9b3d 8acd 123d e5e5 593d
00000310: 3b36 f1bc a88a b3bd e738 44bb 5cd1 9d3c
00000320: 62e9 6bbd 25a1 24bc 672a e1bc a57d 0a3d
00000330: ed5d f53c ceed e3ba 3443 6f3d 5fc5 45bc
00000340: 0678 1d3c 4a22 81bc 2d35 fd3c d90e 813d
00000350: 746b 213d 053c 063d f185 e53c c61c d63c
00000360: 7e27 38bd 263d 01bd cfaa 69bd 1a14 22bc
00000370: 744f 81bd f101 5b3d e206 56bc 5b29 063d
00000380: f007 a3bc 51c7 7fbd a527 c03c d5a2 143d
00000390: 0854 a0bd 30aa a4bb 5d56 ae3a 5f68 91bc
000003a0: 4741 cebc 8214 56bd 0307 233d 9c5c 24bd
000003b0: c81c 7e3d 0514 263b 8edc caba 0f67 243c
000003c0: 9ef9 74ba 3290 abbc e07b fdbc 23d9 3bbd
000003d0: 9d2a 9abd 86f0 353d db84 eb3b a523 303d
000003e0: 7c05 8cbc e1a5 50bc ec87 71bd c5a3 6fbd
000003f0: ce20 8fbd 5418 b83c 5bb1 643c 0e53 f93c
