checkpoint_actor_1_agent.pth (torch_old, 746690 bytes, 24 tensors)

bn1.weight f4 [33]
00000000: 4b5b 2d3f 903f 1e3f 73a7 273f a1c2 f73e
00000010: e391 0e3f bee0 023f b770 fa3e aaa0 583e
00000020: 391c 9e3e a770 413e 0ec8 953e 066e b63e
00000030: 13a8 a93e 57a3 993f a3af 723f c0b4 923f
00000040: 87e3 343f 57ae 2b3f a973 283f ee5f 4a3f
00000050: 5e0b 903e 6730 4e3e 9d47 4f3e 4691 2c3f
00000060: e8c9 333f 6beb 2b3f df0f a43f 41ec 2d3f
00000070: bc98 9e3f 3cfc c73e 501f 2a3e acf8 863e
00000080: d3f9 8b3f
0.67717427 0.6181574 0.6548988 0.48390678 0.55691355 0.5112418 0.4891412 0.21155038
0.30880907 0.1889063 0.29254192 0.35630816 0.33136043 1.2002972 0.9479925 1.146141
0.7065968 0.67062896 0.65801483 0.7905263 0.28133672 0.20135652 0.20242162 0.6740917
0.7022996 0.67156094 1.2817343 0.6793862 1.2390361 0.39059627 0.16613507 0.26361597
1.0935615

bn1.bias f4 [33]
00000000: fda8 5abb 7533 65bb 9c0f e73a 51e1 f23a
00000010: f2c0 f0b8 d6ba 49bb 0ee1 483b 022c deba
00000020: 1861 daba 8f65 ddba 759c 28bb a360 8e3a
00000030: f71e 4bba ba7b 1e3b 50b8 3a3a 9299 e2ba
00000040: 54ad 8c3a 5687 fb3a 70a9 843a e93b c2ba
00000050: 0f8a 21bb 4cfe a339 ad54 b43a d59c 523b
00000060: 818d 6c3a e4de a13a ce4f 5cba 2b4d 7e37
00000070: d197 8d3a 45db bf38 4f1c 8136 4d2b 4339
00000080: 611c 1d3b
-0.0033364885 -0.0034973298 0.0017628553 0.0018530284 -0.00011480031 -0.003078153 0.0030651721 -0.0016950371
-0.0016661016 -0.0016891229 -0.0025728021 0.001086254 -0.00077484496 0.0024182633 0.00071228016 -0.0017288199
0.0010732808 0.0019190114 0.0010121297 -0.001481888 -0.002464894 0.0003127925 0.0013758146 0.0032136936
0.0009023771 0.0012349752 -0.0008404226 1.5157547e-05 0.0010802691 9.148432e-05 3.847795e-06 0.0001861278
0.0023973214

bn1.running_mean f4 [33]
00000000: 9d03 823d 2f8c fabf 9fe3 cabe b3f4 c33e
00000010: 93f6 d839 e750 ca3c a1c9 c0bc e651 053d
00000020: a8e8 ebbb 1631 f23b cecf 753d c263 803d
00000030: 4ae2 07bd 77b4 03bb 120d 30c0 9c4b 10bf
00000040: 5a64 013d b84d a0bd 783e e939 d1f4 9f3d
00000050: 0c2f e13c 8d5b 103c 2af0 68bd 5e87 223d
00000060: 55f6 543e cb51 813d 1f1f d7bd fcff 7fbf
00000070: 0b5a 8bbc 0000 0000 fcff 7f3f 0000 0000
00000080: c878 49bc
0.063483454 -1.9574031 -0.39626786 0.38272628 0.00041382443 0.02469678 -0.023533644 0.032548808
-0.0071993656 0.0073911054 0.06001263 0.06269027 -0.03317479 -0.002009658 -2.7507977 -0.5636537
0.031589843 -0.07827324 0.00044487766 0.07810367 0.027488254 0.00881089 -0.056869663 0.039679877
0.20797093 0.06314429 -0.10503983 -0.99999976 -0.01701071 0.0 0.99999976 0.0
-0.012296863

bn1.running_var f4 [33]
00000000: ea0a 8840 5a08 2d40 c3bf a340 2f0c e93e
00000010: 34d6 c73d 8d5c 103e 769f 1f3e fced b13f
00000020: 22ee 1e3e 1098 943e d8d5 a740 6ac7 cd40
00000030: 78d0 bc40 76ec 8f41 3ebf f440 2780 ac41
00000040: 0e4d 4c3e 5f55 643e 831b 3e3e 55fc c13e
00000050: 72be 9540 6255 953f 3f86 0440 3b29 8541
00000060: 0238 be41 49cb a241 c5b1 ff41 0400 0000
00000070: aa39 0042 0400 0000 0400 0000 0400 0000
00000080: 7f2b a33e
4.2513323 2.7036347 5.1171584 0.45517108 0.09757653 0.14097805 0.15588173 1.3900752
0.15520528 0.29022264 5.244854 6.4305925 5.900448 17.99046 7.648345 21.562574
0.19951269 0.22298191 0.18565182 0.37887827 4.6794977 1.1666682 2.0706937 16.645132
23.777348 20.34926 31.961802 6e-45 32.056313 6e-45 6e-45 6e-45
0.31869122

fc1.weight f4 [512, 33]
00000000: 7dcc 8dbe 1c11 8d3e b5c6 03be 3be1 0a3f
00000010: 0f6b 8bbe abd7 b93e 5c4b 2d3f 06e2 d3be
00000020: 69d5 b53e 4ba7 2dbf 19b7 91bf 171a eabd
00000030: e96f 34be e14f 02bf 9388 f0be 81a7 9cbd
00000040: b464 7a3f 7002 c3bc 1c52 90be e77d eebe
00000050: 2691 98bd 2f9b 97bf 4ebe d13e abbf 053f
00000060: 50e7 c5be 5906 c2be 26fd f83e 1835 a3bc
00000070: 0a16 f7bd e283 55bc 17cd 00bd e0d0 fabc
00000080: 982a 30be e2a4 a0bd a765 fabe bcb5 32bf
00000090: 652e 943d f036 443d b08e 56bf 17d7 a73e
000000a0: 7d2d 083e 1f08 9abe 1f26 98be 9748 9ebc
000000b0: 865f 01bf 7669 013e 6e70 5abf 549d 8a3e
000000c0: 4529 cf3a d129 b2be 0791 abbe b195 bd3c
000000d0: e92f a43e 611f 233f 4353 a2be e2a5 ad3e
000000e0: e9a3 243d d3ae 4abe 9071 913f 8b1f a6bd
000000f0: 6dfc c6bc 6fac ef3e 12e9 fd3c 8760 85bc
00000100: 4f7e 2d3d 29eb 38bf 55a2 aebd 726f 3bbb
00000110: c11e 29bd d01a 4d3d 5211 b53c 08b2 a2bd
00000120: 41de 8a3c bf80 0c3d 339c 053e c8cd 65bb
00000130: 977b f63a da43 7cbd 8080 2a3c f519 1a3d
00000140: 0f50 733d 2f5b 6abd 955c 613d e279 74bd
00000150: 2d90 cfbd 7a31 a7bd 7ad4 193d cf8c f93c
00000160: 8865 98bc 1b64 2a3d 1bb4 84bd beb2 253d
00000170: 7f1d 77bc 08cf 2dbc 31be 86bd 65d6 05bd
00000180: 40df 9fbb 00dc 6a39 c949 80be 063b 4fbd
00000190: 0647 cd3e 5e0e 80bf 12c0 bb3d 3bf0 a23d
000001a0: f2a2 b13c 17c2 67be 1208 f9bd ee8f 263e
000001b0: 0253 cd3e 0608 853e 7b02 4cbe ff74 25bf
000001c0: 4825 28bc f24b 44be 9845 183f 0c53 0fbf
000001d0: 5d13 103f 61bf a03e 3e97 16bf 4876 9d3e
000001e0: 5b16 27bf a692 2dbe 5ff6 403d faa8 8abf
000001f0: bfd1 473f 669e 1dbe 0101 263d 2633 11be
00000200: e6db ce3c ca6a fa3c ead4 8d3c 4503 bb3e
00000210: dcc6 923e a75a 74be 9784 03bd eb4c babd
00000220: 8fe9 63bf f37e 35bf e008 aabd 5b99 e63e
00000230: e760 783e e048 073f 88ea 5f3f 9b66 e6be
00000240: d622 0e3d 1b69 babe 0bd6 083e cdae 01bb
00000250: 5f58 d13e 1349 86bf 00a6 813e 8f74 98bd
00000260: f040 163f d6fb 3abf 4763 bd3d d60d 2bbf
00000270: edb6 26be b04d 033f 467d 5d3e a5a2 113d
00000280: 41d7 0a3f 1851 7dbc fccc 22bc 6c47 953c
00000290: b6a5 dbbe 1d82 ecbe dba8 a6be be09 67be
000002a0: b727 4e3f 7e4c 2fbe 4268 543e 0b35 3e3f
000002b0: d6bb 30bf a6ed 14bf e29f 58bf f7a4 36bf
000002c0: 673b 55be 7722 06be b59a bd3e 23b1 803d
000002d0: 4a9f 7cbd 81bc 843e e6b3 dc3e 23d8 013e
000002e0: 5c2e d1be 2dc6 c0bd d058 45bf 36da c43e
000002f0: d142 00be a40f 29bf f964 d7be 6620 87bd
00000300: f0d6 d1bb be21 4a3e 54bf 1e3c c13c 1bbd
00000310: dd7c 323d 5163 aabf 79dd e3be 4fa8 c13d
00000320: eff9 7c3e a3c4 183f c96c f1be 3545 e9be
00000330: b2c2 1c3f bffa 733f b7e4 00bf 0753 78bf
00000340: 447b 6cbf dac8 a2bd df25 813e 3bbc 45bd
00000350: 5bce 1a3f 63d5 2bbd c798 473f 710c 1b3e
00000360: d3a9 6ebd cf69 543c 0876 003f 3791 f83e
00000370: 5254 603d 31b7 1dbf 2c31 603e a08f bb3e
00000380: 1309 45bf f062 44bb edb1 123e 7c69 8a3c
00000390: e874 933b 4554 243d a958 c5be a669 a43e
000003a0: 2479 b03d fe18 c23e 1f1d 08be 17ab cf3e
000003b0: 9936 b83d 47fd 253e ba7a 91be e687 c0be
000003c0: 33f2 0dbf f846 29be 2e11 ec3e acdd 813f
000003d0: 04b9 893e 925e 173f ecc4 5fbf 9e42 59bf
000003e0: d60e 0a3f 8aa8 05bf 3449 a93e 532e 88bd
000003f0: baa9 b03e 9c5c 9b3e d4b1 5a3e e348 5cbe
-0.27695075 0.27552116 -0.1286877 0.54249924 -0.27230117 0.36297354 0.67693114 -0.4138338
0.35514382 -0.67833394 -1.1384002 -0.114307575 -0.17620815 -0.50903136 -0.46979198 -0.07649136
0.9780991 -0.023804873 -0.28187644 -0.4658043 -0.0744956 -1.1844233 0.40965503 0.5224559
-0.3865304 -0.37895468 0.48630637 -0.019922778 -0.120647505 -0.013031932 -0.03144559 -0.030617177
-0.17203748 -0.07843949 -0.4890568 -0.69808555 0.072354116 0.047903955 -0.83811474 0.32781288
0.13298602 -0.3008432 -0.29716584 -0.019321723 -0.5053638 0.12637886 -0.85327804 0.27073157
0.0015805146 -0.34797528 -0.33509085 0.023142667 0.32067803 0.63719755 -0.3170415 0.3391562
0.04019538 -0.19793253 1.1362782 -0.08111485 -0.024290288 0.46811244 0.030994926 -0.01628138
0.042356785 -0.72233826 -0.08527056 -0.0028600362 -0.041289095 0.0500744 0.022102986 -0.07944113
0.016951682 0.03430247 0.13047867 -0.0035065282 0.0018805143 -0.061588146 0.010406613 0.03762241
0.05940252 -0.057215866 0.055019934 -0.05968655 -0.10134921 -0.08163734 0.03755615 0.03046265
-0.018603101 0.041599374 -0.06479665 0.040453665 -0.015082716 -0.010608442 -0.06579245 -0.032675166
-0.0048789084 0.00022397935 -0.25056294 -0.0505934 0.4009325 -1.0004385 0.09167494 0.079559766
0.021684144 -0.22632633 -0.121597424 0.16265842 0.40102392 0.25982684 -0.19922821 -0.64631647
-0.010262795 -0.19169596 0.5948119 -0.55986094 0.56279546 0.3139601 -0.5882453 0.30754304
-0.65268487 -0.16950473 0.047109958 -1.0832818 0.7805442 -0.15392455 0.0405283 -0.14179668
0.02525134 0.0305685 0.01731344 0.36525932 0.28667343 -0.23862706 -0.03210887 -0.09096702
-0.8902826 -0.70896834 -0.08302474 0.45038876 0.24255715 0.52845573 0.8746724 -0.45000157
0.03470119 -0.36408314 0.13362901 -0.0019788027 0.40887734 -1.049105 0.2532196 -0.07444107
0.58692837 -0.7304052 0.09247451 -0.66817987 -0.16280718 0.51290417 0.2162982 0.0355555
0.542347 -0.015461229 -0.009936567 0.018222533 -0.42899865 -0.4619302 -0.32550701 -0.2256231
0.8052935 -0.17119023 0.20742896 0.7429969 -0.69036615 -0.5817512 -0.8461896 -0.71345466
-0.20823441 -0.13099085 0.37032095 0.06283786 -0.061675347 0.25925067 0.43106002 0.12680106
-0.40855682 -0.09412799 -0.7708864 0.38447732 -0.12525488 -0.6603949 -0.42069224 -0.065979764
-0.0064037964 0.19739434 0.009689171 -0.037899736 0.04357611 -1.3311559 -0.44504908 0.094559304
0.24704717 0.59675044 -0.4715331 -0.45560613 0.6123458 0.95304483 -0.5034899 -0.9700169
-0.9237559 -0.07948466 0.25224206 -0.048275214 0.60471123 -0.04195155 0.77967495 0.15141465
-0.058267426 0.01296468 0.501801 0.4854829 0.054767914 -0.6160765 0.21893758 0.36633015
-0.7696697 -0.0029966198 0.14325686 0.016896002 0.0045000203 0.04011943 -0.38544205 0.32111853
0.08616856 0.37909693 -0.13292359 0.4056022 0.08994789 0.16209899 -0.28413945 -0.37603682
-0.5544769 -0.16530979 0.46106857 1.0145774 0.26898968 0.5912868 -0.87409854 -0.84867275
0.5392889 -0.52210295 0.33063662 -0.06649461 0.3450449 0.30344093 0.21356899 -0.21512179

fc1.bias f4 [512]
00000000: 261d 0f3e f0ce 6b3d ff66 e83c 4734 02be
00000010: a59a 1f3c 05f4 07be 47dc cf3d f926 eb3d
00000020: 0bc7 183e 6185 bf3d 89c8 8e3d 0e10 77bc
00000030: 86d4 253e 6aeb 2abe 7fc4 8abc b0d2 2e3e
00000040: 0b37 be3d 60ca 75bd 99cd 143e 2293 08be
00000050: 4daf a3bd 4f9d 1f3e 0aea 053b 71cc 36bc
00000060: c1db 02bd 69d4 d33b 7b7e 5b3d 1592 513d
00000070: 2864 8e3d 5077 4eba 5f8b 813d 499d 98bd
00000080: 0a2b 963d eae3 373a b39a 99bd 1338 0ebe
00000090: 2cbb 86bd d869 c53d bd03 883c 448a 8b3d
000000a0: ddaf 9a3c 27a3 11be 9e77 b93d a528 e93d
000000b0: 9936 8ebc dc67 e33d 6666 d63d 3b78 1ebd
000000c0: f1df e5bd 9225 36bd 2e61 4e3d d523 a8bd
000000d0: 39b6 9d3c 8ac8 963d 6b5a e73c 29a4 703d
000000e0: abef 313e 9bc5 09be d75b 623d 979b fbbc
000000f0: fd4d 2a3e 0f05 f43d 1a57 913a f584 183e
00000100: cb77 8ebc 6f62 84bb 9446 f83d b2b7 0d3e
00000110: 2dee 2fbd 5d01 ca3c 1827 68bd 9906 c83d
00000120: 93bb 153e 610c 063e 8010 2dbe b311 1f3e
00000130: 8e25 12be cae3 a8bc f482 223e fe49 ddbd
00000140: d573 8abd 9413 503d fd63 bfba e3ab 1cbe
00000150: 1e8a 913d 38c5 4dbd a89c 413c bd56 edbc
00000160: f79f 243e fb7b 4c3d a687 0c3e 7647 123e
00000170: 38cc 12be c44c 1f3e 3246 51bd b5eb e73d
00000180: d959 0ebd 6ccd 5f3d 1c9d 2ebe e8b4 053e
00000190: bca6 0ebe 9064 23bd 04e3 16be b014 de3d
000001a0: f866 b0bc b0e8 a63d 3067 d8bd 4a4b 0dbe
000001b0: 65a1 213e 47a6 003e f9a3 873d 14bc cebd
000001c0: 2a55 09be 2768 883c 1a60 023c acd2 263e
000001d0: 3c48 203e d643 07bd a04f 9cbd 959e 343d
000001e0: 2a6a 393c 5a2a 82bb 8e8e e0bd f337 2fbe
000001f0: f961 793d bd87 d93d 4ba0 333d 153a bfbd
00000200: b183 f73d 4f01 94bd c693 93bd 6ad5 863c
00000210: cf1d 153d 3059 9e3d c6f4 95bc df0d 0abe
00000220: bb2a e5bd da83 90bd 7f7b 2d3d ce83 75bd
00000230: 7d55 f1bd 87fd 9cbd e352 303e 4a72 0abd
00000240: 0213 233e dd4e 833c db63 a93d 241c 113e
00000250: 1ed8 1bbe d3d8 b0bd fde1 bcbd 4d79 1c3e
00000260: 127d e4bd 4ae9 2fbe 03a0 a03b e081 60bd
00000270: ad79 c83b 604f c8bc 37d2 8cbd 9447 b8bc
00000280: 31a1 ff3d c8c0 06be 218e 87bd 69ea 39ba
00000290: 6b3c 79bc 1539 e1bc 5e38 cbbd 700d cf3d
000002a0: 7def a3bc db44 4c3d d184 dfbd 1a18 2d3e
000002b0: 501c f33c c940 293e c666 41bc 2e58 12be
000002c0: cd58 16bb 8652 c63c 127a 26be 1744 3c3b
000002d0: 9590 0cbe 758a 1fbe 141c 133e 4bdb 1d3e
000002e0: 7079 57bd bfaf a4bc 7fb7 2dbd 7fbf 8c3c
000002f0: b205 dabd d391 37bd 6ce1 633d 61c1 c23d
00000300: cea5 a63d 440e 02bd 4539 24be 45f4 f1bd
00000310: 9ca4 f43d 5303 25be b841 043e bc42 f13d
00000320: fd0e f33d ca5b 283e f136 d0bb aa7b a1bd
00000330: 7308 e3bc 3796 e93d 5d5e 56bd 87ee 483c
00000340: 4adc b73c 74d9 aa3d dba4 bd3d 3c10 05be
00000350: da50 22bd 6423 e33d 8c85 d33d eea6 2cbe
00000360: deab c4bd 7973 0e3e 0267 053e 03b2 743c
00000370: a1e4 16be 11ec ea3d 5f3b 6d3d 482c 313c
00000380: fca2 2abe a74e d6bc 2a24 243e 7389 f7bc
00000390: 6832 253e 6ebe 7a3d 279b 1f3e 6e5d 9c3d
000003a0: ada9 ccbd 1423 2cbe f20a 393d af6b 1cbd
000003b0: bc0f 02bc 53f2 1bbc 8f75 103d 53dd b7bd
000003c0: a36e 31be 9d49 4fbd d692 b8bd 2751 02bd
000003d0: eabd ebbd 36b0 223e 2d25 0a3e 885c 913d
000003e0: 8bbd ad3d d838 143e 8939 a5bb b043 39bc
000003f0: 4388 efbd 02d5 c43d 56b3 cc3d d6c7 533d
0.13975963 0.057570398 0.028369425 -0.12715255 0.00974146 -0.1327668 0.101494364 0.11482043
0.14919679 0.09351612 0.06971843 -0.015079511 0.16194353 -0.16691366 -0.0169394 0.17072558
0.09287842 -0.060007453 0.14531554 -0.13337377 -0.0799242 0.15587352 0.0020433688 -0.011157141
-0.031947855 0.0064645302 0.053587418 0.051164705 0.06952697 -0.00078760553 0.06325411 -0.07451875
0.07332428 0.0007014858 -0.0750021 -0.13888578 -0.06578669 0.09639329 0.016603345 0.068134815
0.018882686 -0.14222394 0.09056018 0.113847055 -0.017360019 0.11103794 0.1046875 -0.03868888
-0.11224354 -0.044469424 0.050385647 -0.082099594 0.01925193 0.073624685 0.028241357 0.058750305
0.17376582 -0.13454287 0.055263367 -0.03071384 0.16631313 0.11915027 0.001108858 0.14894469
-0.017391106 -0.0040400545 0.12122837 0.13839605 -0.04295175 0.024658853 -0.056677908 0.097668834
0.14622335 0.1309066 -0.16900826 0.15534095 -0.14272138 -0.02061643 0.15870267 -0.108051285
-0.067603745 0.05079992 -0.0014601942 -0.15299945 0.07106422 -0.05023691 0.011817135 -0.028972024
0.16076647 0.049922924 0.13723621 0.14285073 -0.14335716 0.15556628 -0.051092334 0.113242544
-0.034753654 0.054639265 -0.1705212 0.13057292 -0.13930792 -0.039890826 -0.14735037 0.108437896
-0.021533474 0.0814985 -0.105665565 -0.13798252 0.15784223 0.1256343 0.06623072 -0.10094467
-0.13411394 0.016651226 0.007957483 0.16291302 0.15652555 -0.033023678 -0.07632375 0.044096548
0.011316815 -0.003972334 -0.1096469 -0.17111187 0.06088445 0.10621593 0.04385404 -0.0933725
0.12085665 -0.07226812 -0.0720592 0.016459186 0.03640538 0.07731855 -0.018305194 -0.13481854
-0.11189791 -0.07056399 0.042354103 -0.059940152 -0.11783884 -0.07665544 0.17219119 -0.0338004
0.1592522 0.016028816 0.08270999 0.14170891 -0.15219161 -0.08635106 -0.09222791 0.15280648
-0.11156668 -0.17178836 0.0049018874 -0.05481136 0.0061180205 -0.024451911 -0.06876033 -0.022495069
0.12481917 -0.13159478 -0.06618906 -0.000709212 -0.015212159 -0.02749304 -0.099228606 0.10109985
-0.020011658 0.049870353 -0.109140046 0.16903725 0.029676586 0.1652862 -0.011804288 -0.1429145
-0.0022941113 0.024209272 -0.16257504 0.0028727108 -0.13727029 -0.15580161 0.1436618 0.15415685
-0.052606046 -0.020103334 -0.042411324 0.017181156 -0.106456175 -0.044816803 0.0556349 0.0950954
0.081370935 -0.031751886 -0.16037472 -0.11814169 0.11945459 -0.1611455 0.12915695 0.11780307
0.11868093 0.16441265 -0.006354206 -0.07884915 -0.02771399 0.11405604 -0.052336086 0.012263901
0.02244391 0.08342257 0.09259959 -0.12994474 -0.039627887 0.110907346 0.103282064 -0.16860554
-0.096030936 0.13911237 0.13027576 0.014935019 -0.14735653 0.11470807 0.05791795 0.01081378
-0.16663736 -0.026160551 0.1602942 -0.030216908 0.1613251 0.061216764 0.1558653 0.07635008
-0.099933006 -0.16810256 0.045176454 -0.038188633 -0.007938322 -0.009518224 0.035268363 -0.08977761
-0.17327361 -0.050607312 -0.09012382 -0.031815674 -0.115108326 0.15887532 0.13490744 0.07097727
0.08483418 0.14474809 -0.005042259 -0.011307642 -0.11695912 0.096109405 0.09995143 0.05170425

bn2.weight f4 [512]
00000000: 8812 f93e 281a 533f fdb8 113b 7b8e 043f
00000010: 2c27 403f 7a2f 373f 20a1 2e3f f141 1a3f
00000020: 8580 563f c4bb 233f 6ab7 213f 9fad 2d3f
00000030: eed8 c53b 0af4 2f3f c4ca 1d3f 9823 033f
00000040: b9de 3b3f 9225 6a3f d2ee 2e3f 86ff 103f
00000050: 628d ea3e 6fbc 0d3f a79a 1a3f 890e 233f
00000060: 7409 803f e05d 323f 9416 413f f1f6 163f
00000070: 5118 403f f1b4 253f b88d 043f fc3b 1b3f
00000080: 40bc 623f 8c97 223f 7ec4 2e3f 3cb0 523f
00000090: 8edb 1d3f 1337 253f 2cde 163f f4ae 0a3f
000000a0: 28f7 1a3f 69f8 403f 92b9 2a3f b352 1f3f
000000b0: 9abb 263f d513 5a3b deec 4d3f c4c7 1c3f
000000c0: e145 1c3f c8ba 513f ea98 2c3f 58ef 0f3f
000000d0: af5a 343f f7e4 283f fdc0 fc3e 7968 293f
000000e0: 80a0 2a3f 3a13 2c3f 828c 113f 9cf6 013f
000000f0: 892f 103f 55b6 093f 0b47 533f 0a61 f03e
00000100: 24c7 203f 2482 1e3f 68c9 273f f8a5 1a3f
00000110: e25f 313f 9db3 2f3f 0356 283f ebbe 4a3f
00000120: cbab 263f 1cc4 2b3f ccd4 3e3f a04e 003f
00000130: c86e 193f 364f e53e bd8a 503f 7a38 013f
00000140: a215 283f 7711 413f ca6b 203f ed8c 313f
00000150: 4f2d 383f 0ad8 173f 15d2 373f 3c22 4b3f
00000160: 4395 273f 2e3c 153f a3f5 5f3f 73c5 253f
00000170: 8143 433f 6a22 2c3f 24a7 e13e 7a67 803f
00000180: 0fda 393f b59e e23b 16a3 2c3f 9303 243f
00000190: fc68 1e3f d9f9 48ba cb68 1c3f 816c 0b3f
000001a0: 05e2 2e3f 6288 0a3f f5c2 253f 6e3f 3c3f
000001b0: 1ff8 233f b13b 183f 3bb3 903f 908e 1d3f
000001c0: 08bb 1c3f 8192 263f c166 ef3e eae1 0f3f
000001d0: c80c 363f b144 333f 0597 143f 7ca1 133f
000001e0: bd33 233f c906 193f 2c7f 203f d156 323f
000001f0: 07ed 3a3f 83c0 363f e6d5 1b3f 6d87 2d3f
00000200: f14c 003f 4ffc ac3f d994 5a3f 4250 313f
00000210: f118 4c3f f52a 083f bcac 213f a6b7 213f
00000220: 50f3 373f 95d4 d13e 88a8 1c3f 6e55 293f
00000230: 06e9 1f3f 023a 1e3f 9332 143f 9d59 123f
00000240: c3f3 423f 330c 363f 7ec5 3e3f 967c 303f
00000250: 8f23 3f3f b1e7 3d3f 0598 4f3f e3e1 2a3f
00000260: 500d 473f 23df 1e3f 0ded 323f f11d dd38
00000270: 8637 503f 09e0 4c3f 00fc 2b3f a889 1f3f
00000280: ada9 403f 8407 313f c537 153f b999 2b3f
00000290: 26cf 063f 4174 2d3f 0e4e 5a3f ac37 313f
000002a0: 92e5 253f 9b82 2f3f 4e43 463f bb9e 3c3f
000002b0: 7f82 3c3f 4a21 573f 83f9 333f d414 363f
000002c0: cae9 1d3f f8b6 373f be25 133f d0d7 093f
000002d0: 63c0 f13e 6451 3e3f 9e08 103f 735a 3b3f
000002e0: 6bb4 073f ced6 1d3f 9e3c 2c3f e807 4f3f
000002f0: c7d4 5a3f 6a44 293f 7232 213f 2568 573f
00000300: 714d 223f 8899 3c3f 7576 183f 398d 1f3f
00000310: d73d 103f c749 4f3f 70e0 263f 9ff3 2d3f
00000320: 8e84 1c3f a6f5 2b3f d861 213f 5b40 353f
00000330: 3edd 033f 5adb 203f ee38 143f 6d26 053f
00000340: f77f 253f bd1d 023f 597a 313f 3a2f 503f
00000350: 412c 103f 80d6 3f3f 8f5d 3d3f 025a 063f
00000360: f3f7 263f 8ee8 173f b3bd 1a3f b550 433f
00000370: 29f9 1c3f 95f7 2c3f 9ea8 0f3f 9bf3 3b3f
00000380: 85e4 043f b0b0 0b3f e8b8 223f 7011 483f
00000390: 2404 283f 694c 1c3f 0722 423f 602b 2d3f
000003a0: 15d7 7e3f b131 d53e e0c2 203f 792e 1d3f
000003b0: 5489 173f 7885 253f 3342 443f 1544 403f
000003c0: 43fe 0c3f 7ce8 223f 4ac8 8b3f 3af2 333f
000003d0: 051f 1b3f a0b2 1a3f 2661 1c3f 7125 103f
000003e0: 7aa2 373f 66cd 1f3f 63ac 1c3f 4a1d 303f
000003f0: 9a56 8a3f a9d3 243f 151a 123f 6dc4 033f
0.4864695 0.82461786 0.0022235506 0.5177991 0.7505977 0.7155682 0.6821461 0.6025687
0.83789855 0.6395838 0.6317049 0.6784305 0.006037823 0.6873175 0.6163752 0.51226187
0.7338672 0.9146358 0.6833316 0.566399 0.45810992 0.5536565 0.6039223 0.63694054
1.0002885 0.6967449 0.75425076 0.5897055 0.75037104 0.6472922 0.51778746 0.60638404
0.88568497 0.6351249 0.68268573 0.8230016 0.6166314 0.6453716 0.5893276 0.5417321
0.6053338 0.75379044 0.6668941 0.62235564 0.6513001 0.003327598 0.80439556 0.6124232
0.61044127 0.8192563 0.6742083 0.56224585 0.7045087 0.6597437 0.49365988 0.6617504
0.66651154 0.6721684 0.5685502 0.5076692 0.5632253 0.5379384 0.8253028 0.46949035
0.62803864 0.6191733 0.65541697 0.604095 0.6928693 0.68633443 0.65756243 0.7919757
0.65105885 0.67096114 0.7454345 0.5011997 0.59934664 0.44786996 0.814617 0.504768
0.6565801 0.75417274 0.62664473 0.6935566 0.71944135 0.59314024 0.71804935 0.7934911
0.6546213 0.5829495 0.87484187 0.6475441 0.7627488 0.6724001 0.4407283 1.0031579
0.72598356 0.006915892 0.6743635 0.64067954 0.61878943 -0.0007666625 0.610974 0.5446244
0.6831363 0.54114354 0.64750606 0.73534286 0.6405048 0.5946608 1.1304697 0.6154566
0.6122289 0.650673 0.46758083 0.5620409 0.7111325 0.7002669 0.5804294 0.5766828
0.6375082 0.5977598 0.6269405 0.6966372 0.73017925 0.713875 0.6087326 0.6778477
0.50117403 1.3514498 0.85383373 0.6926309 0.7972556 0.5319055 0.63154197 0.6317085
0.7185564 0.409825 0.6119466 0.6614598 0.6246494 0.6180726 0.5788967 0.5716799
0.761532 0.71112365 0.745201 0.68940103 0.74663633 0.7418166 0.8109134 0.66750926
0.7775469 0.6205923 0.6989296 0.00010543678 0.8133472 0.8002935 0.67181396 0.6231942
0.75258905 0.6915209 0.5828822 0.6703144 0.52659833 0.67755514 0.8527535 0.69225574
0.6480342 0.68558663 0.7744645 0.73679703 0.7363662 0.8403517 0.703026 0.7112553
0.6168486 0.71763563 0.57479465 0.5384493 0.47217092 0.7434294 0.5626315 0.7318489
0.5300967 0.6165589 0.67279994 0.8087144 0.8548092 0.66120017 0.629676 0.84143287
0.63399416 0.7367177 0.5955575 0.62324864 0.5634436 0.8097195 0.65186214 0.6794986
0.6113976 0.67171705 0.6303992 0.70801324 0.51509464 0.62834704 0.5789937 0.5201176
0.64648384 0.50826627 0.6932731 0.8132206 0.56317526 0.74936676 0.73970884 0.5248109
0.6522209 0.59339225 0.6044571 0.76295024 0.6131769 0.6756528 0.56116664 0.7341859
0.51911193 0.5456648 0.63563395 0.7815161 0.6563132 0.6105409 0.7583317 0.6764431
0.9954694 0.41639474 0.62797356 0.61399037 0.5919392 0.6465678 0.7666351 0.75103885
0.5507547 0.63635993 1.0920498 0.70291483 0.6059421 0.6042881 0.61085737 0.5630713
0.71732295 0.6242279 0.6120054 0.6879469 1.0807679 0.6438547 0.5707105 0.51471597

bn2.bias f4 [512]
00000000: 479d fabe 9b9f 3ebf cf53 8ebc 2f1c fdbe
00000010: 0527 59bf 12c2 25bf 19ae 4ebf 18c5 f5be
00000020: e2ad 29bf 9f3c 1bbf 8d29 22bf 920f 46bf
00000030: af67 7cbd 27c8 8bbe c9cd 1abf 96b3 abbe
00000040: 38e2 12bf b4a4 13bf 1269 4bbf 5746 ecbe
00000050: a3c0 e0be ea17 0cbf 1ecc a8be 0236 14bf
00000060: 9aca b9be ad63 00bf 084d 0fbf da20 25bf
00000070: 190a 1bbf 7485 08bf 0261 d8be a3a2 b0be
00000080: 0bf6 19bf e23f 3cbf ad3d 45be 1ca6 4dbf
00000090: 443f dfbe d7ba 19bf 98c4 34bf 5e2e 10bf
000000a0: 8958 08bf 00d7 02bf b5f8 14bf 8856 2dbf
000000b0: 8410 04bf 44ab edbc 9eeb 02bf 4a23 81be
000000c0: f1a0 22bf 0207 46bf 5d5b 13bf c5de 23be
000000d0: 4ec8 3cbf 26f6 13bf 0f87 05bf 75ae 21bf
000000e0: e5ff 16bf a1f0 13bf 190e d9be 9547 a7be
000000f0: cc47 24bf 2088 c0be 1b3d 5ebf 0a83 9bbe
00000100: c97c 1fbf 035b 49bf b276 c0be 7b6a 14bf
00000110: 1d15 debe d414 4dbf a891 48bf dcd8 16bf
00000120: e712 7dbe 0a6d 13bf af3d a2be 442a abbe
00000130: 6b2f fabe 0dc2 8abe bf10 0fbf 5ce2 98be
00000140: 475f aabe 31e9 19bf 397a abbe ec5d 49bf
00000150: 6dec 42bf 83f8 f0be 14d2 00bf 703f 31bf
00000160: 6168 c5be 883e f4be 5838 41bf 09ca 12bf
00000170: 37d1 c1be c0ae fcbe a476 98be f020 23bf
00000180: 8568 03bf 249f 11bd b05c 58bf 7670 0ebf
00000190: 737d 10bf 1928 adbb be8a 00bf 0399 f5be
000001a0: c4e8 0dbf d682 c3be 5b65 2dbf e2d3 f7be
000001b0: a398 03bf 44ab fcbe b3bc 0abf a872 0cbf
000001c0: 8263 9ebe b9c6 14bf 6003 0dbe 29e6 90be
000001d0: d6bb 1ebf 5bb2 5bbf eb4e 86be 1de3 01bf
000001e0: d3eb 17bf 3c1c 1dbf 165c 0e3d e016 14bf
000001f0: 4bca 15bf c730 18bf 2b85 09bf 02db e7be
00000200: cee3 a5be 6bd2 81be 964f 16bf 076d cebe
00000210: 3a53 48bf e67e 45bf 4cc6 2fbf 1b81 80be
00000220: 895d 04bf ce05 6ebe 01c7 e2be 90f1 21bf
00000230: 560b 18bf 5b96 2cbf 379d 2bbf 78c5 eabe
00000240: f4de 29bf ec5b febe 8d8b eebe 0433 f6be
00000250: 185e b8be 69eb 03bf 0e40 e7be 72e9 22bf
00000260: 4cce 12bf 524f 32bf 2682 55bf 8667 52bc
00000270: cb79 e9be 9fd7 0abf 166c 17bf ab70 9fbe
00000280: 75a2 2bbf 0bcd 1abf a8b8 2ebf 3b79 3abf
00000290: 377f e4be d13c 12bf c332 eebe 0c59 30bf
000002a0: 60b3 a8be 6741 09bf 6327 0fbf 0d20 19bf
000002b0: dc86 02bf a098 6dbf 8d61 3bbf 24ce 1abf
000002c0: 012b d7be 1274 e7be 9196 fbbe 9c53 5fbe
000002d0: 09a7 81be 74fd 3fbf 7750 e2be 66b3 2cbf
000002e0: 4b82 08bf 53d7 24bf 0c58 3ebf fc49 35bf
000002f0: 3515 3ebf b037 babe 4709 71be 3fcf 3cbf
00000300: 82d9 15bf 9681 a9be 8208 06bf 7680 d4be
00000310: d988 c5be 3d4f 14bf fce6 cfbe 8492 febe
00000320: 904a 30bf cf09 4dbf edee e0be 44e2 27bf
00000330: 177c a5be e980 3cbf 4861 14bf 1d53 e2be
00000340: dd53 efbe b7d5 92be edc4 0abf 545d 17bf
00000350: 4f62 f7be 6d5d e3be 9d6b f6be 64a6 acbe
00000360: 5591 0bbf cfa0 f9be 0398 40bf 7b38 9cbe
00000370: abfe 25bf 00e4 16bf f080 f8be 69cf 31bf
00000380: 0a61 debe a077 0ebf 83a5 1bbf a80b 09bf
00000390: 371b 00bf 63ff d0be 2284 2fbf 4085 07bf
000003a0: c0f3 19bf 3608 2bbe 5e17 dcbe b53a 09bf
000003b0: 5949 c2be 4e06 ebbe 0dc0 45bf 35e9 0cbf
000003c0: 36e1 03bf d99f b1be 256c fbbd 774f 13bf
000003d0: bcda e8bd eacd 12bf 9f70 e7be c807 a1be
000003e0: 4664 a4be e367 1dbf 525f 07bf f17d 31bf
000003f0: 54d1 2dbe 2184 63bf 2709 d9be ba45 08bf
-0.48948118 -0.7446229 -0.017373947 -0.49435565 -0.84825164 -0.6474925 -0.807344 -0.48001933
-0.6628095 -0.60639375 -0.6334465 -0.7736751 -0.061622318 -0.27301142 -0.60470253 -0.3353545
-0.5737643 -0.5767319 -0.794572 -0.46147415 -0.4389697 -0.5472399 -0.3296823 -0.5789491
-0.36287385 -0.50152093 -0.55976915 -0.6450325 -0.6056228 -0.53328633 -0.4226151 -0.34499082
-0.60141057 -0.7353498 -0.19261809 -0.8033159 -0.43602955 -0.6005072 -0.7061248 -0.5632075
-0.53260094 -0.51109314 -0.58191997 -0.6771016 -0.515877 -0.02901233 -0.51140773 -0.25222236
-0.6352683 -0.77354443 -0.57561284 -0.16002949 -0.7374314 -0.5779747 -0.5215921 -0.63156825
-0.58984214 -0.57789046 -0.42393568 -0.326718 -0.64172053 -0.37603855 -0.8681199 -0.30373412
-0.6229978 -0.786545 -0.37590557 -0.57974976 -0.43375483 -0.80109906 -0.78347254 -0.5892465
-0.24714242 -0.57588255 -0.31687686 -0.33430684 -0.48864302 -0.27101174 -0.5588493 -0.29860198
-0.33275816 -0.60121447 -0.33491686 -0.7865894 -0.7614201 -0.470646 -0.50320554 -0.6923742
-0.38556197 -0.47703958 -0.754766 -0.5733953 -0.3785493 -0.49352074 -0.29778016 -0.63722134
-0.5133136 -0.03555216 -0.8451643 -0.5564035 -0.5644142 -0.005284321 -0.50211704 -0.479683
-0.554333 -0.38185757 -0.6773278 -0.4840384 -0.5140478 -0.49349415 -0.5419418 -0.5486245
-0.30935293 -0.58115727 -0.13770819 -0.28300598 -0.62005365 -0.85819024 -0.26232085 -0.5073717
-0.59344214 -0.6137121 0.03475579 -0.57847404 -0.585118 -0.5944943 -0.53718823 -0.45284277
-0.32400364 -0.2535585 -0.5871519 -0.40317556 -0.78251994 -0.77146757 -0.6866195 -0.250985
-0.51705223 -0.23244402 -0.44292453 -0.6325922 -0.593923 -0.67416924 -0.67036766 -0.45853782
-0.66355824 -0.49679506 -0.46590844 -0.48085797 -0.36009288 -0.5153108 -0.45166057 -0.6363746
-0.57346034 -0.69652283 -0.83401716 -0.012842065 -0.45600733 -0.5423526 -0.591493 -0.31140646
-0.67044765 -0.6046912 -0.68250513 -0.72841233 -0.44628307 -0.5712405 -0.46523103 -0.68885875
-0.32949352 -0.5361542 -0.55919474 -0.5981453 -0.5098703 -0.9281101 -0.73195726 -0.60470796
-0.42024997 -0.45205742 -0.4913831 -0.21809238 -0.2532275 -0.74996114 -0.44202015 -0.6746124
-0.5332381 -0.6439106 -0.743531 -0.70816016 -0.7425111 -0.3637061 -0.23538695 -0.7375373
-0.58535016 -0.3310668 -0.5235673 -0.41504258 -0.3858097 -0.5793341 -0.40605915 -0.49721158
-0.68863773 -0.8009309 -0.43932286 -0.6557963 -0.32321236 -0.736342 -0.5796094 -0.44204035
-0.4674367 -0.28678676 -0.54206735 -0.5912678 -0.4831719 -0.44407216 -0.48128977 -0.33720696
-0.54518634 -0.487555 -0.7523195 -0.3051184 -0.6484172 -0.5894165 -0.48535872 -0.6945711
-0.4343341 -0.55651283 -0.60799426 -0.5353341 -0.50041527 -0.40819845 -0.68560994 -0.529377
-0.6013756 -0.16702351 -0.42986578 -0.53605205 -0.37946585 -0.45903248 -0.7724617 -0.55043346
-0.5151552 -0.34692267 -0.12276486 -0.5754313 -0.11369845 -0.5734545 -0.4520311 -0.3145125
-0.32107753 -0.61486644 -0.5287982 -0.69332796 -0.16974384 -0.8887349 -0.42389795 -0.53231394

bn2.running_mean f4 [512]
00000000: af69 153e eb05 6d3d b1d3 e63c f0c0 06be
00000010: b300 523a 3611 fcbd 6d23 e03d 6601 f83d
00000020: 70c8 103e cae2 c83d ae80 7b3d 8b84 82bc
00000030: 85c9 253e 305e 21be ca60 b4bc 1285 313e
00000040: c756 b33d 89ad 66bd 1dd5 133e c65e 05be
00000050: e391 b1bd 0c07 203e 4f6a 033a 171d 58bc
00000060: 37d5 e7bc 6e23 713c 3ff2 433d 9374 503d
00000070: 4c92 8e3d 92ba 1abb ce2c 8e3d b38e 90bd
00000080: ac08 9b3d 560c 1abb 803f 8ebd bbab 0ebe
00000090: c1e1 8ebd 9af7 d23d ec99 433c c3ff 863d
000000a0: 71d5 583c 3b2d 11be 6b70 a73d 61bf e33d
000000b0: 1422 8abc d0bd e23d e84c e93d ad99 12bd
000000c0: e51b e4bd d99d 33bd 522e 2f3d d2f2 a8bd
000000d0: 7c90 ef3c 37e3 8f3d 78db 083d 0959 4b3d
000000e0: cc84 373e 3668 0bbe b58f 4e3d 9d03 a4bc
000000f0: 3952 2d3e 46f7 fe3d d798 8339 dd49 223e
00000100: 3bd8 c1bc 74ca c53a e19f e83d b8e7 0a3e
00000110: 83e9 25bd 8be8 7a3c 45af 51bd 4fea b73d
00000120: 675b 113e c0ad 0b3e 628c 2bbe 7e84 1d3e
00000130: e6ce 0dbe 9fd3 a5bc 9945 2b3e eb9a f0bd
00000140: bdce 5dbd 8c8a 573d d3c2 2e39 de70 26be
00000150: 7294 723d 8bff 3cbd 9e6d 003c 84c0 fabc
00000160: 980b 2a3e b2e8 3d3d c2d6 0e3e ce5a 113e
00000170: e870 1dbe bf4b 1a3e f0bd 61bd bf3a f23d
00000180: b96e 04bd 6d1e 5f3d 4f78 2ebe 7cf1 0c3e
00000190: 6e67 12be af56 23bd f5bb 0fbe 35d5 d83d
000001a0: e2d0 b5bc 6c28 863d a282 e3bd b892 15be
000001b0: 47ff 323e ecd4 fb3d e175 713d 7c32 c9bd
000001c0: 1f71 0fbe ea2c 943c 55e9 75bb ecb0 243e
000001d0: 6d53 1f3e 9fb7 f2bc 85e0 89bd b200 3b3d
000001e0: eac6 693c f104 05bc 64c1 d6bd 192a 2dbe
000001f0: ff66 893d 7012 d73d 055b 0a3d dbf4 bbbd
00000200: 88bc e63d 11a6 7fbd ccc7 91bd b649 7d3c
00000210: 195a 1b3d 236d 8e3d 6664 b1bc fa5a 09be
00000220: 9469 dbbd e34d 93bd 3250 243d 9a01 5ebd
00000230: e1c6 f9bd a339 aabd 79a5 263e 2aa3 06bd
00000240: 4f99 263e 887b 893c f5aa 9a3d 83cc 103e
00000250: bf09 13be c047 a8bd 78ea c8bd 0624 203e
00000260: f067 fbbd a151 2abe c8aa 9839 ece9 5fbd
00000270: 68ec d63b cf3d 80bc d883 8abd 5e4e b3bc
00000280: c38c 063e 4f4a 05be 726c 85bd 153a 9eba
00000290: 684b 20bc ddc9 f5bc cd56 ddbd 83a1 cb3d
000002a0: 0f54 98bc d281 4f3d 4f02 cfbd 2a79 283e
000002b0: 7f9b cd3c b573 2d3e add0 b6bc 1457 06be
000002c0: df6f e53b f54a c53c c4d6 23be 6102 e3bb
000002d0: f268 03be 1980 22be d016 1f3e f476 253e
000002e0: 06c5 69bd 3824 9bbc af3b 2ebd db7a cf3c
000002f0: 3d30 dbbd 50ee 47bd b1df 6a3d f4c9 af3d
00000300: f7f9 a53d 61a6 1ebd 092b 31be 3de5 e9bd
00000310: 670d fa3d 32e3 25be 02c4 fe3d 3018 f53d
00000320: 63ac f53d 0eaa 263e c4f4 09bb 733d 8dbd
00000330: 5b34 d4bc c26c d23d 970a 55bd e505 4d3c
00000340: e41d b33c 90f9 b33d fc51 c83d dda4 0cbe
00000350: 03b9 04bd b756 dd3d 8448 dc3d 276e 34be
00000360: 6b6a cabd 5b07 123e 4ed0 033e 05ec 913c
00000370: 2517 1cbe 797a da3d 3276 503d 3680 093c
00000380: 1bca 22be d92e bcbc 5829 183e 56c2 f8bc
00000390: 16c0 263e b853 963d 75c8 173e d6ec a93d
000003a0: 708d ccbd 6e28 25be f139 393d 4df6 ffbc
000003b0: ce6f 82bc 78b8 30bc 7815 153d 2695 bfbd
000003c0: 5889 2cbe ddce 60bd bbf9 a4bd 56e8 f7bc
000003d0: 4ef0 fdbd b87e 2c3e b82a 0c3e 4ae6 993d
000003e0: 1282 9c3d 92da 193e 65df 61bb e842 1bbc
000003f0: 36d2 00be b0ee c23d e98d be3d 35de 593d
0.14591096 0.057866972 0.028177114 -0.13159537 0.00080109684 -0.1230797 0.10944257 0.12109642
0.14138961 0.098088816 0.061402015 -0.015932342 0.16190155 -0.15758586 -0.022018809 0.17335919
0.08756786 -0.05631784 0.14436765 -0.13024434 -0.08670404 0.15627688 0.00050130946 -0.013190529
-0.028299911 0.01471792 0.047838446 0.050892424 0.06961498 -0.002360974 0.069421396 -0.07058468
0.075700134 -0.0023505888 -0.069457054 -0.13932697 -0.06976653 0.103011325 0.011938553 0.065917514
0.013234482 -0.1417741 0.08175739 0.11120487 -0.016861953 0.1107136 0.11391622 -0.035791088
-0.11138133 -0.043851707 0.042768784 -0.08249439 0.0292437 0.0702576 0.033412427 0.049645457
0.17921752 -0.13613972 0.05043002 -0.020021254 0.16925897 0.124495074 0.00025100142 0.15848489
-0.023662677 0.0015090243 0.113586195 0.13564956 -0.040505897 0.015314232 -0.05119254 0.08980238
0.14195023 0.13640499 -0.1675277 0.15382573 -0.13848457 -0.02024251 0.16725768 -0.11748298
-0.05415224 0.052622363 0.00016666511 -0.16253993 0.0592236 -0.046142142 0.007838635 -0.030609377
0.16605985 0.046364494 0.13949111 0.14194795 -0.15375102 0.15067957 -0.05511278 0.11827611
-0.032332156 0.054472376 -0.17038082 0.13763994 -0.14297268 -0.03987759 -0.14036544 0.10587541
-0.02219433 0.065506786 -0.111089006 -0.1460675 0.17480193 0.12296471 0.05895031 -0.09824082
-0.14007996 0.018087823 -0.003752311 0.16083115 0.15559168 -0.029628573 -0.06732277 0.04565496
0.014268616 -0.008118854 -0.10486105 -0.1691059 0.06709098 0.105015635 0.03377821 -0.09177562
0.11266428 -0.062414233 -0.07118186 0.015459469 0.03792772 0.0695441 -0.021654319 -0.13413611
-0.10713497 -0.0719259 0.040115543 -0.054200746 -0.12196136 -0.083117746 0.1627406 -0.03287045
0.1626942 0.016782537 0.07552139 0.14140515 -0.14359187 -0.0821681 -0.09810346 0.15638742
-0.12275684 -0.16632701 0.0002911894 -0.054666445 0.0065589435 -0.015654473 -0.067634284 -0.021887954
0.13139634 -0.13016628 -0.06514825 -0.0012071753 -0.009783603 -0.030003482 -0.108075716 0.09942915
-0.01859477 0.050660916 -0.10107862 0.1645247 0.02509856 0.1693867 -0.022316301 -0.13119155
0.0070018615 0.024083594 -0.15999895 -0.006927774 -0.12833002 -0.15869178 0.15536046 0.16158658
-0.05707266 -0.018938169 -0.042537387 0.025327137 -0.1070256 -0.048811257 0.057342235 0.085834414
0.08104318 -0.03873289 -0.17301573 -0.11420677 0.122095875 -0.1619995 0.12439729 0.11967504
0.11995771 0.16275808 -0.0021050433 -0.06896486 -0.025903871 0.1027465 -0.052012052 0.012513612
0.021864839 0.08787835 0.09781262 -0.13734765 -0.032403003 0.10807555 0.10756019 -0.17620145
-0.09883579 0.14260618 0.1287243 0.017812738 -0.15243204 0.10667891 0.05089397 0.008392384
-0.1589741 -0.022971557 0.14859521 -0.030366104 0.16284212 0.07340187 0.14822562 0.08297126
-0.099879146 -0.16128704 0.045221273 -0.031245375 -0.015922453 -0.010786168 0.036397427 -0.0935462
-0.16849267 -0.05488478 -0.08055445 -0.030262154 -0.1239935 0.16845214 0.13688171 0.07514627
0.076419964 0.15024784 -0.003446543 -0.009476401 -0.12580189 0.09518182 0.09304411 0.05319043

bn2.running_var f4 [512]
00000000: 9703 ef3f 53f3 5340 aab0 033e 61fd e83f
00000010: f57d 0440 0fae 6040 0dfd 6340 ec30 2f40
00000020: 3ffc bf40 3bec 4840 2dc5 0540 550c 1340
00000030: 74d0 b53c f93e c03f e156 4740 bbb0 4840
00000040: 5946 3940 cf9c 7c40 6ac6 0540 8e78 1540
00000050: b9ff 1140 892f 4240 804f 3f40 88cc 3c40
00000060: 418c a93f c301 2b40 c6eb 4640 b7eb 1040
00000070: ff1a 3c40 323b 4040 5d6c 1540 3984 2c40
00000080: 2c63 3640 a803 0140 d572 0440 fa89 6140
00000090: bf3d 1440 5201 1a40 58ba 1540 5a35 f03f
000000a0: f9ed 6640 76e9 8140 86cb 5e40 4162 0940
000000b0: 2ef9 3340 d109 063c 70b7 5840 f9b1 4140
000000c0: ba7b 5b40 2622 4040 dd01 3a40 26c0 2a40
000000d0: f790 1e40 85a1 8640 54fe 1b40 1e76 0540
000000e0: 806b 1240 5840 3640 b637 0e40 349e 0140
000000f0: ed17 f43f bc01 0a40 3aa2 b040 8c20 2a40
00000100: 408f 5740 b8a2 1240 e18a 2840 6b50 7640
00000110: c9f0 1540 8ab2 4540 b511 5940 1c62 2140
00000120: 1be2 db3f d353 0740 ac75 2440 ff60 1f40
00000130: bcd5 7940 8f5c 2840 ae5f 7b40 56af 2040
00000140: 3e9a e53f 96fd 4c40 c838 1740 ea59 1d40
00000150: ec75 2a40 ca25 2540 6ec2 3240 d940 de3f
00000160: 03c6 2440 ad48 2c40 b8d4 8040 d91d 1840
00000170: 1c5d 2940 d134 f53f d078 0240 e085 cf3f
00000180: 7fcc 2040 ad1e 9d3c 5c26 0b40 46ad 1c40
00000190: 0161 3340 2c61 d93b bc56 2d40 04b7 1b40
000001a0: e408 3f40 83f0 d13f ef6c 9340 4fb5 3440
000001b0: 3962 ed3f 412f 3940 1da0 cb3f 7f7e 4540
000001c0: f91e 8340 a139 8f40 e1df 0440 7070 3340
000001d0: 5e23 7a40 a7c8 1c40 b6d6 4940 9b51 9240
000001e0: eb68 f53f adac 3b40 8320 0140 9dcb 9040
000001f0: 260b e73f e94a 1240 ecad 9b40 1dcb 4840
00000200: 4805 0f40 d40a 8a3f 5472 7640 9a5a 8740
00000210: 86d1 4f40 3c29 0640 7761 4540 618f 4640
00000220: de06 3140 e667 0a40 0a3e 1d40 9327 1040
00000230: f64e 4240 0732 2340 653d d63f aecb 3440
00000240: 704b 4140 0f4f 1d40 f507 7640 d814 3d40
00000250: 6fcf 5540 d292 3840 f29b 0240 f132 9a40
00000260: ba3d 1540 c6ef 2d40 b1d7 0140 dd36 8a3c
00000270: 6a8e 8d40 b0ea 2f40 5f27 3c40 4b01 4540
00000280: 1688 0940 de3d 8640 1b88 5b40 10ee 0d40
00000290: 293a 0e40 7dcf 8040 7728 ea3f d882 9940
000002a0: f97b 1b40 8ab5 5040 9b27 6740 c2ce 2c40
000002b0: 005c 3440 a8c4 6e40 8409 8140 5c12 6040
000002c0: e2d8 e03f d31b ff3f fcbc 2d40 2993 ea3f
000002d0: 7212 0940 d093 0c40 5dd6 3640 187e 4840
000002e0: 5b69 2f40 a1fc 3440 3be8 8a40 55ed 6c40
000002f0: f2da 3140 47c5 0740 dbba 2d40 1aca 6740
00000300: e981 4840 f294 e13f 6be2 3a40 c144 1c40
00000310: 43ca 3d40 9a47 4340 42b7 2140 bcec 3f40
00000320: 47f9 1540 8cec fb3f 4d16 1840 680c 7140
00000330: 67c6 2b40 40d9 1740 9c45 1940 dd51 0d40
00000340: 6f17 0a40 f499 e23f b26d 6740 617e 8540
00000350: e92e 3e40 39df 6e40 d5a2 4240 a80e 2e40
00000360: 83a9 ef3f 99bb 4540 41a9 3440 15d9 0a40
00000370: b801 4e40 6673 4540 d690 5440 97bc 1e40
00000380: 3056 4540 259c 1340 f45e 0040 a186 1940
00000390: be66 7040 ec07 2640 deae 4b40 8918 8240
000003a0: c679 8240 27ab da3f c866 2c40 7363 1a40
000003b0: e380 1c40 5172 0940 1d7e 3540 7fc9 4240
000003c0: 7e04 4840 5fe5 8440 386d 833f 3183 8a40
000003d0: 9ed5 1c40 4491 0340 2f25 0740 b92b 2740
000003e0: 847f 0f40 08fe 6740 7cb6 0740 64c4 1540
000003f0: 9e91 8f3f e278 3940 a3d4 0f40 63c8 6140
1.867297 3.3117263 0.1286036 1.8202325 2.0701878 3.5106237 3.56232 2.737361
5.9995418 3.1394184 2.0901597 2.2976277 0.022194125 1.5019218 3.1146777 3.1357868
2.8949187 3.9470708 2.0902352 2.335483 2.281233 3.0341513 2.9892273 2.9499836
1.3245927 2.6719825 3.1081405 2.264387 2.9391477 3.003613 2.334739 2.6955702
2.849803 2.0158482 2.0695088 3.5240464 2.3162687 2.4063306 2.3394985 1.8766282
3.6082747 4.0597486 3.481172 2.146622 2.8120837 0.008181051 3.3861961 3.0264876
3.4294267 3.0020843 2.9063637 2.6679778 2.477598 4.2072167 2.437398 2.0853343
2.2878113 2.8476772 2.2221503 2.025281 1.9069802 2.1563559 5.519803 2.6582365
3.3681183 2.2911816 2.6334765 3.8486583 2.3428214 3.0890222 3.3917058 2.5216131
1.7178377 2.1144912 2.5696821 2.4902952 3.9036703 2.6306493 3.9277148 2.5107017
1.7937696 3.2029777 2.3628407 2.458613 2.6634474 2.5804315 2.793117 1.736354
2.5745857 2.6919358 4.0259666 2.3768218 2.646308 1.9156743 2.0386238 1.621273
2.5124815 0.019179666 2.1742163 2.4480758 2.8027956 0.0066338982 2.7084188 2.4330454
2.9849176 1.6401523 4.6070476 2.8235662 1.85456 2.8935091 1.5908238 3.0858457
4.097531 4.475785 2.0761645 2.8037376 3.9084086 2.4497468 3.15373 4.5724616
1.9172643 2.9324143 2.0176094 4.524855 1.8050277 2.2858222 4.8649807 3.137397
2.2346973 1.0784554 3.850728 4.2298098 3.2471633 2.0962667 3.0840738 3.1025012
2.7660441 2.1625915 2.4569116 2.2524154 3.0360694 2.5499284 1.6737486 2.8249316
3.0202293 2.4579504 3.8442357 2.9543972 3.3407857 2.8839612 2.0407681 4.8187184
2.3318925 2.7177596 2.0287898 0.016871864 4.4236345 2.7486992 2.939903 3.078204
2.148931 4.195052 3.4301822 2.2176552 2.2222998 4.025328 1.8293599 4.797222
2.4294417 3.2610803 3.6117923 2.7001195 2.8181152 3.730753 4.0324116 3.5011206
1.7566187 1.9930366 2.7146597 1.832616 2.1417508 2.1965218 2.8568337 3.1326962
2.7408054 2.8279192 4.3408484 3.7019856 2.7789884 2.1214159 2.7145298 3.6217103
3.132929 1.762358 2.9200695 2.4416964 2.96547 3.0512452 2.5268102 2.9988241
2.3433397 1.9681563 2.3763611 3.7663822 2.6839845 2.372635 2.3948736 2.2081215
2.1576803 1.7703233 3.6160703 4.171677 2.9716132 3.7323744 3.0411885 2.7196445
1.8723606 3.089575 2.8228304 2.1694996 3.218855 3.0851684 3.32134 2.4802606
3.0833855 2.3064053 2.0057955 2.398842 3.756271 2.5942335 3.182548 4.065495
4.077365 1.7083482 2.6937733 2.41232 2.4453666 2.1476023 2.8358223 3.0435483
3.1252742 4.1529994 1.0267706 4.3285146 2.4505382 2.0557413 2.1116445 2.6120436
2.242158 3.6248798 2.120513 2.3401117 1.1216314 2.898003 2.2473533 3.5278556

fc2.weight f4 [256, 512]
00000000: 21e4 97be 9508 53be f0b4 683c 3f07 bd3d
00000010: 0ae4 8bbe b185 2dbf 33ef 5bbf 03c5 323e
00000020: 9e0b 473f af63 3c3f 85f1 393f 82ec 9fbe
00000030: 515b 52bc ca59 c2be 6d0d 9cbe d3c3 d6bd
00000040: e70b b5be 9005 0abe c638 023f b74f c0bd
00000050: 317d 583e ba4b 183e aa90 02bf 308c 713d
00000060: cc6e 823d ab60 db3e 79de 103f 640d 73be
00000070: 73a3 0b3f 7dbf b53d 9e30 4fbf 4796 133f
00000080: c36b abbd 3147 343e 4e8a da3e 4b98 cabc
00000090: 536d 353f 6b05 04bf db7e 9cbe 1666 93be
000000a0: 0d76 1c3d a8e8 fabe 5126 88bf d64f 423f
000000b0: 4751 b33e 9deb 12bd 6b08 dc3c 0577 b3bd
000000c0: 03f0 9dbd 1f84 a8be 271e 223f e57a 8fbe
000000d0: 215b cf3e 0928 45bf 0288 993f 847a 89be
000000e0: e8cc e5bd 7de6 04bf a8b2 5dbd b818 2c3d
000000f0: acaa 38bf d87a 12bc 7960 6dbe 576d d1be
00000100: 5c87 0bbf 7248 153f 2687 49bf 0b97 23bd
00000110: 4760 9d3e 2934 553e 15e1 443d 443d b9be
00000120: d2c9 f23c 100d ba3e 4378 5fbe bff2 743f
00000130: 84c5 3abe 395b 07be 6f81 d8be efd6 1cbf
00000140: ee6b 3c3d 4886 983e 520a eabb 60b3 8f3b
00000150: 74d1 33bd f1ec 9f3c d97a 3c3e d945 403f
00000160: 964e adbe 374f 48bf c75a 943e 99ca a8bd
00000170: 1e50 ee3e 108a bdbe 5881 dbbe 7b07 b3be
00000180: 74c0 043d 3c4f 573d b43d 5fbf 0569 173e
00000190: 6c11 e6bd fac2 0c3d 92d1 803f a16b eabe
000001a0: c295 ffbd 2891 123f 52ce 8abe 4f73 913c
000001b0: c776 e93e 6929 023f b475 2a3f 5987 e83e
000001c0: febb 0ebf aa82 06bf 0e00 193f 48d6 ba3d
000001d0: 314c 29bf 69be 91be 0615 0d3f 22ec d43e
000001e0: 4593 b23d 6a9d c0bd f990 ca3e 602e 5b3f
000001f0: d778 98be 365d e73e 096e f03e 832b 563f
00000200: a5dc 743e d0ae 17bd 7ffc cc3e eddb 143f
00000210: 896f c8be cac7 b53b de60 5dbf bb5a b33e
00000220: f9cf 723e ae42 7b3e 4b5f 25bf d1bd 6f3f
00000230: 26a4 e1bc 33c5 04bf dc41 653d 1374 373f
00000240: b929 a23c ac30 8e3e abea d63d bfbc 1e3f
00000250: 014e 0abf 188d cabe 2e84 36be 627b 9c3c
00000260: e4b7 e6be d6b9 083e 2987 9c3e 1da8 593d
00000270: cc1b 3e3e 115f ce3e 995b cb3b 2670 153f
00000280: 9ed3 49be 1430 bf3e 1315 febe 4364 5e3f
00000290: 10dd c23e 8010 823e 3c71 9ebe fc80 97bc
000002a0: 5d52 0abe 99db 4c3e 1815 a1be c89d 853e
000002b0: 9a5b 93bd 4f7d 743f 1946 cdbe 19d0 9dbd
000002c0: 22ef 43bf dd09 803e 6814 c53d 4d96 be3e
000002d0: 2e8b b5be abf5 10bf 31eb 263f 028c d8be
000002e0: fbf4 9fbb 6b98 023e 11d6 e6ba 589a 12bf
000002f0: 50f4 7a3d 0082 7f3d c30d 0e3d 7f1e c53e
00000300: 3cee a4bf 4944 b13e 7bb0 c6be 630e 09bf
00000310: a36b 6f3d fbd9 003f 14c0 41be bf08 83bd
00000320: a050 01be 6534 cabe e840 393f dd41 083f
00000330: 8382 a63e c91c 84be 3fc3 a33e bf87 6e3e
00000340: fd8f ad3e a8ef 8e3d 06ea 533f 4b43 c13e
00000350: 1e29 b73d a4c0 8cbf dafd 9cbe 27b2 de3e
00000360: da86 0c3f cd43 753f 1971 f5bd f1ce 0e3f
00000370: 647e d33e c4de 723f b4a6 c43e 8ce2 353f
00000380: 6267 f3bd 1303 433e 02a8 7abe b8b6 e33d
00000390: bb2d cb3e 562e 49bf f0ef c8be 87a4 30bf
000003a0: 6dc3 2cbe e1ba e03e 7c6e d3be 02ca 34bf
000003b0: de2f efbe fb4f 20bf 969b 343e 8943 c4be
000003c0: 7d2a 25bf d1f3 713e 579f 56bd e1ac c6be
000003d0: 2ed6 013f 5df8 273e bf8f b23e 263f 4cba
000003e0: 7ad0 b73e 0f2e 1b3f c46e 04be c01d 8f3e
000003f0: b3da 163f bc44 dbbd 0081 52bd 1677 2bbe
-0.29666236 -0.20608743 0.014203295 0.09229898 -0.27322417 -0.6778212 -0.85911864 0.17457967
0.777521 0.73589605 0.72634155 -0.3123513 -0.012839154 -0.3795913 -0.30478993 -0.10486569
-0.35360643 -0.13478684 0.5086788 -0.093902044 0.21141507 0.14872637 -0.5100199 0.058971584
0.06368789 0.4284719 0.56589466 -0.23735577 0.5454628 0.08874414 -0.8093356 0.5765118
-0.08370163 0.17605282 0.42683643 -0.024730822 0.7086994 -0.5157077 -0.30565533 -0.28788823
0.03819852 -0.49005628 -1.0636693 0.7590307 0.35022947 -0.03586923 0.026859483 -0.087629355
-0.07711794 -0.329133 0.6332726 -0.2802345 0.40499213 -0.77014214 1.1994631 -0.26851285
-0.112207234 -0.519142 -0.054125458 0.04201576 -0.72135425 -0.008940421 -0.23181333 -0.40903732
-0.54503417 0.5831367 -0.78721845 -0.039938968 0.30737516 0.20820679 0.048066217 -0.36179554
0.029637251 0.3633809 -0.2182322 0.956829 -0.18239409 -0.13218392 -0.4228625 -0.6126546
0.046001367 0.29789948 -0.0071423436 0.004385397 -0.043900922 0.019522162 0.18406238 0.7510658
-0.3384902 -0.7824587 0.28975508 -0.082417674 0.465455 -0.37019396 -0.4287212 -0.34966645
0.0324101 0.0525658 -0.87203526 0.14786156 -0.11233792 0.03436563 1.0063956 -0.4578524
-0.12479736 0.5725274 -0.27110535 0.017755179 0.45598432 0.50844437 0.6658585 0.45415762
-0.55755603 -0.5254313 0.5976571 0.09122902 -0.66131884 -0.28465584 0.55110204 0.41586405
0.08719496 -0.09405024 0.3956373 0.8561764 -0.29779693 0.45188302 0.4695895 0.83660144
0.23912294 -0.03703195 0.4003639 0.5814808 -0.39147595 0.0055474984 -0.8647593 0.3503016
0.23712148 0.24537155 -0.6459853 0.9364901 -0.027544092 -0.518634 0.05597101 0.7166149
0.019795286 0.2777151 0.10493978 0.62006754 -0.54025275 -0.3956077 -0.1782386 0.019101802
-0.45062172 0.13352141 0.3057187 0.05313884 0.18565291 0.40306905 0.0062059877 0.5837425
-0.19709632 0.37341368 -0.49625453 0.8687174 0.38059282 0.25403214 -0.30945766 -0.018494122
-0.13507982 0.20005645 -0.31461406 0.2609694 -0.07195206 0.95503706 -0.40092543 -0.07705707
-0.7653676 0.25007525 0.09623033 0.37224045 -0.35457748 -0.5662486 0.65202624 -0.42294317
-0.004881499 0.12753455 -0.0017611404 -0.5726676 0.06126815 0.062379837 0.034681093 0.3849983
-1.2885203 0.3462241 -0.3880652 -0.5353758 0.05845226 0.5033261 -0.18920928 -0.063981526
-0.12628412 -0.394931 0.72364664 0.532255 0.32521448 -0.2580321 0.31984898 0.2329397
0.33898917 0.069793046 0.82778966 0.37746653 0.08943389 -1.0996289 -0.30662423 0.43495294
0.5489327 0.9580658 -0.11984462 0.5578452 0.41307366 0.94871163 0.38408434 0.7104881
-0.11884953 0.19044141 -0.24478152 0.11118835 0.39683327 -0.7858633 -0.39245558 -0.6900105
-0.16871424 0.43892577 -0.4129523 -0.7062074 -0.46716207 -0.6262204 0.17637476 -0.38332775
-0.64517957 0.23628165 -0.052398052 -0.3880377 0.5071744 0.16403337 0.34875295 -0.0007791392
0.35901242 0.60617155 -0.12932879 0.27952385 0.5892746 -0.107064694 -0.051392555 -0.16744646
