checkpoint_critic_20_agents.pth (torch_old, 615395 bytes, 17 tensors)

bn1.weight f4 [33]
0	0x3f1d6fbb	0.6149861
1	0x3ea6eb86	0.32601565
2	0x3f234de9	0.63790756
3	0x3ce259a5	0.027630636
4	0x3c7a5b7c	0.015280601
5	0x3cdad72a	0.026713926
6	0x3cbb8bc0	0.022893786
7	0x3c75b043	0.014995637
8	0x3d1d9267	0.0384697
9	0x3da06d93	0.078333996
10	0x3d817d2a	0.06322701
11	0x3dcd5a22	0.10026957
12	0x3da29e4a	0.079403475
13	0x3f820b4d	1.0159699
14	0x3f1c61b3	0.6108658
15	0x3f80f1d3	1.0073799
16	0x3d2312f5	0.039813
17	0x3c62fe33	0.013854551
18	0x3cd3b780	0.025844336
19	0x3d0067d1	0.031349007
20	0x3d74b065	0.059738535
21	0x3d237698	0.03990802
22	0x3ccedbcb	0.02525129
23	0x3eb404ad	0.35159817
24	0x3e9c0207	0.30470297
25	0x3e91f8e1	0.28510192
26	0x3f5b60af	0.856944
27	0x3f2dec41	0.6793862
28	0x3f3b8f43	0.73265475
29	0x3ec7fc3c	0.39059627
30	0x3e2a1f50	0.16613507
31	0x3e86f8ac	0.26361597
32	0x3ec6ee6f	0.38853785

bn1.bias f4 [33]
0	0xb98997d1	-0.00026243788
1	0xb97f5e4b	-0.00024353822
2	0x39c14931	0.0003686636
3	0xb960e368	-0.0002144702
4	0xb8c99275	-9.6117066e-05
5	0x39830c31	0.0002499535
6	0xb753e089	-1.2628859e-05
7	0xb8ebf6e5	-0.00011251661
8	0x3868a741	5.5468878e-05
9	0xb8ccc301	-9.7638e-05
10	0x3997375d	0.00028842213
11	0xb7d6a244	-2.5586349e-05
12	0x392998ca	0.00016174014
13	0x3ab5c8d4	0.0013869056
14	0x39600146	0.00021362779
15	0xba451052	-0.00075173855
16	0xb9baf986	-0.00035662594
17	0x39bba11c	0.00035787455
18	0xb7bad7ff	-2.2273509e-05
19	0xb8c78ed5	-9.515664e-05
20	0x3955d6f7	0.00020393344
21	0xb934ad39	-0.00017230668
22	0xb9ab307c	-0.00032651785
23	0x391926d2	0.00014605679
24	0x3a33327a	0.00068358297
25	0x396f0309	0.00022793947
26	0xba108995	-0.00055136654
27	0x395f95d1	0.00021322748
28	0xba47856f	-0.0007611131
29	0x38b2cdf9	8.526067e-05
30	0xb8728b83	-5.7827227e-05
31	0xb825d68a	-3.953887e-05
32	0x386816de	5.5334407e-05

bn1.running_mean f4 [33]
0	0xbd36547e	-0.04451417
1	0xc026a2da	-2.6036897
2	0x3d802e96	0.062588856
3	0x3f31d9cd	0.6947296
4	0xbc032cfd	-0.0080063315
5	0xbc8a7d86	-0.016905557
6	0x3cb592fd	0.022164816
7	0xbd3c71b3	-0.04600687
8	0x3b07663b	0.00206603
9	0xbbd82be7	-0.0065970304
10	0x3bc5ac10	0.0060324743
11	0xbbe8db10	-0.0071061924
12	0xbd02587d	-0.03182267
13	0xbf195b53	-0.59904975
14	0xc029515a	-2.6455903
15	0x3ec4f466	0.3846771
16	0x3c3ff16b	0.011715273
17	0x3aafb5a1	0.001340557
18	0xb9b4823a	-0.00034429302
19	0xbca58470	-0.020204753
20	0xbcef5551	-0.029215487
21	0x3cc41c4a	0.02393927
22	0xbc9696fb	-0.01838254
23	0xbc843e00	-0.016142845
24	0x3e131eae	0.14367172
25	0xbc84358e	-0.016138818
26	0xbdb44e4d	-0.08803997
27	0xbf7ffffc	-0.99999976
28	0x3c798c47	0.015231199
29	0x00000000	0.0
30	0x3f7ffffc	0.99999976
31	0x00000000	0.0
32	0xbc4a003c	-0.012329157

bn1.running_var f4 [33]
0	0x40817bc6	4.046359
1	0x3f307bf8	0.6893916
2	0x4091e1bd	4.558806
3	0x3e99281c	0.29913414
4	0x3d880df6	0.06643288
5	0x3d33ccc7	0.043896463
6	0x3ddb0d23	0.10695865
7	0x3ef5bc2a	0.4799512
8	0x3d88db8c	0.066825
9	0x3e117467	0.1420456
10	0x403062d8	2.756033
11	0x4011051f	2.2659376
12	0x4040736b	3.0070446
13	0x4196221b	18.766653
14	0x400f1cb7	2.2361276
15	0x41aec28e	21.844997
16	0x3dcec824	0.100967675
17	0x3e8bc4b0	0.27298498
18	0x3da3520f	0.07974636
19	0x3f0c2995	0.5475095
20	0x4003fdb3	2.0623596
21	0x3f318327	0.6934075
22	0x3f1292e4	0.5725539
23	0x415cb1e3	13.793429
24	0x4151bc30	13.108444
25	0x415ea5c4	13.91547
26	0x41f7e52d	30.986902
27	0x00000004	6e-45
28	0x420469e6	33.103416
29	0x00000004	6e-45
30	0x00000004	6e-45
31	0x00000004	6e-45
32	0x3ead7957	0.33881637

fcs1.weight f4 [512, 33]
0	0x3d58b4e4	0.052906886
1	0x3e167ee4	0.14696842
2	0xbe54d971	-0.20786072
3	0x3dbe8dd0	0.09304392
4	0xbd768730	-0.06018752
5	0x3de95249	0.11392648
6	0x3c9d35c5	0.019190678
7	0xbe73ca10	-0.2380755
8	0x3eb3a0ba	0.35083562
9	0x3b7030bd	0.0036650144
10	0x3dc747e9	0.09730513
11	0xbd75e630	-0.060033977
12	0xbe24b1fa	-0.16083518
13	0xbea80e7a	-0.32823545
14	0xbd8afabc	-0.06786105
15	0x3eb4143e	0.35171694
16	0xbb82cfd5	-0.0039920607
17	0x3d1ba99a	0.03800354
18	0x3e650d5f	0.22368382
19	0x3d169e5a	0.03677211
20	0x3eb4e449	0.35330418
21	0x3d9ca0f5	0.076478876
22	0xbdacc15b	-0.08435317
23	0xbdf3aaee	-0.118978366
24	0xbdbbb7e1	-0.091659315
25	0x3ed1ae2a	0.4095319
26	0x3e0452ad	0.12922163
27	0xbb961b80	-0.004580915
28	0xbeaec136	-0.34131783
29	0x3c449370	0.011998042
30	0xbd04a10c	-0.03238015
31	0xbd1a69a3	-0.0376984
32	0xbeacee52	-0.33775574
33	0xbe42f2c7	-0.19037925
34	0xbc4ac0b9	-0.01237505
35	0xbd80a983	-0.06282332
36	0xbe96b4a2	-0.29434687
37	0xbedab3d0	-0.4271531
38	0x3e786364	0.24256665
39	0x3e481db9	0.19542588
40	0x3e70433b	0.23463146
41	0xbe8ebc11	-0.27877858
42	0x3d780959	0.06055579
43	0xbeda7a52	-0.42671448
44	0x3d8c53ca	0.06851919
45	0xbf2ce3c2	-0.6753503
46	0xbcb1576c	-0.021648131
47	0x3d7646f8	0.060126275
48	0xbddc6832	-0.10762061
49	0x3d62b45e	0.055347793
50	0xbe906163	-0.281993
51	0x3e2e759a	0.17037049
52	0xbe21ce10	-0.15801263
53	0x3e8d86f0	0.27642012
54	0xbed82ac1	-0.4222012
55	0x3dc81843	0.097702526
56	0xbe8e2843	-0.27765092
57	0x3d2e32b4	0.042528823
58	0x3dabe632	0.08393516
59	0x3ed38fc0	0.4132061
60	0x3c1c7844	0.009550158
61	0x3e940607	0.28910848
62	0xbd07cdd0	-0.033155262
63	0x3c88329e	0.016625699
64	0x3bc68538	0.0060583614
65	0x3ed72c4d	0.42025986
66	0xbcebc73d	-0.028781528
67	0xbd424e6d	-0.047438074
68	0x3e8e8492	0.27835518
69	0x3e582961	0.21109535
70	0x3e8a2aa4	0.26985657
71	0xbf088be3	-0.5333845
72	0xbe32b331	-0.17451169
73	0xbeb1924a	-0.34681922
74	0xbe04d163	-0.129705
75	0x3ebefbec	0.37301576
76	0xbd1d2a48	-0.0383704
77	0xbe5a1d8e	-0.21300337
78	0x3f2b1540	0.668293
79	0x3db9e36f	0.09076583
80	0xbc794464	-0.0152140595
81	0xbe1e6498	-0.15468061
82	0xbd22c9b5	-0.039743144
83	0xbe2d8583	-0.16945462
84	0x3e404857	0.18777595
85	0xbce7960c	-0.02826979
86	0xbd567e41	-0.0523665
87	0xbef4456c	-0.47709215
88	0x3de6e72d	0.11274562
89	0x3e89251f	0.26786134
90	0x3e59a9aa	0.21256128
91	0xbf344eb7	-0.7043261
92	0xbe46afcd	-0.19403
93	0xbc49670c	-0.012292635
94	0xbe86af5c	-0.26305664
95	0x3c7d1df0	0.015449032
96	0x3bf73c78	0.0075450502
97	0x3c8284a0	0.015932381
98	0x3e0c5d53	0.13707475
99	0x3e1ae6e1	0.15127136
100	0x3e8add38	0.27121902
101	0xbe050034	-0.12988359
102	0xbe7e6a5e	-0.24845263
103	0xbe06ab84	-0.13151366
104	0xbe79ddba	-0.24400988
105	0x3da9c8e3	0.08290269
106	0xbd11dfb6	-0.035613738
107	0x3e0a51bb	0.1350774
108	0x3cfb6e0c	0.030692123
109	0xbc255057	-0.010089955
110	0x3dedb192	0.116061345
111	0xbf2eb87d	-0.68250257
112	0xbdfc29a5	-0.123126306
113	0xbe668a89	-0.22513784
114	0xbe0db302	-0.13837817
115	0x3ec4a067	0.38403627
116	0xbdbe40f6	-0.09289734
117	0x3e52ca65	0.2058502
118	0x3e560c60	0.20903158
119	0x3d703cb2	0.058651634
120	0xbe508f9f	-0.20367287
121	0xbde40773	-0.11134233
122	0xbe83aef9	-0.2571943
123	0xbec22f7b	-0.3792685
124	0xbe35ac21	-0.17741443
125	0x3eba0f75	0.36339918
126	0x3ce88786	0.028384935
127	0x3d9bcdb8	0.07607597
128	0xbbaffdf8	-0.0053708516
129	0xbc9bee9e	-0.01903468
130	0x3c45a584	0.012063388
131	0xbe9313e1	-0.28726104
132	0xbe8c9fa2	-0.2746554
133	0x3e681491	0.22664095
134	0xbe1a17d9	-0.1504816
135	0x3e26ff74	0.16308385
136	0x3c95c379	0.018281685
137	0xbd92ec8e	-0.071740255
138	0xbeb75208	-0.35804772
139	0x3e639f2a	0.22228685
140	0x3dc62940	0.096758366
141	0xbde16a71	-0.1100663
142	0xbf08a0fd	-0.5337065
143	0xbdefcabd	-0.11708591
144	0xbeba0041	-0.3632832
145	0x3e031eb9	0.12804689
146	0xbe3b39c7	-0.18283759
147	0x3eb6dd59	0.3571575
148	0x3ec25c69	0.37961128
149	0xbeafd1c5	-0.3433973
150	0xbe215bbf	-0.15757655
151	0x3ebdfe81	0.37108234
152	0xbe53f606	-0.20699319
153	0xbd850b33	-0.06496277
154	0x3e7939ea	0.24338499
155	0x3e2907a3	0.1650682
156	0xbebe3ddf	-0.3715658
157	0x3e10e7a9	0.14150871
158	0xbdaf5f1a	-0.08563061
159	0xbb290c40	-0.0025794655
160	0xbe9c1bd0	-0.3048997
161	0x3b3d5700	0.0028890967
162	0xbcdcf471	-0.026972027
163	0x3c16bf4c	0.009200882
164	0xbdb94a8a	-0.0904742
165	0xbe9288a5	-0.28619877
166	0x3e379ebd	0.17931648
167	0xbded7c8d	-0.11596022
168	0xbed1ff2e	-0.41015
169	0x3e175959	0.14780177
170	0xbd02a7b0	-0.0318982
171	0xbce08c83	-0.027410751
172	0xbcc37a00	-0.023861885
173	0xbeb7b448	-0.3587973
174	0xbe134b4e	-0.14384195
175	0xbe23fcdb	-0.16014425
176	0xbe45c4ad	-0.19313307
177	0xbe930417	-0.28714058
178	0x3ead90f0	0.3389964
179	0xbd80117e	-0.06253336
180	0xbb3e87d4	-0.002907266
181	0xbe8ec544	-0.27884877
182	0xbe428cf7	-0.18999086
183	0x3ea3ed38	0.3201692
184	0x3e7480bf	0.23877238
185	0x3e1af6ca	0.15133205
186	0xbe396804	-0.18106085
187	0xbe3f283c	-0.18667692
188	0x3f063e17	0.5243849
189	0x3e185616	0.14876589
190	0x3decaa05	0.11555866
191	0x3e24ff80	0.1611309
192	0xbb686340	-0.0035459548
193	0xbdf37536	-0.118875906
194	0xbbb76028	-0.0055961795
195	0x3cb38142	0.02191222
196	0x3d33eeaf	0.0439288
197	0x3e772489	0.24135031
198	0xbe2df8a4	-0.1698938
199	0x3eeea9ac	0.46613824
200	0x3e941f80	0.28930283
201	0xbd80ce5a	-0.062893584
202	0x3e6ed9df	0.23325299
203	0x3e9c3e71	0.3051639
204	0xbe099624	-0.1343618
205	0x3f10abcd	0.5651215
206	0xbe026e46	-0.12737378
207	0x3e978597	0.29594108
208	0xbf074b43	-0.52849215
209	0x3ecbf6ce	0.39836735
210	0x3ebcf1fe	0.36903375
211	0xbdf891b3	-0.12137165
212	0x3da059da	0.07829638
213	0xbe1be0b5	-0.15222438
214	0xbe4600ce	-0.19336244
215	0xbdb8b46e	-0.09018789
216	0x3d997c17	0.074943714
217	0x3dabb874	0.08384791
218	0xbe91e545	-0.2849523
219	0x3e9a6984	0.30158627
220	0xbe0b9abc	-0.13633245
221	0xbe4a3993	-0.19748525
222	0xbd15aa3c	-0.0365393
223	0xbd63b358	-0.055590957
224	0x3e18900f	0.14898704
225	0x3cb6921e	0.022286471
226	0x3d9ae6dd	0.07563565
227	0xbcbc7c01	-0.023008348
228	0x3cb289ca	0.021794219
229	0xbccf61a7	-0.025315119
230	0xbe8f2cd3	-0.27963886
231	0x3d96c487	0.07361703
232	0xbd921dee	-0.07134615
233	0x3c520450	0.012818411
234	0x3db39736	0.087690756
235	0xbe8d3588	-0.27579904
236	0x3f0efc55	0.5585378
237	0x3d375b8b	0.044765037
238	0xbc9f6b71	-0.019460412
239	0x3e3f381d	0.1867375
240	0x3d4dff20	0.050292134
241	0xbe9bcb4b	-0.30428538
242	0x3e483f64	0.19555432
243	0x3f2b1e9c	0.6684358
244	0xbe80e4a8	-0.2517445
245	0x3e932881	0.2874184
246	0xbe24f6ac	-0.16109723
247	0xbaf6876c	-0.0018808669
248	0x3e1291a0	0.14313364
249	0x3ead5a8c	0.33858144
250	0xbe17dad4	-0.1482957
251	0xbbf4f9f0	-0.007476084
252	0x3e941d40	0.28928566
253	0x3e3f11d9	0.18659152
254	0xbe736d22	-0.237721
255	0x3dbabf0f	0.09118473

fcs1.bias f4 [512]
0	0x3e0f034d	0.13966103
1	0x3d6b6021	0.057464723
2	0x3ce8511b	0.028358987
3	0xbe02215b	-0.12708037
4	0x3c2077cb	0.009794186
5	0xbe07d829	-0.13266052
6	0x3dcfe553	0.10151162
7	0x3deae71f	0.11469864
8	0x3e18de57	0.14928566
9	0x3dbf81b0	0.09350908
10	0x3d8e8fad	0.06960998
11	0xbc78d637	-0.015187792
12	0x3e25d606	0.16194925
13	0xbe2b2132	-0.16711882
14	0xbc8c29df	-0.01710981
15	0x3e2ece56	0.17070898
16	0x3dbe1370	0.09281051
17	0xbd763cf6	-0.06011673
18	0x3e14f4cc	0.14546508
19	0xbe08a4db	-0.13344137
20	0xbda367bb	-0.079787694
21	0x3e1f84ee	0.15578052
22	0x3b09e877	0.00210431
23	0xbc36f18d	-0.011165989
24	0xbd02000d	-0.03173833
25	0x3bd08b84	0.006364288
26	0x3d5b871c	0.053595647
27	0x3d51e594	0.051244333
28	0x3d8e86f3	0.06959333
29	0xba8f5aa2	-0.0010937045
30	0x3d81590a	0.06315811
31	0xbd98d002	-0.07461549
32	0x3d962018	0.0733034
33	0x3a68f15b	0.00088860624
34	0xbd99b8a4	-0.075059205
35	0xbe0e1112	-0.138737
36	0xbd86f7a4	-0.065902025
37	0x3dc58c80	0.09645939
38	0x3c8974d9	0.01677935
39	0x3d8bd7c1	0.06828261
40	0x3c9a4b2d	0.018834675
41	0xbe119680	-0.14217567
42	0x3db9801d	0.09057639
43	0x3de94cda	0.113916114
44	0xbc94dfd8	-0.018173143
45	0x3de3669a	0.11103554
46	0x3dd64376	0.10462086
47	0xbd1e5593	-0.03865583
48	0xbde57b84	-0.11205199
49	0xbd36d766	-0.044639014
50	0x3d4dffd7	0.050292816
51	0xbda80b26	-0.082052514
52	0x3c9dacc2	0.019247416
53	0x3d96a869	0.073563404
54	0x3ce79255	0.028268019
55	0x3d702c97	0.058636274
56	0x3e32107d	0.17389102
57	0xbe09acf1	-0.13444878
58	0x3d61e9b4	0.055154517
59	0xbcfb920d	-0.03070929
60	0x3e2a4f72	0.16631868
61	0x3df4182d	0.11918674
62	0x3a95f090	0.0011439491
63	0x3e18a5b5	0.14906962
64	0xbc8ebbd6	-0.017423552
65	0xbb825a26	-0.0039780317
66	0x3df7d3ed	0.121009685
67	0x3e0dc90d	0.13846226
68	0xbd2f17fa	-0.042747475
69	0x3cc8223a	0.024430383
70	0xbd68af48	-0.056807786
71	0x3dc7ddba	0.09759088
72	0x3e164704	0.14675528
73	0x3e05d69d	0.1307015
74	0xbe2cec32	-0.16886976
75	0x3e1eeeec	0.15520829
76	0xbe120510	-0.14259744
77	0xbcab0410	-0.02087596
78	0x3e227aed	0.15867205
79	0xbddd2058	-0.10797185
80	0xbd8aeb83	-0.067832015
81	0x3d50a72b	0.050940674
82	0xbacb70b0	-0.0015521254
83	0xbe1cb1fe	-0.15302274
84	0x3d915d9e	0.07097934
85	0xbd4e8384	-0.05041839
86	0x3c419843	0.011816087
87	0xbcef8041	-0.02923596
88	0x3e251370	0.16120696
89	0x3d4c0e18	0.04981813
90	0x3e0cac18	0.13737524
91	0x3e125702	0.14291003
92	0xbe12a84a	-0.1432201
93	0x3e1f2ee0	0.15545225
94	0xbd50781e	-0.050895803
95	0x3de833d6	0.11338012
96	0xbd0de9a3	-0.03464664
97	0x3d5fcd74	0.054639295
98	0xbe2e9919	-0.1705059
99	0x3e0593ab	0.13044612
100	0xbe0ea903	-0.1393166
101	0xbd23776d	-0.039908815
102	0xbe16f434	-0.14741594
103	0x3dde1118	0.10843104
104	0xbcb276c2	-0.021785144
105	0x3da6a24f	0.08136427
106	0xbdd8bba6	-0.10582666
107	0xbe0d59b5	-0.13803752
108	0x3e2103f2	0.15724161
109	0x3e00848c	0.12550563
110	0x3d881c5c	0.06646034
111	0xbdce7b7e	-0.10082148
112	0xbe095486	-0.1341115
113	0x3c883fc4	0.016631968
114	0x3c03493c	0.008013066
115	0x3e26be3c	0.16283506
116	0x3e204fe4	0.15655476
117	0xbd06c858	-0.032905906
118	0xbd9cabf5	-0.07649986
119	0x3d344621	0.044012193
120	0x3c3b3a35	0.011427452
121	0xbb837adf	-0.00401245
122	0xbde093e7	-0.1096571
123	0xbe2f2ce0	-0.17106962
124	0x3d798752	0.060920067
125	0x3dd934a0	0.106057405
126	0x3d332dcd	0.04374485
127	0xbdbf209a	-0.0933239
128	0x3df75a8f	0.120778196
129	0xbd93a834	-0.072098166
130	0xbd93db7a	-0.07219596
131	0x3c86fb25	0.016477177
132	0x3d1536c8	0.036429197
133	0x3d9e5cf9	0.07732577
134	0xbc955b3c	-0.01823198
135	0xbe09e48e	-0.13466093
136	0xbde50bff	-0.11183929
137	0xbd908251	-0.07056106
138	0x3d2dffe2	0.042480357
139	0xbd75f6f2	-0.06004996
140	0xbdf137f9	-0.11778254
141	0xbd9ce076	-0.0766
142	0x3e307740	0.1723299
143	0xbd0a8eb5	-0.033827502
144	0x3e231b72	0.15928438
145	0x3c847dbf	0.016173242
146	0x3da93517	0.08262079
147	0x3e113f5a	0.14184323
148	0xbe1bef3d	-0.15227981
149	0xbdb109e1	-0.086444624
150	0xbdbd03d4	-0.09229246
151	0x3e1c2051	0.15246703
152	0xbde4cb87	-0.11171632
153	0xbe2fe722	-0.17178014
154	0x3ba349f5	0.0049831816
155	0xbd6082ba	-0.05481217
156	0x3bcd8f71	0.006273203
157	0xbcc64cd9	-0.024206566
158	0xbd8cd088	-0.06875712
159	0xbcba17bf	-0.022716401
160	0x3dff86a4	0.124768525
161	0xbe06abee	-0.13151523
162	0xbd87970b	-0.06620606
163	0xba2dc89f	-0.0006629321
164	0xbc78ea22	-0.01519254
165	0xbce0c123	-0.027435845
166	0xbdcb4ef2	-0.09927167
167	0x3dcf2487	0.10114389
168	0xbca3f90a	-0.020016212
169	0x3d4c9fdb	0.049957138
170	0xbddf4058	-0.109009445
171	0x3e2cf401	0.16889955
172	0x3cf27a6c	0.02959939
173	0x3e2938fc	0.16525644
174	0xbc4195ea	-0.011815527
175	0xbe127259	-0.14301433
176	0xbb10ed46	-0.0022114082
177	0x3cc31fd6	0.023818891
178	0xbe26c681	-0.1628666
179	0x3b559e4a	0.0032595568
180	0xbe0cbd0e	-0.13743994
181	0xbe1f5d11	-0.15562846
182	0x3e139d55	0.14415486
183	0x3e1d8cb0	0.153857
184	0xbd56effd	-0.052474964
185	0xbca46d09	-0.020071523
186	0xbd2e23c5	-0.04251458
187	0x3c8bd6a5	0.017070124
188	0xbdd99281	-0.106236465
189	0xbd3808bc	-0.044930205
190	0x3d641e04	0.055692688
191	0x3dc2b031	0.09506262
192	0x3da68f56	0.08132808
193	0xbd00fa78	-0.031488866
194	0xbe243610	-0.16036248
195	0xbdf2376e	-0.118269786
196	0x3df4a39b	0.11945268
197	0xbe2514f6	-0.16121277
198	0x3e041bfe	0.12901303
199	0x3df179d2	0.117908135
200	0x3df2cf89	0.118559904
201	0x3e288f86	0.16461
202	0xbbcb07a2	-0.0061959783
203	0xbda0ff06	-0.07861142
204	0xbce3b864	-0.027797885
205	0x3deb0fb2	0.11477603
206	0xbd55defa	-0.0522146
207	0x3c47b8f5	0.012190093
208	0x3cb7bd5a	0.022429157
209	0x3daa95d5	0.083293594
210	0x3dbd8650	0.09254134
211	0xbe051dfd	-0.12999721
212	0xbd221e11	-0.039579455
213	0x3de36588	0.1110335
214	0x3dd3e273	0.10345926
215	0xbe2cba23	-0.1686788
216	0xbdc48d81	-0.09597302
217	0x3e0e799a	0.13913575
218	0x3e057a30	0.13034892
219	0x3c73a285	0.014870291
220	0xbe16c2a7	-0.14722691
221	0x3deac967	0.11464196
222	0x3d6d0f73	0.05787606
223	0x3c350774	0.01104914
224	0xbe2ad7de	-0.1668391
225	0xbcd735fc	-0.026270859
226	0x3e23dc51	0.16002013
227	0xbcf653b3	-0.030069208
228	0x3e253d25	0.16136606
229	0x3d7abe08	0.061216384
230	0x3e1f36ff	0.15548323
231	0x3d9c6b5d	0.076376654
232	0xbdcc05ad	-0.0996202
233	0xbe2bfc76	-0.16795525
234	0x3d38a703	0.04508115
235	0xbd1ca829	-0.038246308
236	0xbbfe7e3c	-0.007766513
237	0xbc1c82db	-0.009552683
238	0x3d10db42	0.03536535
239	0xbdb7de6e	-0.08977972
240	0xbe318089	-0.17334189
241	0xbd4eeef5	-0.050520856
242	0xbdb8d7c4	-0.09025529
243	0xbd02a5a5	-0.031896252
244	0xbdebed0e	-0.11519824
245	0x3e22a690	0.15883851
246	0x3e0a5a2a	0.13510957
247	0x3d912369	0.07086832
248	0x3dae1201	0.08499528
249	0x3e145b34	0.14487916
250	0xbba31e42	-0.0049779722
251	0xbc3bae08	-0.0114550665
252	0xbdee6bee	-0.1164168
253	0x3dc4b9e2	0.09605767
254	0x3dcc6944	0.09981015
255	0x3d537de0	0.051633716

bn2.weight f4 [512]
0	0x3e92ac6d	0.28647175
1	0x3f012491	0.5044642
2	0x3e3a3253	0.1818326
3	0x3ec9a28c	0.39381826
4	0x3ed821da	0.42213327
5	0x3efe7ec2	0.49706084
6	0x3ebde554	0.37089026
7	0x3eb11098	0.34582973
8	0x3ecd3036	0.40075845
9	0x3ead2bf5	0.338226
10	0x3e7b9342	0.24567893
11	0x3e73f148	0.2382251
12	0x3e69f15c	0.22845978
13	0x3ebe4cd5	0.37167993
14	0x3e683dde	0.2267985
15	0x3e913f82	0.28368765
16	0x3edf3257	0.43593094
17	0x3f517929	0.818255
18	0x3eba6386	0.36404055
19	0x3e878e76	0.26475877
20	0x3e607f3d	0.21923538
21	0x3e4d24a0	0.20033503
22	0x3ef3d156	0.47620648
23	0x3e92addd	0.28648272
24	0x3ead2f06	0.3382494
25	0x3ed99b2e	0.42501205
26	0x3ec1d929	0.37860993
27	0x3e3f3911	0.18674113
28	0x3ebbbe88	0.366688
29	0x3ec08f73	0.37609443
30	0x3e8a531e	0.27016538
31	0x3e915036	0.2838151
32	0x3eed75e6	0.46379012
33	0x3eee4eba	0.4654444
34	0x3ea00cee	0.31259865
35	0x3ea61df7	0.32444736
36	0x3e72ebaf	0.23722719
37	0x3e9e5d13	0.30930385
38	0x3eb5b276	0.35487717
39	0x3e6fde0e	0.23424551
40	0x3e99366b	0.2992433
41	0x3e4160ef	0.18884633
42	0x3ee1ef3e	0.4412784
43	0x3ea1d71a	0.31609422
44	0x3f1ee8a1	0.62073714
45	0x3dd7ae51	0.10531295
46	0x3f15eaab	0.585612
47	0x3e9d3ee6	0.3071205
48	0x3ea000e0	0.31250668
49	0x3e9a0da7	0.3008854
50	0x3e85def6	0.26146668
51	0x3eb8e184	0.36109555
52	0x3ea4c352	0.32180268
53	0x3ea5b51a	0.32364732
54	0x3bca9c46	0.00618318
55	0x3f130059	0.57422405
56	0x3f035a37	0.5130953
57	0x3e710c80	0.23539925
58	0x3f210e82	0.6291276
59	0x3e48180b	0.19540422
60	0x3e9a149e	0.30093855
61	0x3e961608	0.29313684
62	0x3ef242c3	0.4731656
63	0x3e8f7133	0.28016052
64	0x3f18f41f	0.597475
65	0x3e721b56	0.2364324
66	0x3e4f366e	0.20235607
67	0x3e70d994	0.235205
68	0x3eb61378	0.35561728
69	0x3e923f4c	0.28563917
70	0x3ef783bb	0.4834269
71	0x3ed2bc63	0.41159353
72	0x3eb8c9ac	0.36091363
73	0x3e97c6e9	0.29643944
74	0x3ef8ecfa	0.486183
75	0x3eff1d0f	0.49826857
76	0x3e334cb4	0.17509729
77	0x3ea205fd	0.31645194
78	0x3f530c1e	0.82440364
79	0x3eb82bb0	0.3597083
80	0x3e9ff6f1	0.3124309
81	0x3e9f534a	0.31118232
82	0x3eb1360a	0.3461154
83	0x3f0166ac	0.5054729
84	0x3ee7017e	0.45118326
85	0x3f47a4f6	0.77986085
86	0x3ec481ff	0.3838043
87	0x3eb53d1f	0.35398194
88	0x3e9260e0	0.28589535
89	0x3e6b55d3	0.22981958
90	0x3efe110d	0.49622384
91	0x3f14306d	0.5788639
92	0x3e9e2fdb	0.30895886
93	0x3f01b518	0.5066695
94	0x3ca9416c	0.020661078
95	0x3ee14f8c	0.44006002
96	0x3f0f2b83	0.5592577
97	0x3be317f3	0.006930345
98	0x3f192846	0.5982708
99	0x3ea32231	0.31862023
100	0x3e99248c	0.29910696
101	0xbe56b52f	-0.20967554
102	0x3ea13974	0.31489146
103	0x3e906b10	0.28206682
104	0x3f1203ee	0.57037246
105	0x3eba03a5	0.36330906
106	0x3e968b8f	0.2940335
107	0x3ea2d00a	0.31799346
108	0x3ecd7e5a	0.4013546
109	0x3ea7a30f	0.3274159
110	0x3ee6426a	0.44972545
111	0x3ec23db1	0.37937692
112	0x3e421b99	0.1895584
113	0x3eb172bd	0.3465785
114	0x3e379acc	0.17930144
115	0x3e51c78c	0.20486277
116	0x3ea74d39	0.32676104
117	0x3f0858fd	0.53260785
118	0x3e469329	0.19392075
119	0x3ecced86	0.40024966
120	0x3e9c4f42	0.3052922
121	0x3edb02fc	0.42775714
122	0x3eb57054	0.35437262
123	0x3e8ea2d9	0.27858618
124	0x3eb8afae	0.36071533
125	0x3ea19d3d	0.31565276
126	0x3f13193e	0.5746039
127	0x3ec2484c	0.37945783
128	0x3e44c4ff	0.19215773
129	0x3e7db8c5	0.24777515
130	0x3eb95cb8	0.3620355
131	0x3e94ca31	0.2906051
132	0x3ee78656	0.45219678
133	0x3ebd50b1	0.36975625
134	0x3e916799	0.2839935
135	0x3ea94e26	0.33067435
136	0x3ea8446a	0.32864696
137	0x3ef6abd7	0.48177978
138	0x3ebdfd39	0.37107256
139	0x3ec1fdaf	0.37888858
140	0x3f1e175a	0.6175438
141	0x3ec539e1	0.3852072
142	0x3e834624	0.2563945
143	0x3e4a9dac	0.1978671
144	0x3ea442c0	0.32082176
145	0x3e893e67	0.26805422
146	0x3ec0be32	0.37645108
147	0x3eefed52	0.4686075
148	0x3e9753c3	0.29556093
149	0x3efef901	0.4979935
150	0x3efbacb5	0.49155203
151	0x3f561ced	0.8363789
152	0x3e1ddbfd	0.1541595
153	0x3edcace0	0.43100643
154	0x3e9eb584	0.3099786
155	0x3e1c304c	0.15252799
156	0x3ecf941e	0.40542692
157	0x3ef56a68	0.47932744
158	0x3f00708f	0.5017175
159	0x3ef1a5e0	0.47196865
160	0x3ecb8131	0.39747003
161	0x3e830d71	0.25596192
162	0x3e849528	0.25895047
163	0x3ed5fa06	0.41792315
164	0x3e92f4b5	0.28702322
165	0x3ea93023	0.33044538
166	0x3e8c7a5f	0.27437112
167	0x3ead6390	0.33865023
168	0x3ee6e071	0.4509311
169	0x3ecc89f6	0.39949006
170	0x3ec2ea29	0.38069275
171	0x3ece343b	0.40274224
172	0x3e888479	0.2666357
173	0x3edc1416	0.42984074
174	0x3ee67694	0.45012343
175	0x3ebbe0d1	0.3669496
176	0x3e8d77f2	0.27630574
177	0x3f3bba0f	0.7333078
178	0x3f083969	0.532126
179	0x3ea9424d	0.33058396
180	0x3e823641	0.25432017
181	0x3eb2421e	0.34816068
182	0x3f5f0b7d	0.87126905
183	0x3e89204b	0.2678245
184	0x3f30bd5b	0.69038934
185	0x3eab868b	0.33501086
186	0x3e8c072d	0.27349225
187	0x3ecf73a6	0.4051792
188	0x3ec88f0e	0.39171642
189	0x3e53a480	0.2066822
190	0x3ea6dc0d	0.3258976
191	0x3f0268cb	0.5094115
192	0x3f0f1475	0.5589059
193	0x3f3f8c74	0.7482369
194	0x3ed4f1f3	0.41590843
195	0x3ea50c3a	0.3223589
196	0x3eaeacda	0.3411625
197	0x3e97e768	0.29668736
198	0x3e91a734	0.28447878
199	0x3edfcae2	0.43709475
200	0x3e665883	0.22494702
201	0x3ed7a370	0.4211688
202	0x3ed219e6	0.41035384
203	0x3ec42ae7	0.38313982
204	0x3e8bf7a9	0.27337387
205	0x3f217c0a	0.63079894
206	0x3e810aa8	0.25203443
207	0x3e79f125	0.24408396
208	0x3ea1bd03	0.31589517
209	0x3e544fc4	0.20733553
210	0x3e7468eb	0.23868148
211	0x3e9e9ba6	0.30978125
212	0x3e4a24c4	0.19740587
213	0x3f241063	0.64087504
214	0x3e925a9c	0.28584754
215	0x3e6733d2	0.22578362
216	0x3ed11370	0.40835142
217	0x3ec294cb	0.38004145
218	0x3c02424e	0.007950379
219	0x3ee1200e	0.43969768
220	0x3e8236b1	0.2543235
221	0x3ef29c6d	0.47384968
222	0x3e7b864a	0.24562946
223	0x3f2ae8e0	0.6676159
224	0x3e91c082	0.28467184
225	0x3efedfea	0.49780208
226	0x3ef98a1e	0.48738188
227	0x3f1f2fe9	0.6218248
228	0x3ea1ff44	0.31640065
229	0x3e9ff4e3	0.3124152
230	0x3efd74d5	0.49503198
231	0x3e43d2a0	0.19123316
232	0x3f9f160f	1.2428607
233	0x3e1152c4	0.14191729
234	0x3e78e6bb	0.24306767
235	0x3eadfd87	0.3398249
236	0x3f0156c4	0.5052302
237	0x3ecc65d9	0.39921454
238	0x3f2ead86	0.68233526
239	0x3e8c49ee	0.27400154
240	0x3ede5c8b	0.4342998
241	0x3e8550be	0.26038164
242	0x3f17fe4c	0.593724
243	0x3e3f9231	0.18708111
244	0x3eadab01	0.33919528
245	0x3e9c985a	0.30584985
246	0x3efb8abc	0.49129283
247	0x3e8cde70	0.27513456
248	0x3ea45e39	0.32103136
249	0x3f0eb5b3	0.55746
250	0x3f0107ad	0.5040234
251	0x3eb4cb47	0.35311338
252	0x3ec24fe5	0.3795158
253	0x3f0ac641	0.5420876
254	0x3ec922a3	0.39284238
255	0x3e994f4e	0.29943317

bn2.bias f4 [512]
0	0xbec022a2	-0.37526423
1	0xbf1a9473	-0.60382766
2	0xbd4b8789	-0.049689803
3	0xbf2c16a9	-0.67222077
4	0xbf28535a	-0.65752184
5	0xbf19a407	-0.6001591
6	0xbf30864a	-0.6895491
7	0xbedd8934	-0.4326874
8	0xbf14b557	-0.580892
9	0xbf073b75	-0.528251
10	0xbea2a19f	-0.31763932
11	0xbeebd052	-0.46057373
12	0xbf1d119d	-0.61355
13	0xbf1c27ec	-0.60998416
14	0xbec20d4d	-0.37900773
15	0xbe9a9400	-0.3019104
16	0xbf219c61	-0.6312924
17	0xbe955257	-0.29164383
18	0xbf11df19	-0.56981045
19	0xbe8da1b0	-0.2766242
20	0xbedc14e1	-0.4298468
21	0xbec07708	-0.37590814
22	0xbedac1aa	-0.4272588
23	0xbeac76de	-0.33684438
24	0xbe811ec7	-0.25218794
25	0xbf10565b	-0.5638177
26	0xbe9eb465	-0.30997005
27	0xbe9b4102	-0.30323035
28	0xbee99f72	-0.4562946
29	0xbf01d75c	-0.5071924
30	0xbebee30b	-0.37282595
31	0xbeb01052	-0.3438745
32	0xbf026910	-0.5094156
33	0xbf242599	-0.6411987
34	0xbed932a7	-0.42421457
35	0xbe9ea208	-0.30982995
36	0xbeb10a68	-0.34578252
37	0xbeba0f56	-0.36339825
38	0xbf01f437	-0.5076327
39	0xbd405f13	-0.04696567
40	0xbec4899b	-0.38386235
41	0xbeb68ade	-0.35652822
42	0xbf0ef337	-0.55839866
43	0xbeb3a6c9	-0.35088184
44	0xbee70f78	-0.4512899
45	0xbe94de13	-0.2907568
46	0xbf5189c3	-0.8185083
47	0xbe42a4d9	-0.19008197
48	0xbeb0ba2b	-0.34517035
49	0xbee9b01d	-0.45642176
50	0xbeb3fac3	-0.35152254
51	0xbf07421b	-0.52835244
52	0xbee57017	-0.4481208
53	0xbeff4d78	-0.4986379
54	0xbcea1067	-0.028572274
55	0xbf006c8a	-0.5016562
56	0xbf233e4a	-0.6376692
57	0xbe9bb16f	-0.3040881
58	0xbbb04ad0	-0.005380012
59	0xbe9b88c9	-0.30377796
60	0xbe912ed1	-0.2835603
61	0xbeb66b77	-0.35628864
62	0xbf2cf5b7	-0.6756243
63	0xbeccab87	-0.39974615
64	0xbf231f31	-0.6371947
65	0xbea69c78	-0.3254125
66	0xbef57f75	-0.47948804
67	0xbdaacd95	-0.08339993
68	0xbee3d3ba	-0.44497472
69	0xbf0d03cd	-0.55083925
70	0xbe809e80	-0.25120926
71	0xbf27b94a	-0.65517104
72	0xbf03b49c	-0.51447463
73	0xbf13a5b5	-0.57674724
74	0xbecd5838	-0.40106368
75	0xbf1473df	-0.57989305
76	0xbe6a289a	-0.22867051
77	0xbea6d58b	-0.32584795
78	0xbf3d809d	-0.74024373
79	0x3d19301d	0.0373994
80	0xbf197a15	-0.5995191
81	0xbef2254d	-0.47294083
82	0xbf2aa074	-0.6665108
83	0xbf25b463	-0.64728373
84	0xbf11425a	-0.5674187
85	0xbd0cfcb3	-0.03442068
86	0xbedbcf5d	-0.42931643
87	0xbf3b37d7	-0.7313208
88	0xbed3ecc1	-0.41391566
89	0xbe9764c5	-0.2956907
90	0xbf05644f	-0.52106184
91	0xbe467e8a	-0.19384208
92	0xbe897c99	-0.26852873
93	0xbf210858	-0.62903357
94	0xbe86494c	-0.26227796
95	0xbf0b72c8	-0.5447202
96	0xbef95e35	-0.48704687
97	0xbd5918b8	-0.05300209
98	0xbeb9bf13	-0.3627859
99	0xbf0f4fe3	-0.5598127
100	0xbee87e1d	-0.45408717
101	0xbefafe37	-0.49022076
102	0xbe97f58f	-0.29679534
103	0xbeeebd76	-0.46628922
104	0xbeb3b554	-0.3509928
105	0xbf0ed170	-0.55788326
106	0xbf0f7ac8	-0.56046724
107	0xbedc7a6c	-0.4306215
108	0xbea48b99	-0.32137755
109	0xbe966145	-0.29371086
110	0xbf1e2f5e	-0.61791027
111	0xbe84443f	-0.25833318
112	0xbe2c9ed7	-0.16857468
113	0xbeeb2b66	-0.45931548
114	0xbe9925f2	-0.29911762
115	0x3c946c97	0.018118186
116	0xbe979afe	-0.29610437
117	0xbf14dda3	-0.5815069
118	0xbea59fce	-0.32348484
119	0xbf116366	-0.56792295
120	0xbeda7ca4	-0.42673218
121	0xbf0b1cb2	-0.5434066
122	0xbeb1b06c	-0.34704912
123	0xbea64ceb	-0.3248056
124	0xbefaf3b6	-0.49014062
125	0xbe8d9edc	-0.27660263
126	0xbf27b472	-0.6550971
127	0xbf237376	-0.63848054
128	0xbe256b49	-0.16154207
129	0xbea4134d	-0.32045975
130	0xbf074acd	-0.5284851
131	0xbeb6b84a	-0.35687476
132	0xbee7e486	-0.45291537
133	0xbeab24b2	-0.33426434
134	0xbec8e634	-0.3923813
135	0xbef95ba9	-0.48702744
136	0xbeb88f4c	-0.36046827
137	0xbf25824f	-0.6465196
138	0xbf2389fd	-0.6388243
139	0xbe14ea3a	-0.14542475
140	0xbe81f248	-0.25380158
141	0xbefa43a1	-0.48879722
142	0xbe3b90b4	-0.18316919
143	0xbe2553e4	-0.16145283
144	0xbe804ff5	-0.25061002
145	0xbedf5b4c	-0.4362434
146	0xbf41e100	-0.7573395
147	0xbf109132	-0.5647155
148	0xbede56ac	-0.434255
149	0xbf30e3e5	-0.6909774
150	0x3f42aec2	0.7604791
151	0xbf03847a	-0.5137402
152	0xbe734db5	-0.23760112
153	0xbf264741	-0.64952475
154	0xbf0a40a9	-0.54004914
155	0xbe900f37	-0.28136608
156	0xbf01ec99	-0.50751644
157	0xbf5c5997	-0.86074203
158	0xbedc7fff	-0.43066403
159	0xbf15e71d	-0.58555776
160	0xbeed45c8	-0.463423
161	0xbee29e41	-0.44261363
162	0xbef8b6b9	-0.48576906
163	0xbf0f991b	-0.56092995
164	0xbe79238a	-0.24329963
165	0xbf2d47b7	-0.67687553
166	0xbe4e8bc2	-0.20170501
167	0xbefd5a2f	-0.49482867
168	0x3e02b972	0.12766054
169	0xbf07fded	-0.53121835
170	0xbee78c0d	-0.45224038
171	0xbf2b3fab	-0.66894025
172	0xbeb120d9	-0.34595373
173	0xbf21a8dd	-0.6314829
174	0xbee125eb	-0.43974242
175	0xbe854fd4	-0.26037467
176	0xbec5b9bd	-0.3861827
177	0xbf362367	-0.7114777
178	0xbf283453	-0.6570484
179	0xbedd65a8	-0.4324162
180	0xbe285043	-0.16436867
181	0xbf0323e4	-0.5122664
182	0xbf068a1c	-0.5255449
183	0xbef9426e	-0.48683494
184	0xbded21b5	-0.11578695
185	0xbeb53b9b	-0.35397038
186	0xbf066e11	-0.525117
187	0xbf24db6d	-0.6439732
188	0xbf0e2cee	-0.5553731
189	0xbe3881a9	-0.18018211
190	0xbef7a8e5	-0.48371044
191	0xbf4ae493	-0.79255027
192	0xbf1d85da	-0.61532366
193	0xbf4c1eca	-0.7973448
194	0xbef7b9b6	-0.48383874
195	0xbedfc2e3	-0.43703374
196	0xbf4364e3	-0.76325816
197	0xba597b20	-0.000829624
198	0xbed72583	-0.42020807
199	0xbecd27c2	-0.40069395
200	0xbeedf909	-0.4647906
201	0xbf0c0e08	-0.5470891
202	0xbea03e7c	-0.31297672
203	0xbeee262d	-0.465135
204	0xbed46299	-0.41481474
205	0xbe9bc445	-0.3042318
206	0xbe4cc624	-0.1999746
207	0xbf080d26	-0.5314506
208	0xbed532e5	-0.41640392
209	0xbec60990	-0.3867917
210	0xbea7cc11	-0.32772878
211	0xbe97ea44	-0.29670918
212	0xbea18db9	-0.31553438
213	0xbf14f2e7	-0.5818314
214	0xbebe38fa	-0.37152845
215	0xbeb8c121	-0.36084846
216	0xbf2b9fd9	-0.67040783
217	0xbeeb4ca5	-0.45956913
218	0xbd93e0c4	-0.07220605
219	0xbf1a8423	-0.60357875
220	0xbeba88f8	-0.36432624
221	0xbf264312	-0.6494609
222	0xbf081605	-0.531586
223	0xbeed2138	-0.46314406
224	0xbec79faa	-0.38989002
225	0xbea6431a	-0.3247307
226	0xbf18d023	-0.5969259
227	0xbdd97bb2	-0.10619296
228	0xbe83ad7c	-0.25718296
229	0xbedd4f0c	-0.4322437
230	0xbf3be4eb	-0.73396176
231	0xbeb37744	-0.3505193
232	0xbef5e5dd	-0.48026934
233	0xbe90a975	-0.28254285
234	0xbecd3d3b	-0.40085778
235	0xbec44a62	-0.38338
236	0xbefbed98	-0.49204707
237	0xbef991c1	-0.48744014
238	0xbf928f19	-1.144992
239	0xbef069d7	-0.4695575
240	0xbf03c160	-0.5146694
241	0xbe9d2258	-0.30690265
242	0xbe43b8c6	-0.19113454
243	0xbd9205d0	-0.07130015
244	0xbf056718	-0.52110434
245	0xbe825d50	-0.25461817
246	0xbe76b97f	-0.24094199
247	0xbed0de9a	-0.40794832
248	0xbef06f67	-0.46959993
249	0xbf3103e2	-0.6914655
250	0xbf2bc94e	-0.6710404
251	0xbee47936	-0.44623727
252	0xbe0197ea	-0.12655607
253	0x3d402cc9	0.04691771
254	0xbe8cbf15	-0.27489534
255	0xbedcee59	-0.43150595

bn2.running_mean f4 [512]
0	0x3e0e79aa	0.13913599
1	0x3d69893b	0.05701564
2	0x3ced0b4a	0.028936047
3	0xbe033dbb	-0.12816517
4	0x3c13f074	0.009029496
5	0xbe0710fd	-0.13190074
6	0x3dcf1a76	0.10112469
7	0x3dea7b0b	0.1144925
8	0x3e185895	0.14877541
9	0x3dbe49d0	0.09291422
10	0x3d8e809a	0.069581226
11	0xbc764312	-0.015030639
12	0x3e261e3f	0.16222475
13	0xbe2babab	-0.16764705
14	0xbc92f473	-0.017938828
15	0x3e2eee1a	0.17083016
16	0x3dbc64a8	0.09198886
17	0xbd744d5c	-0.05964409
18	0x3e14121b	0.14460032
19	0xbe07db4b	-0.13267247
20	0xbda39618	-0.079876125
21	0x3e1fe979	0.15616407
22	0x3adc408d	0.0016803906
23	0xbc3755ed	-0.01118992
24	0xbd053c44	-0.032528177
25	0x3bcb57b6	0.0062055243
26	0x3d5fd32d	0.054644752
27	0x3d4e375d	0.050345767
28	0x3d8e6104	0.06952098
29	0xbaf66946	-0.0018799684
30	0x3d8117da	0.063033774
31	0xbd98f19c	-0.07467958
32	0x3d965466	0.073403165
33	0x3a22820c	0.0006199188
34	0xbd9b865d	-0.07593987
35	0xbe0dfa62	-0.13865045
36	0xbd886702	-0.06660272
37	0x3dc5beec	0.09655556
38	0x3c89ff72	0.016845439
39	0x3d8ae9dc	0.067828864
40	0x3c9ce32b	0.01915129
41	0xbe11c6b6	-0.14235958
42	0x3db7fdd5	0.089839615
43	0x3de7ff36	0.113279745
44	0xbc8e8e7a	-0.017401922
45	0x3de3d783	0.1112509
46	0x3dd89fec	0.10577378
47	0xbd2097ab	-0.03920714
48	0xbde67eaa	-0.11254628
49	0xbd34822e	-0.04406946
50	0x3d4ed009	0.050491367
51	0xbda59b56	-0.080862686
52	0x3c9bfe2e	0.0190421
53	0x3d988846	0.07447867
54	0x3ce6fec6	0.028197657
55	0x3d71718a	0.05894617
56	0x3e314284	0.1731053
57	0xbe0a2db1	-0.13493992
58	0x3d65d9be	0.05611586
59	0xbcf9c2e4	-0.030488439
60	0x3e2999ba	0.16562548
61	0x3df2636a	0.11835368
62	0x3acb78ef	0.0015523712
63	0x3e18f1aa	0.14935938
64	0xbc975d25	-0.018477032
65	0xbb805bb5	-0.0039171823
66	0x3df7a6d1	0.120923646
67	0x3e0ec001	0.13940431
68	0xbd2c3f7e	-0.04205274
69	0x3cc3f480	0.023920298
70	0xbd69a858	-0.05704531
71	0x3dc77341	0.0973878
72	0x3e15a86f	0.14615034
73	0x3e071026	0.13189754
74	0xbe2d5915	-0.16928513
75	0x3e1ff3e3	0.15620379
76	0xbe120344	-0.14259058
77	0xbcaa8d42	-0.02081931
78	0x3e21f108	0.15814602
79	0xbddc0c00	-0.10744476
80	0xbd8b6b11	-0.06807531
81	0x3d4f2ee4	0.050581828
82	0xbb14fb04	-0.0022732625
83	0xbe1b7eaa	-0.15185037
84	0x3d90486a	0.07045062
85	0xbd51a140	-0.05117917
86	0x3c39c9d8	0.011339627
87	0xbcf697e3	-0.030101722
88	0x3e254960	0.16141272
89	0x3d4bfd8c	0.049802348
90	0x3e0b50f3	0.13605098
91	0x3e12c9bb	0.14334767
92	0xbe12fb55	-0.14353688
93	0x3e1e6522	0.15468267
94	0xbd4fe62f	-0.05075663
95	0x3de6b470	0.112648845
96	0xbd0da19d	-0.034577955
97	0x3d5f119b	0.05446015
98	0xbe2f7d0c	-0.17137545
99	0x3e04f5af	0.12984346
100	0xbe0e80fe	-0.13916394
101	0xbd2462af	-0.040133175
102	0xbe16ece6	-0.14738807
103	0x3ddd8ce4	0.108178884
104	0xbcb5d3fb	-0.022195807
105	0x3da86263	0.08221891
106	0xbdda2966	-0.106524274
107	0xbe0e2d22	-0.13884404
108	0x3e212c73	0.15739612
109	0x3e01a385	0.12660034
110	0x3d88aa58	0.066731155
111	0xbdce604e	-0.100769624
112	0xbe0a88b1	-0.13528706
113	0x3c88ffe8	0.016723588
114	0x3bf31c7d	0.0074191676
115	0x3e25b217	0.16181217
116	0x3e2061b3	0.1566227
117	0xbd05b6e2	-0.032645114
118	0xbd9a64bd	-0.075387456
119	0x3d3736dd	0.044730056
120	0x3c302c05	0.010752683
121	0xbb6aa694	-0.0035804855
122	0xbde242ad	-0.11047874
123	0xbe2f6575	-0.17128547
124	0x3d7a03a6	0.061038636
125	0x3dd8c63c	0.10584685
126	0x3d34731a	0.044055082
127	0xbdbefb1d	-0.0932524
128	0x3df7d63e	0.1210141
129	0xbd946a89	-0.072468825
130	0xbd925b4c	-0.0714632
131	0x3c846480	0.016161203
132	0x3d12a962	0.035806067
133	0x3d9f501a	0.0777895
134	0xbc92ba35	-0.017911056
135	0xbe0b475f	-0.13601445
136	0xbde6547d	-0.112465836
137	0xbd90a0a0	-0.07061887
138	0x3d2e5ff0	0.042571962
139	0xbd77a0c5	-0.060456056
140	0xbdefe241	-0.117130764
141	0xbd9e0356	-0.0771548
142	0x3e30cc76	0.17265496
143	0xbd0bdd82	-0.034146793
144	0x3e22ed1c	0.15910763
145	0x3c852994	0.016255178
146	0x3da980b8	0.08276504
147	0x3e108a2c	0.14115208
148	0xbe1b64a7	-0.15175115
149	0xbdb295d4	-0.08719984
150	0xbdbe34c5	-0.09287409
151	0x3e1c2dc7	0.15251838
152	0xbde4911d	-0.11160491
153	0xbe2f53b4	-0.17121774
154	0x3b8fe6d7	0.004391532
155	0xbd6059e7	-0.054773238
156	0x3bab4dc0	0.0052277744
157	0xbcc94d88	-0.024573103
158	0xbd8d203f	-0.06890916
159	0xbcbfa3dd	-0.023393566
160	0x3e00c778	0.12576091
161	0xbe06898b	-0.13138406
162	0xbd88045e	-0.06641458
163	0xbad01069	-0.0015874031
164	0xbc81162f	-0.015757648
165	0xbce0a038	-0.027420148
166	0xbdcbb85d	-0.09947274
167	0x3dd076fa	0.10178943
168	0xbcaca229	-0.021073418
169	0x3d4d1fd8	0.050079197
170	0xbddf3cfc	-0.10900304
171	0x3e2dd2a7	0.16974889
172	0x3ceed714	0.029155292
173	0x3e28928b	0.16462152
174	0xbc42f1e0	-0.011898488
175	0xbe133bf7	-0.14378344
176	0xbb05be63	-0.0020407669
177	0x3cbc4554	0.022982277
178	0xbe264250	-0.16236234
179	0x3b725d85	0.0036982012
180	0xbe0c50f5	-0.13702758
181	0xbe1f010e	-0.15527746
182	0x3e1370a4	0.14398438
183	0x3e1c7729	0.15279831
184	0xbd5a33f2	-0.053272195
185	0xbca4568b	-0.020060798
186	0xbd296549	-0.04135636
187	0x3c91436c	0.017732345
188	0xbddb3da0	-0.107051134
189	0xbd34e41b	-0.04416285
190	0x3d648a66	0.05579605
191	0x3dc3ba5d	0.0955703
192	0x3da66657	0.081249885
193	0xbcfa1b74	-0.030530669
194	0xbe24d713	-0.1609767
195	0xbdf3e70d	-0.11909304
196	0x3df2f73b	0.11863562
197	0xbe248f4a	-0.16070285
198	0x3e044251	0.12915923
199	0x3df05199	0.117343135
200	0x3df39171	0.11892975
201	0x3e28542d	0.1643836
202	0xbbd2077c	-0.0064095836
203	0xbda0b4d4	-0.0784699
204	0xbce45324	-0.027871676
205	0x3deb17d1	0.11479152
206	0xbd56c5e6	-0.052434824
207	0x3c40b248	0.011761256
208	0x3cb633f4	0.02224157
209	0x3da9fa6b	0.082997166
210	0x3dbc8fd4	0.092071205
211	0xbe058025	-0.13037165
212	0xbd23e4ca	-0.040013112
213	0x3de319c1	0.110888965
214	0x3dd3117f	0.103060715
215	0xbe2cdf44	-0.16882044
216	0xbdc6ad3e	-0.09701012
217	0x3e0e370d	0.13888188
218	0x3e05641b	0.13026468
219	0x3c832c0a	0.01601221
220	0xbe17a14a	-0.1480762
221	0x3de919d3	0.11381879
222	0x3d6c9ce7	0.05776682
223	0x3c42755d	0.011868802
224	0xbe2a5716	-0.16634783
225	0xbcd34ae9	-0.025792556
226	0x3e240a92	0.16019657
227	0xbcee8c9a	-0.029119778
228	0x3e259592	0.16170338
229	0x3d7a5976	0.061120473
230	0x3e1e43d9	0.1545557
231	0x3d9d3b23	0.07677295
232	0xbdcdd1ec	-0.10049805
233	0xbe2b3117	-0.16717945
234	0x3d3b4dbd	0.045728434
235	0xbd1cb7d8	-0.038261265
236	0xbbfbb2b0	-0.0076812133
237	0xbc18d816	-0.009328863
238	0x3d13e50e	0.036107115
239	0xbdb87ac5	-0.090077914
240	0xbe30d0a5	-0.17267092
241	0xbd4f170b	-0.050559085
242	0xbdba2d56	-0.090906784
243	0xbd013bde	-0.031551234
244	0xbdeca30f	-0.115545385
245	0x3e221e96	0.1583198
246	0x3e0afcfd	0.1357307
247	0x3d91f52e	0.071268424
248	0x3dad14cb	0.084512316
249	0x3e137f2e	0.14403984
250	0xbbaa10a8	-0.005189974
251	0xbc3c66d2	-0.011499124
252	0xbdee0ebc	-0.11623904
253	0x3dc59b5a	0.096487716
254	0x3dc9e353	0.09857812
255	0x3d5436f3	0.051810216

bn2.running_var f4 [512]
0	0x3db15ca5	0.08660249
1	0x3de3614d	0.11102543
2	0x3dbef7d5	0.09324614
3	0x3dfbe181	0.12298871
4	0x3d16f935	0.036858756
5	0x3e2558f0	0.16147208
6	0x3d983a82	0.074330345
7	0x3de5ad8d	0.11214743
8	0x3dfd7783	0.12376311
9	0x3d9c9e5d	0.07647393
10	0x3e987a3c	0.29780757
11	0x3d2c7d13	0.042111468
12	0x3d4f3e1f	0.050596353
13	0x3d91980a	0.07109077
14	0x3e0b4274	0.13599569
15	0x3ddc868c	0.1076785
16	0x3e7691e0	0.24079084
17	0x3f00bbe3	0.5028669
18	0x3e04bef7	0.12963472
19	0x3d89e83f	0.067337506
20	0x3d87e2d8	0.06635064
21	0x3daa16d2	0.08305134
22	0x3dcea6b0	0.10090387
23	0x3df21198	0.11819762
24	0x3d55bffc	0.052185044
25	0x3dc7ee46	0.09762244
26	0x3da3dd84	0.08001235
27	0x3e02ad6e	0.1276147
28	0x3e606f13	0.21917371
29	0x3db1cf38	0.08682102
30	0x3e175ab4	0.14780694
31	0x3dc3d472	0.09562005
32	0x3e0c2494	0.13685828
33	0x3db12ff1	0.08651722
34	0x3d8b1ce1	0.067926176
35	0x3d98f5e7	0.07468777
36	0x3e208c5f	0.15678547
37	0x3d7c61ef	0.061616834
38	0x3e250d44	0.16118342
39	0x3de6cacd	0.1126915
40	0x3e68b904	0.22726828
41	0x3d947c02	0.07250215
42	0x3d84db75	0.064871706
43	0x3e26e5ee	0.16298649
44	0x3ca54101	0.020172598
45	0x3df3ec51	0.11910308
46	0x3d0538bf	0.03252482
47	0x3e193b46	0.14964017
48	0x3df92d9e	0.12166904
49	0x3d63b53f	0.05559277
50	0x3e2e1268	0.16999209
51	0x3e92b7d7	0.28655884
52	0x3e140b10	0.14457345
53	0x3cf55e65	0.029952237
54	0x3bd72f72	0.006566935
55	0x3ec9bbb7	0.39401028
56	0x3e801d9f	0.250226
57	0x3dba9432	0.09110297
58	0x3d2ba207	0.04190257
59	0x3e1f267f	0.15542029
60	0x3e995006	0.29943866
61	0x3dd1ab0d	0.102377035
62	0x3e168001	0.14697267
63	0x3decd898	0.115647495
64	0x3ce3d375	0.027810792
65	0x3e05c3a1	0.13062908
66	0x3e238f71	0.15972687
67	0x3e0312f5	0.128002
68	0x3e0c8e27	0.13726102
69	0x3de15cb8	0.11004013
70	0x3da916b2	0.08256282
71	0x3d1d9c06	0.038478874
72	0x3e10d7ab	0.14144771
73	0x3e7a1360	0.24421453
74	0x3ccec198	0.025238797
75	0x3d7e2930	0.062051
76	0x3dd981f7	0.10620492
77	0x3d86abcf	0.06575739
78	0x3d86fc32	0.06591071
79	0x3dfc6515	0.12323967
80	0x3d73a988	0.05948785
81	0x3e1e6a51	0.15470244
82	0x3e0b9826	0.13632259
83	0x3d929d1f	0.07158875
84	0x3e11dc65	0.1424423
85	0x3ce80bb5	0.028325895
86	0x3d57e8d8	0.05271229
87	0x3dba92f1	0.09110058
88	0x3e29efb3	0.16595344
89	0x3e967806	0.29388446
90	0x3d627a43	0.05529238
91	0x3d92fbfa	0.07176967
92	0x3e08b0d1	0.133487
93	0x3e033a8b	0.12815301
94	0x3e139589	0.14412512
95	0x3e260528	0.16212904
96	0x3e2bbba4	0.16770798
97	0x3b864a77	0.0040982324
98	0x3ddac582	0.10682203
99	0x3df7119c	0.120639056
100	0x3e281eb6	0.16417965
101	0x3d9a158b	0.0752364
102	0x3eff1284	0.49818814
103	0x3e3a9dd7	0.18224274
104	0x3eb12cfe	0.3460464
105	0x3d870d9b	0.06594392
106	0x3d8d5fcb	0.06903037
107	0x3e1d8376	0.1538218
108	0x3df29db9	0.118464895
109	0x3dce7598	0.10081023
110	0x3d8cd326	0.06876211
111	0x3dbce5da	0.09223528
112	0x3e101214	0.14069396
113	0x3e5f0b7d	0.21781726
114	0x3e6acbdf	0.22929333
115	0x3cf0d838	0.029399976
116	0x3e08b765	0.1335121
117	0x3dba9e19	0.09112186
118	0x3dfcc3c0	0.12342024
119	0x3d8397d2	0.06425442
120	0x3e176d12	0.14787701
121	0x3d83ea16	0.06441133
122	0x3ded8c58	0.11599034
123	0x3e259bd3	0.16172723
124	0x3d98d4aa	0.074624375
125	0x3d7f485d	0.06232487
126	0x3e338689	0.1753179
127	0x3d8ff0d1	0.07028354
128	0x3e0d4730	0.13796687
129	0x3d6a4a63	0.057199847
130	0x3e052eef	0.13006185
131	0x3e3ddafb	0.18540566
132	0x3dc69d53	0.09697976
133	0x3dea50c0	0.11441183
134	0x3dc8139b	0.097693644
135	0x3de7b834	0.11314431
136	0x3dc6be6b	0.09704288
137	0x3d8cfe0b	0.06884392
138	0x3dbeea76	0.093220636
139	0x3db72741	0.08943034
140	0x3db67d81	0.08910657
141	0x3db32e1e	0.087490305
142	0x3e028430	0.12745738
143	0x3d8d1ae8	0.068898976
144	0x3d9f3a7d	0.07774828
145	0x3e465b9f	0.19370888
146	0x3dbf80c3	0.09350731
147	0x3db6cd97	0.08925932
148	0x3dca0857	0.09864872
149	0x3dd2ec47	0.102989726
150	0x3d156fab	0.036483448
151	0x3c499ca7	0.012305415
152	0x3e425b88	0.18980229
153	0x3e5adccd	0.21373291
154	0x3dbd4785	0.09242157
155	0x3ddf8ec3	0.109159015
156	0x3dc8f997	0.098132305
157	0x3d46d4c9	0.04854277
158	0x3e222f97	0.15838467
159	0x3dc8ef47	0.098112635
160	0x3e645ef3	0.22301845
161	0x3dd4122f	0.10355031
162	0x3ddbe01f	0.10736107
163	0x3dbcfd06	0.09227948
164	0x3e9162d4	0.28395712
165	0x3d48285e	0.048866622
166	0x3eedc53f	0.4643955
167	0x3e43c287	0.19117175
168	0x3d80758c	0.0627242
169	0x3eaa4d1d	0.33261958
170	0x3d768bfc	0.060192093
171	0x3df6ff9b	0.120604716
172	0x3e1696c1	0.14705946
173	0x3df0df19	0.117613025
174	0x3db1dfd9	0.08685274
175	0x3dc95b57	0.09831875
176	0x3e3029a8	0.1720339
177	0x3d4b1eac	0.049589798
178	0x3da15705	0.07877926
179	0x3daa539e	0.0831673
180	0x3e94f023	0.2908946
181	0x3e84dd43	0.2595006
182	0x3cb782c5	0.022401223
183	0x3e3c588a	0.1839315
184	0x3d262ea8	0.04057184
185	0x3e7a9156	0.24469504
186	0x3d408d6f	0.04700988
187	0x3d79e681	0.06101084
188	0x3d30518d	0.043046523
189	0x3e9dcf9f	0.30822465
190	0x3d3ce2ee	0.046114855
191	0x3e448479	0.1919116
192	0x3f0ebf26	0.5576042
193	0x3dcbc455	0.09949557
194	0x3e05322e	0.13007423
195	0x3ea853a1	0.32876304
196	0x3dbc0bb4	0.0918192
197	0x3e0342d2	0.12818459
198	0x3dc01b90	0.09380257
199	0x3e66d678	0.22542751
200	0x3d3dd0fb	0.046341877
201	0x3dc78162	0.09741475
202	0x3d87afe1	0.06625343
203	0x3e59694f	0.21231578
204	0x3e0346cd	0.12819977
205	0x3d3c89fe	0.046030037
206	0x3e51beb3	0.20482902
207	0x3dcbd827	0.09953337
208	0x3eb6f2e7	0.35732195
209	0x3da49ac5	0.080373324
210	0x3dcf0f79	0.10110373
211	0x3e35e5c2	0.17763427
212	0x3dce4a92	0.10072817
213	0x3ddac8f6	0.106828615
214	0x3eaf3da2	0.3422671
215	0x3d9c8af7	0.07643693
216	0x3dfaee56	0.1225249
217	0x3de8c661	0.11365963
218	0x3becb8b1	0.0072241654
219	0x3de38300	0.11108971
220	0x3e820357	0.25393173
221	0x3d9c1c9b	0.076226436
222	0x3d84347e	0.064553246
223	0x3d947b1a	0.07250042
224	0x3e524715	0.20534928
225	0x3cba86d2	0.022769365
226	0x3e1aa1e9	0.15100826
227	0x3d96b4bb	0.0735869
228	0x3e3d4c16	0.18486056
229	0x3e167439	0.14692773
230	0x3dbd6434	0.09247628
231	0x3e784168	0.242437
232	0x3c834f2a	0.01602896
233	0x3ece97f5	0.4035031
234	0x3e4814d8	0.19539201
235	0x3e43b36f	0.19111417
236	0x3d6703a5	0.05639996
237	0x3d8bacbc	0.06820056
238	0x3cf6b7af	0.030116884
239	0x3d9e3776	0.07725422
240	0x3dad4c23	0.084617876
241	0x3dd8183a	0.10551496
242	0x3d3cd103	0.046097767
243	0x3e32235f	0.17396306
244	0x3e06abc7	0.13151465
245	0x3e0e1754	0.13876086
246	0x3e4ff84b	0.2030956
247	0x3e040470	0.12892318
248	0x3d96436f	0.07337081
249	0x3d98ad9a	0.07454987
250	0x3dc67711	0.09690679
251	0x3dcdffa5	0.10058526
252	0x3d50998c	0.050927684
253	0x3d5bb67e	0.053640835
254	0x3d66f6a1	0.056387547
255	0x3de13137	0.10995715

fc2.weight f4 [256, 516]
0	0x3e444ce8	0.19169962
1	0xbe6e5797	-0.232756
2	0xbe88299d	-0.26594248
3	0x3d6251c5	0.055253763
4	0xbd8191cf	-0.06326639
5	0x3e8237cf	0.25433204
6	0x3e2aff8d	0.16699047
7	0x3ec2570a	0.3795703
8	0xbda8d7ba	-0.082442716
9	0xbd9c9971	-0.07646454
10	0xbce579bc	-0.028012149
11	0x3ec0ff8d	0.3769497
12	0x3eda75b6	0.4266793
13	0x3e07ad6e	0.13249752
14	0x3c96dd8f	0.018416194
15	0x3e8af549	0.27140263
16	0xbd556804	-0.05210115
17	0x3ba057a3	0.0048932596
18	0xbdb41cd8	-0.08794564
19	0xbeb43b3d	-0.35201445
20	0xbe539256	-0.20661291
21	0x3e92e9b5	0.2869393
22	0x3df2c9e1	0.118549116
23	0xbf1f810c	-0.62306285
24	0x3db231d6	0.08700912
25	0xbed47f5d	-0.4150342
26	0xbdcebafb	-0.100942574
27	0x3e7b3656	0.24532446
28	0x3cd1cb86	0.025609743
29	0x3e06df89	0.1317121
30	0x3ebd0da3	0.36924466
31	0xbee0ef50	-0.4393258
32	0xbeb96d85	-0.3621637
33	0x3e33623c	0.17517942
34	0x3dc4dedf	0.09612822
35	0x3eb44e8d	0.3521618
36	0xbe3924c9	-0.18080439
37	0x3e31be8e	0.17357847
38	0xbd8ced71	-0.06881226
39	0x3d594e87	0.053053405
40	0xbdaaad62	-0.083338514
41	0x3eeb7900	0.45990753
42	0xbe9272df	-0.28603265
43	0x3e630de6	0.2217327
44	0xbe057aa7	-0.1303507
45	0xbe9d3df3	-0.30711326
46	0x3e6d8c4c	0.2319805
47	0x3cd85757	0.026408834
48	0xbf0cbe59	-0.5497795
49	0xbe2697aa	-0.16268793
50	0x3e61e226	0.22058925
51	0xbf3592cb	-0.70927113
52	0xbec1918d	-0.3780636
53	0x3eec24c5	0.46121803
54	0xbd0fb509	-0.035084758
55	0xbd27f6a3	-0.041006695
56	0xbf72425c	-0.94632506
57	0x3ce340b2	0.02774081
58	0x3e91628d	0.283955
59	0xbf0c9da5	-0.54928046
60	0x3eee9cca	0.46603996
61	0x3eac691f	0.3367395
62	0x3e570716	0.20998797
63	0xbd089e63	-0.033354174
64	0x3f03129f	0.5120029
65	0xbf1709a4	-0.58999085
66	0x3e655ecb	0.22399442
67	0x3db533c4	0.08847764
68	0xbee3700c	-0.44421422
69	0x3e606bb0	0.2191608
70	0x3e90a256	0.28248852
71	0xbeedb840	-0.46429634
72	0x3e885d15	0.26633516
73	0x3c37eafb	0.011225457
74	0xbe14f9a1	-0.14548351
75	0x3e0da38d	0.13831921
76	0x3cddc7de	0.027072843
77	0x3d47362d	0.04863565
78	0xbe9766b1	-0.29570535
79	0x3d5b29d3	0.053506684
80	0xbe6b9017	-0.23004185
81	0x3c998996	0.018742364
82	0xbe4bdfa0	-0.19909525
83	0x3e306da5	0.17229326
84	0xbd8e036f	-0.06934249
85	0xbe613436	-0.21992573
86	0xbba3b6c3	-0.004996152
87	0xbea4ab59	-0.32161978
88	0x3e093db4	0.13402444
89	0x3e64a622	0.22329
90	0xbd69cb3f	-0.057078596
91	0xbd32ad85	-0.043622512
92	0xbe044240	-0.12915897
93	0xbd8414f0	-0.06449306
94	0xbd88afce	-0.06674157
95	0x3d005b5e	0.031337135
96	0xbb24b2a0	-0.0025130883
97	0xbc20e342	-0.0098198075
98	0xbc8ffd5e	-0.01757687
99	0xbe3ec19c	-0.18628544
100	0xbe128a63	-0.14310603
101	0x3e243b5d	0.1603827
102	0x3e4afad6	0.19822249
103	0x3dafc2f5	0.08582107
104	0xbe4b5284	-0.19855696
105	0xbf3cb97c	-0.73720527
106	0x3e456eb8	0.19280517
107	0x3df2a07c	0.11847016
108	0x3ea75db7	0.32688686
109	0xbc6001fa	-0.013672346
110	0xbeeff6b8	-0.4686792
111	0xbb556f2b	-0.0032567482
112	0x3e163ca8	0.14671576
113	0x3d4fc04c	0.050720498
114	0x3d7598c2	0.059960134
115	0xbdbbb6e8	-0.09165746
116	0xbe1b737e	-0.15180776
117	0xbf1a81ab	-0.6035411
118	0xbf15c70c	-0.58506846
119	0xbe476f69	-0.19476093
120	0xbf115d5d	-0.56783086
121	0x3d2faf23	0.042891633
122	0x3dfcdc3e	0.12346695
123	0xbe127e5c	-0.14306015
124	0x3e850f95	0.2598845
125	0xbe7fbc85	-0.24974258
126	0x3eaf21b2	0.34205395
127	0xbdc72d39	-0.097254224
128	0x3e2f1d3f	0.17101
129	0xbd7425de	-0.059606425
130	0xbe73392b	-0.23752277
131	0x3dc00861	0.09376598
132	0x3e5ef1d0	0.21771932
133	0x3e3d7ea3	0.1850534
134	0xbdc289ff	-0.09498977
135	0x3cd0aa48	0.025471821
136	0xbe918ac7	-0.2842619
137	0xbec88d8b	-0.3917049
138	0xbd15b756	-0.036551796
139	0x3d1e713c	0.038682207
140	0x3cdede12	0.0272055
141	0xbf23bb28	-0.6395745
142	0x3c06aa27	0.008219278
143	0x3c464ca7	0.012103236
144	0xbe90c33a	-0.28273946
145	0x3de05580	0.10953808
146	0x3eca7b8c	0.39547384
147	0xbdcac65f	-0.099011175
148	0xbe0bbda0	-0.13646555
149	0xbe99a047	-0.30005094
150	0xbde275c3	-0.110576175
151	0x3c809c35	0.015699485
152	0xbee46be5	-0.44613567
153	0xbe97b564	-0.29630578
154	0xbdfb925c	-0.12283775
155	0xbd019fa7	-0.031646397
156	0x3e97b3fa	0.296295
157	0xbe4a8fad	-0.1978137
158	0xbeb945c0	-0.36186028
159	0x3e36634c	0.17811316
160	0xbe40f33a	-0.18842784
161	0xbe42ba35	-0.19016345
162	0xbecb175f	-0.39666268
163	0x3eab68dd	0.33478442
164	0x3f034a10	0.51284885
165	0xbe60ea77	-0.21964441
166	0x3e4dc1d6	0.20093474
167	0x3e5cacc1	0.21550275
168	0xbdd84f60	-0.105620146
169	0x3ec9bbdd	0.3940114
170	0xbecefc70	-0.4042697
171	0x3e120167	0.14258347
172	0x3dd3ac8d	0.10335646
173	0x3e918143	0.2841893
174	0x3e82478d	0.25445214
175	0x3eb39ef6	0.35082215
176	0x3ec4bbc3	0.384245
177	0xbdda5dbc	-0.1066241
178	0xbe977e9c	-0.29588783
179	0x3e02075f	0.12698124
180	0x3dfe2942	0.12410213
181	0xbe0f5b25	-0.13999613
182	0xbe7bb23d	-0.24579711
183	0xbddd9e97	-0.10821264
184	0x3d1a43c9	0.0376623
185	0x3e8cd723	0.27507886
186	0xbedb4127	-0.42823145
187	0xbc84057a	-0.016115893
188	0xbe528567	-0.20558701
189	0x3e80a128	0.25122952
190	0x3e8a0ae7	0.26961443
191	0x3c8bb95f	0.017056165
192	0x3e2ef7a1	0.1708665
193	0xbe407813	-0.18795805
194	0xbd7a3f67	-0.06109562
195	0x3d939b0c	0.07207307
196	0xbede6399	-0.43435362
197	0xbf025843	-0.50915927
198	0x3e03085f	0.12796162
199	0xbe9440d8	-0.28955722
200	0x3d92dbbd	0.07170818
201	0x3dee3113	0.11630454
202	0xbdb0e544	-0.08637479
203	0xbee09c27	-0.43869135
204	0xbcd0c4f7	-0.025484545
205	0xbd0eb84d	-0.03484373
206	0x3e9da590	0.30790377
207	0xbeaca3d6	-0.33718747
208	0x3ce7b22b	0.0282832
209	0xbe94243a	-0.2893389
210	0xbebf9649	-0.37419346
211	0x3e86e216	0.26344365
212	0x3d9c9f52	0.076475754
213	0x3cf6453e	0.030062314
214	0x3d7020c3	0.058624994
215	0x3e003d81	0.12523462
216	0x3c272db2	0.010203766
217	0xbe1962da	-0.14979115
218	0xbd907079	-0.070527025
219	0x3d8e0521	0.06934572
220	0x3e98dc87	0.2985575
221	0xbc9e60e3	-0.019333309
222	0x3e558015	0.2084964
223	0x3deaf01d	0.11471579
224	0xbea7ca2f	-0.3277144
225	0xbda9943d	-0.08280227
226	0xbecb00bb	-0.39648995
227	0x3e4982e1	0.19678833
228	0xbe35f3f4	-0.17768842
229	0xbeed8617	-0.46391365
230	0x3d9b45db	0.07581683
231	0x3f0ee562	0.5581876
232	0xbe5d9d5e	-0.21642062
233	0xbead1c58	-0.33810687
234	0xbddc5321	-0.10758043
235	0x3dbe52d4	0.09293142
236	0xbdd5c62c	-0.10438189
237	0x3c277d7c	0.010222789
238	0xbd603251	-0.054735485
239	0x3c78d698	0.015187882
240	0xbe1ed5cf	-0.15511249
241	0x3d9b4e89	0.07583339
242	0xbdd8fb11	-0.10594762
243	0xbe7e6b5d	-0.24845643
244	0xbdb1ac51	-0.08675445
245	0x3e1a81d0	0.15088582
246	0xbc0ab9a4	-0.008467112
247	0x3d918447	0.07105308
248	0x3eaf6508	0.34256768
249	0x3e147452	0.14497498
250	0xbc8dfbed	-0.017332042
251	0xbe88b391	-0.26699498
252	0x3e168e33	0.14702682
253	0xbd18c385	-0.037295837
254	0x3e24e468	0.16102755
255	0xbf0b9c05	-0.5453494
