checkpoint_actor_20_agents.pth (torch_old, 746690 bytes, 24 tensors)

bn1.weight f4 [33]
0	0x3f2d1836	0.6761507
1	0x3f026483	0.5093462
2	0x3f45beba	0.7724415
3	0x3cd84060	0.026397884
4	0x3ba38ef8	0.0049914084
5	0x3d0edb19	0.034876917
6	0x3c6c0f75	0.014407982
7	0x3d0da39d	0.034579862
8	0x3d4d65c8	0.050145894
9	0x3dc078b1	0.0939802
10	0x3e1178b0	0.14206195
11	0x3e41b4fe	0.189167
12	0x3dfc0a1a	0.12306614
13	0x3f8d85e9	1.1056491
14	0x3f600ce1	0.8751965
15	0x3f8a01db	1.0781816
16	0x3cc8bc61	0.024503889
17	0x3c9d8e88	0.019233003
18	0x3cc44b65	0.023961732
19	0x3d452843	0.0481341
20	0x3e057e65	0.13036497
21	0x3db6fa39	0.08934445
22	0x3d3bc0e3	0.045838248
23	0x3f01f0c4	0.50758004
24	0x3f0ef91b	0.55848855
25	0x3ed7c35a	0.4214123
26	0x3f80ce88	1.0063028
27	0x3f2dec41	0.6793862
28	0x3f655fd1	0.8959933
29	0x3ec7fc3c	0.39059627
30	0x3e2a1f50	0.16613507
31	0x3e86f8ac	0.26361597
32	0x3f0c29f5	0.5475152

bn1.bias f4 [33]
0	0x3b068458	0.002052566
1	0x3ad979e0	0.0016592108
2	0x39f48aba	0.00046642666
3	0xb7738474	-1.4514768e-05
4	0xb9a79cd9	-0.00031969583
5	0xb9adfaa8	-0.00033183885
6	0x37904de3	1.7202407e-05
7	0x38e726d8	0.000110221736
8	0x3a89f43a	0.0010525056
9	0x39a37a50	0.00031180913
10	0x399b095f	0.00029570886
11	0xbac7b754	-0.0015237131
12	0xbaae46a2	-0.0013296197
13	0x3adaa18c	0.0016680225
14	0x3a52ad91	0.00080367277
15	0x3b45674d	0.0030121387
16	0x39a769c2	0.00031931518
17	0xb948516a	-0.00019103815
18	0x3988461f	0.00025992186
19	0xb7b1c3ba	-2.1191187e-05
20	0xb8fde3ba	-0.000121063975
21	0x3a48e6ab	0.0007663767
22	0x38d88a4e	0.00010325444
23	0xba946d68	-0.001132411
24	0x38c22b64	9.258723e-05
25	0xbb31f56f	-0.0027154346
26	0x3a37c2f0	0.0007009944
27	0xb804829b	-3.159289e-05
28	0x3b07067b	0.0020603228
29	0xb81d83f8	-3.7554622e-05
30	0x38dfe080	0.00010675285
31	0x390523a8	0.00012697151
32	0xba01cab6	-0.0004951166

bn1.running_mean f4 [33]
0	0xbcb90b93	-0.022588527
1	0xc0264744	-2.5980997
2	0x3d82fb53	0.063955925
3	0x3f31f8c0	0.6952019
4	0xbb284b21	-0.0025679546
5	0xbc83a467	-0.016069604
6	0x3c9c3477	0.019067986
7	0xbd48ab2b	-0.048991363
8	0xba9921ea	-0.0011683081
9	0xbc231f0c	-0.009956133
10	0x3bc072b5	0.005873049
11	0xbc7470ce	-0.014919473
12	0xbcdf782d	-0.027278984
13	0xbf0f34e1	-0.5594006
14	0xc028c6eb	-2.637141
15	0x3ec21e3c	0.37913692
16	0x3c4fd724	0.012685571
17	0x3b4d3a0b	0.0031315114
18	0xba1e13dd	-0.00060301815
19	0xbcb65971	-0.022259446
20	0xbc99d64c	-0.018778943
21	0x3caea57f	0.021319149
22	0xbcc13e71	-0.023589345
23	0x3bc835fe	0.006109952
24	0x3ddf21bf	0.108951084
25	0x3ba69e0d	0.005084759
26	0xbd2d6301	-0.042330746
27	0xbf7ffffc	-0.99999976
28	0x3ccb642b	0.024828037
29	0x00000000	0.0
30	0x3f7ffffc	0.99999976
31	0x00000000	0.0
32	0xbc2458ac	-0.010030907

bn1.running_var f4 [33]
0	0x40820af7	4.0638385
1	0x3f379047	0.71704525
2	0x4091488f	4.5401073
3	0x3e98784c	0.2977928
4	0x3d8873d7	0.0666272
5	0x3d3437d5	0.043998558
6	0x3ddc34a2	0.107522264
7	0x3efe6b1b	0.4969109
8	0x3d8ceb87	0.06880861
9	0x3e1007f7	0.14065538
10	0x40304f57	2.7548425
11	0x4018fe3b	2.390517
12	0x4041ee93	3.0301864
13	0x4196e1cd	18.860254
14	0x400e6a0a	2.225222
15	0x41ad43eb	21.658163
16	0x3dcf9a21	0.1013682
17	0x3e899a70	0.2687564
18	0x3da2c3c9	0.07947499
19	0x3f0d172e	0.55113494
20	0x4004e2e1	2.0763476
21	0x3f32e1b5	0.6987565
22	0x3f184b3e	0.5948981
23	0x4156668c	13.400036
24	0x415b11ec	13.691875
25	0x415dcde9	13.862771
26	0x41fa1525	31.260324
27	0x00000004	6e-45
28	0x42033c5f	32.808956
29	0x00000004	6e-45
30	0x00000004	6e-45
31	0x00000004	6e-45
32	0x3ead97bb	0.33904824

fc1.weight f4 [512, 33]
0	0x3e8f7465	0.2801849
1	0xbe4bfc01	-0.1992035
2	0xbec5af69	-0.3861039
3	0x3e6ba22a	0.2301108
4	0x3e75d62c	0.24007481
5	0x3da22a48	0.07918221
6	0xbcb1520d	-0.02164557
7	0x3ca014d4	0.019541182
8	0x3f1ec84e	0.6202439
9	0xbddccc1c	-0.10781118
10	0xbd483737	-0.048880782
11	0xbee69108	-0.45032525
12	0xbe22cbc5	-0.15898044
13	0xbe5c1fea	-0.21496549
14	0xbdcadd29	-0.09905464
15	0xbba55253	-0.005045214
16	0x3e16f581	0.1474209
17	0x3e573cf5	0.21019347
18	0xbefb2f57	-0.49059555
19	0x3e100e0c	0.14067858
20	0xbdabb2d8	-0.08383721
21	0x3ee5ecdf	0.4490728
22	0xbeb3e9ce	-0.35139316
23	0x3e9a8f73	0.30187568
24	0x3ed4435f	0.4145765
25	0x3ec42f03	0.38317117
26	0xbc259c41	-0.010108055
27	0xbca33518	-0.019922778
28	0x3eb66373	0.3562275
29	0xbc5583e2	-0.013031932
30	0xbd00cd17	-0.03144559
31	0xbcfad0e0	-0.030617177
32	0xbee289d2	-0.44245774
33	0xbdba2507	-0.09089094
34	0xbe9268ee	-0.2859568
35	0xbce4617e	-0.02787852
36	0xbec85cd8	-0.39133334
37	0x3bb2a3ab	0.0054516396
38	0xbea32360	-0.31862926
39	0xbeb6ca16	-0.35701054
40	0x3e7af365	0.2450691
41	0x3e929c5a	0.28634912
42	0x3d752de5	0.05985822
43	0x3e6fc184	0.23413664
44	0xbf171129	-0.5901056
45	0xbdcf85b8	-0.10132927
46	0xbeacbf4f	-0.33739707
47	0x3c0d5770	0.008626804
48	0x3ed02a58	0.40657306
49	0x3e1468d4	0.14493114
50	0xbedb7a4e	-0.4286675
51	0x3dd52493	0.104073666
52	0xbdc26a8e	-0.0949298
53	0xbe0a4dc2	-0.13506225
54	0xbf15b259	-0.5847526
55	0x3d9ba8c2	0.076005474
56	0xbecb295a	-0.39679986
57	0x3d1efbf0	0.038814485
58	0x3dd17db7	0.10229056
59	0xbdfe165f	-0.12406611
60	0xbcc6fc6d	-0.024290288
61	0x3ea7213d	0.32642546
62	0x3cfde912	0.030994926
63	0xbc856087	-0.01628138
64	0x3d2d7e4f	0.042356785
65	0xbeb47a01	-0.35249332
66	0x3b01a246	0.001978056
67	0xbf04a8b0	-0.51819897
68	0x3e8d1dd7	0.27561828
69	0x3df2d4fc	0.1185703
70	0x3de60feb	0.11233505
71	0x3eb0ce68	0.34532475
72	0xbe8661cd	-0.2624649
73	0x3ebbea64	0.36702263
74	0xbd3a0db9	-0.045423243
75	0xbda7fb05	-0.08202175
76	0xbe8c6766	-0.27422637
77	0xbeb373a6	-0.3504917
78	0x3d885aba	0.0665793
79	0x3e9f3da4	0.31101716
80	0x3e5a997b	0.2134761
81	0x3c5e21ed	0.013557893
82	0xbe239ebe	-0.15978524
83	0x3cb4fda3	0.0220936
84	0xbe729848	-0.23690903
85	0xbdde8ce7	-0.10866719
86	0xbed5b6bc	-0.41740978
87	0xbe607bd7	-0.21922241
88	0x3e3c79df	0.18405865
89	0x3d450c1b	0.048107248
90	0x3d6827f8	0.056678742
91	0xbf01470b	-0.5049903
92	0xbcaf6f44	-0.02141536
93	0xbc2dcf08	-0.010608442
94	0xbe92859d	-0.28617564
95	0xbd05d665	-0.032675166
96	0xbb9fdf40	-0.0048789084
97	0x396adb38	0.00022397644
98	0xbf0f3355	-0.559377
99	0x3ea4a521	0.32157233
100	0x3d9e7b83	0.07738402
101	0x3e63a82a	0.22232118
102	0xbe64f1c6	-0.22357854
103	0x3e7cde74	0.24694234
104	0x3e1153fc	0.14192194
105	0x3e52d771	0.20589997
106	0x3eba92b8	0.36440063
107	0x3ef86ab4	0.48518908
108	0x3d988977	0.07448094
109	0x3eebc953	0.46052036
110	0x3d7df5b8	0.062001914
111	0xbcfc07ad	-0.030765379
112	0x3e77533a	0.24152842
113	0x3e1de724	0.15420204
114	0x3d8c6b17	0.06856363
115	0x3e33609d	0.17517324
116	0x3f0b7e09	0.5448919
117	0xbd6cd9f2	-0.057825036
118	0x3ebdae3c	0.37046993
119	0x3d21df6e	0.03951972
120	0x3edd4d02	0.43222815
121	0xbe210372	-0.1572397
122	0x3e299889	0.16562094
123	0x3ee2a651	0.44267514
124	0x3e45469e	0.1926522
125	0xbe062eb6	-0.13103756
126	0x3d260101	0.0405283
127	0x3eec2bee	0.46127266
128	0x3ccedbe6	0.02525134
129	0x3cfa6aca	0.0305685
130	0x3c8dd4ea	0.01731344
131	0xbe389d80	-0.18028831
132	0x3da376c4	0.07981637
133	0x3ea9e669	0.33183601
134	0x3e3224c1	0.17396833
135	0xbda099f5	-0.07841865
136	0xbe23bb26	-0.1598936
137	0xbe0b9744	-0.13631922
138	0xbe4ace17	-0.1980518
139	0x3d9b97fa	0.075973466
140	0x3e06e13c	0.13171858
141	0xbd1dbd55	-0.03851064
142	0xbdd496c9	-0.103803225
143	0x3d58a778	0.052894086
144	0xbde86d6b	-0.11348995
145	0xbea81515	-0.32828584
146	0xbe04c62f	-0.12966226
147	0xbe8cd4d5	-0.27506128
148	0x3e2a9103	0.1665688
149	0xbd9ac773	-0.07557573
150	0xbe7b0d27	-0.24516736
151	0xbe0db2e6	-0.13837776
152	0xbe234f56	-0.15948233
153	0xbd0994d2	-0.03358919
154	0xbce37179	-0.027764069
155	0xbe8af5be	-0.2714061
156	0xbe5e2a08	-0.21695721
157	0xbea71971	-0.32636598
158	0x3f13f51d	0.5779589
159	0x3d11a2a5	0.0355555
160	0xbbb634c6	-0.0055604903
161	0xbc7d5118	-0.015461229
162	0xbc22ccfc	-0.009936567
163	0x3c95476c	0.018222533
164	0xbee8913c	-0.45423305
165	0xbe8850d4	-0.26624167
166	0xbd1bc8f2	-0.038033433
167	0xbded28ec	-0.11580071
168	0x3e09c688	0.1345464
169	0x3dc4a70b	0.096021734
170	0xbda30c8f	-0.0796138
171	0xbd012f32	-0.03153915
172	0x3ed6ed5f	0.41977975
173	0xbe21d261	-0.1580291
174	0x3e937af8	0.28804755
175	0xbe13fbec	-0.1445157
176	0xbe07e578	-0.13271129
177	0xbe7f9d43	-0.24962334
178	0x3e345086	0.17608842
179	0x3ddc9769	0.10771067
180	0x3ced334c	0.028955124
181	0xbed1b618	-0.4095924
182	0x3d08e8cd	0.03342514
183	0x3e465cb4	0.19371301
184	0xbd5fe036	-0.054657184
185	0xbdfceda6	-0.12350015
186	0xbe841b30	-0.25801992
187	0x3e0287cd	0.12747116
188	0xbc898d70	-0.016791075
189	0xbd9fd561	-0.07804371
190	0xbeab442e	-0.33450454
191	0xbec3b5a1	-0.3822451
192	0xbbd1d6f0	-0.0064037964
193	0xbec5e5e8	-0.38651967
194	0x3c1ebf54	0.009689171
195	0xbd1b3cc1	-0.037899736
196	0x3d327cdd	0.04357611
197	0x3f656abb	0.8961598
198	0xbdafa9a0	-0.08577275
199	0x3d91d73f	0.07121133
200	0xbf11de80	-0.56980133
201	0x3e91d9a6	0.28486365
202	0xbdc1e637	-0.09467738
203	0xbd89f7e7	-0.06736737
204	0xbe27a091	-0.16369845
205	0xbc5ffbc9	-0.01367087
206	0x3d0454ee	0.032307558
207	0xbdab9a46	-0.08379035
208	0xbdcfb21b	-0.10141393
209	0xbda1e47e	-0.079049096
210	0x3dcfb436	0.101417944
211	0x3e77d4ee	0.2420232
212	0xbe8c38de	-0.27387136
213	0x3e440b0b	0.19144838
214	0xbc8b4664	-0.017001338
215	0xbea49ea3	-0.3215228
216	0x3ecea901	0.40363315
217	0x3e50c945	0.20389278
218	0x3d231bd4	0.03982146
219	0xbccd2605	-0.025042543
220	0xbed67256	-0.41884106
221	0xbdc842f6	-0.09778397
222	0xbe8a5f5c	-0.27025878
223	0x3f164cbd	0.58710843
224	0xbdb8c338	-0.0902161
225	0xbb4462f0	-0.0029966198
226	0xbebf645c	-0.37381256
227	0x3c8a697c	0.016896002
228	0x3b9374e8	0.0045000203
229	0x3d245445	0.04011943
230	0xbe0ab8d6	-0.13547072
231	0xbd9fa195	-0.07794491
232	0x3d3327f3	0.04373927
233	0xbe8d706a	-0.27624828
234	0x3db393ff	0.087684624
235	0x3d8cb186	0.068697974
236	0xbde14721	-0.10999895
237	0xbd364728	-0.044501454
238	0x3df2ebaa	0.118613556
239	0x3eed7724	0.4637996
240	0x3ed2196a	0.41035014
241	0x3e4e79a3	0.20163588
242	0xbcfb2031	-0.030654998
243	0xbf1221e6	-0.57082975
244	0x3dc60b84	0.09670165
245	0xbee2f2cf	-0.44325873
246	0xbe254bdd	-0.16142221
247	0x3c649da2	0.013953598
248	0x3db6dd44	0.08928922
249	0x3c93522f	0.017983524
250	0x3bc60374	0.006042892
251	0xbee16985	-0.44025818
252	0xbce2f0a2	-0.027702633
253	0x3deaed48	0.11471039
254	0xbdd76c23	-0.10518672
255	0x3dcded56	0.10055034

fc1.bias f4 [512]
0	0x3e0f0bc8	0.13969338
1	0x3d6bcaab	0.057566326
2	0x3ce8e1c1	0.02842796
3	0xbe0207a8	-0.12698233
4	0x3c208f96	0.009799859
5	0xbe07dea2	-0.13268521
6	0x3dd002e9	0.10156805
7	0x3deadd1d	0.11467955
8	0x3e18d06d	0.14923258
9	0x3dbf64b0	0.093453765
10	0x3d8e883f	0.06959581
11	0xbc785adb	-0.01515838
12	0x3e25deaa	0.16198221
13	0xbe2b089e	-0.16702506
14	0xbc8bf35a	-0.017083813
15	0x3e2ec13e	0.17065904
16	0x3dbe20b8	0.09283584
17	0xbd762f75	-0.060103852
18	0x3e153bb3	0.14573555
19	0xbe08acd2	-0.13347176
20	0xbda376a0	-0.0798161
21	0x3e1f842d	0.15577765
22	0x3b074fc2	0.0020646905
23	0xbc36c680	-0.0111557245
24	0xbd01cc27	-0.031688835
25	0x3bcc090d	0.006226665
26	0x3d5beec0	0.053694487
27	0x3d51dac2	0.051234014
28	0x3d8e9cb9	0.06963486
29	0xba78c4d7	-0.00094897806
30	0x3d818a9b	0.06325265
31	0xbd98b6c2	-0.07456733
32	0x3d96303c	0.07333419
33	0x3a850274	0.0010147826
34	0xbd9960a9	-0.074891396
35	0xbe0de769	-0.13857807
36	0xbd86f81d	-0.065902926
37	0x3dc58d19	0.09646053
38	0x3c9567dd	0.018238002
39	0x3d8beaec	0.06831917
40	0x3c9a3497	0.018823905
41	0xbe11a828	-0.14224303
42	0x3db9802e	0.090576515
43	0x3de7e9ff	0.11323928
44	0xbc8c81b3	-0.01715169
45	0x3de36195	0.11102597
46	0x3dd6be42	0.104855075
47	0xbd1e663f	-0.03867173
48	0xbde56e9d	-0.112027384
49	0xbd36c60a	-0.04462246
50	0x3d4ec9e5	0.05048551
51	0xbda7b129	-0.081880875
52	0x3c9e80e1	0.019348564
53	0x3d968a07	0.073505454
54	0x3ce84b25	0.028356144
55	0x3d705f4e	0.05868464
56	0x3e324ff3	0.1741331
57	0xbe099464	-0.13435513
58	0x3d623fe1	0.0552367
59	0xbcfbf790	-0.030757695
60	0x3e2a567e	0.16634557
61	0x3df404ac	0.119149536
62	0x3a9dd83e	0.0012042595
63	0x3e189317	0.1489986
64	0xbc8cb187	-0.017174495
65	0xbb82385e	-0.0039740046
66	0x3df7cc67	0.120995335
67	0x3e0dd976	0.13852486
68	0xbd2f6870	-0.04282421
69	0x3cc894e3	0.024485057
70	0xbd680896	-0.056648813
71	0x3dc7d086	0.097565696
72	0x3e164eb0	0.14678454
73	0x3e05f938	0.1308335
74	0xbe2d2f4a	-0.1691257
75	0x3e1ee6db	0.15517752
76	0xbe120fac	-0.14263791
77	0xbcab8f46	-0.020942342
78	0x3e2296a7	0.15877782
79	0xbddd1dbb	-0.10796686
80	0xbd8b0502	-0.067880645
81	0x3d50970d	0.050925303
82	0xbad5ae2c	-0.0016302518
83	0xbe1cb5c7	-0.15303718
84	0x3d917f8f	0.07104408
85	0xbd4e1532	-0.050313182
86	0x3c408850	0.011751249
87	0xbcf04990	-0.029331952
88	0x3e25187a	0.16122618
89	0x3d4c2321	0.04983819
90	0x3e0cf18d	0.1376402
91	0x3e12e823	0.14346366
92	0xbe12a185	-0.14319427
93	0x3e1f6a30	0.15567851
94	0xbd507672	-0.05089421
95	0x3de87ffc	0.11352536
96	0xbd0de5c9	-0.03464297
97	0x3d5fccad	0.054638553
98	0xbe2e8df9	-0.17046346
99	0x3e05a1ed	0.13050051
100	0xbe0ebf73	-0.1394022
101	0xbd236490	-0.039890826
102	0xbe16f76f	-0.14742826
103	0x3dde2ae7	0.10848027
104	0xbcb1aa4a	-0.021687645
105	0x3da6ebb2	0.08150424
106	0xbdd8d4ac	-0.10587439
107	0xbe0d4f82	-0.13799861
108	0x3e21198f	0.15732406
109	0x3e00a38f	0.12562393
110	0x3d87d4de	0.06632398
111	0xbdce72f2	-0.10080518
112	0xbe095039	-0.13409509
113	0x3c886324	0.016648836
114	0x3c02f5d0	0.007993177
115	0x3e26f206	0.16303262
116	0x3e2028e4	0.15640599
117	0xbd0656e1	-0.032797698
118	0xbd9c9f86	-0.07647614
119	0x3d3472f4	0.04405494
120	0x3c3a9d7a	0.011390084
121	0xbb84668e	-0.004040546
122	0xbde077d7	-0.10960358
123	0xbe2f226c	-0.17102975
124	0x3d7928fe	0.06083011
125	0x3dd93b32	0.10606994
126	0x3d335e77	0.04379126
127	0xbdbf7e0a	-0.09350212
128	0x3df78669	0.120861836
129	0xbd93b080	-0.07211399
130	0xbd940fff	-0.072296135
131	0x3c873066	0.01650257
132	0x3d162bb2	0.036662765
133	0x3d9dbb7b	0.07701775
134	0xbc95a8db	-0.018268993
135	0xbe09e578	-0.13466442
136	0xbde4f620	-0.11179757
137	0xbd90f3ba	-0.07077737
138	0x3d2e20fb	0.04251192
139	0xbd7615c8	-0.060079366
140	0xbdf10c5d	-0.11769936
141	0xbd9cc3fb	-0.07654568
142	0x3e308c70	0.17241073
143	0xbd0a9ad6	-0.03383907
144	0x3e230869	0.15921177
145	0x3c841083	0.016121155
146	0x3da940d8	0.08264321
147	0x3e111c7b	0.1417102
148	0xbe1bcae8	-0.15214121
149	0xbdb11b03	-0.0864773
150	0xbdbcecde	-0.09224866
151	0x3e1c3eca	0.15258327
152	0xbde4c577	-0.11170476
153	0xbe2fd912	-0.1717265
154	0x3ba587fe	0.005051612
155	0xbd607882	-0.054802425
156	0x3bd455de	0.0064799627
157	0xbcc5cac7	-0.024144543
158	0xbd8cf5f8	-0.06882852
159	0xbcba1324	-0.022714205
160	0x3dffb613	0.124859
161	0xbe069067	-0.13141023
162	0xbd87ae67	-0.066250615
163	0xba147755	-0.0005663534
164	0xbc779456	-0.01511105
165	0xbce0d235	-0.027443985
166	0xbdcb5593	-0.09928431
167	0x3dcf0c03	0.10109713
168	0xbca43b4f	-0.020047812
169	0x3d4c2e2c	0.04984872
170	0xbddefab5	-0.10887662
171	0x3e2d7375	0.16938575
172	0x3cf2cdcd	0.02963915
173	0x3e293267	0.16523133
174	0xbc44c3f6	-0.012009611
175	0xbe126be4	-0.1429897
176	0xbb0d4a84	-0.0021559307
177	0x3cc65f8e	0.024215486
178	0xbe2733b2	-0.16328314
179	0x3b514de5	0.0031937298
180	0xbe0cbcc7	-0.13743888
181	0xbe1f7652	-0.1557248
182	0x3e12ce3d	0.14336486
183	0x3e1ddb10	0.15415597
184	0xbd576a61	-0.052591685
185	0xbca43e39	-0.020049201
186	0xbd2e7638	-0.04259321
187	0x3c8b2502	0.01698542
188	0xbdd91031	-0.105987914
189	0xbd382f34	-0.04496689
190	0x3d63f6ca	0.05565528
191	0x3dc2e57d	0.09516428
192	0x3da6fc46	0.08153586
193	0xbd022b42	-0.031779535
194	0xbe242b79	-0.16032209
195	0xbdf22fc7	-0.11825519
196	0x3df48e80	0.11941242
197	0xbe24f8e7	-0.16110574
198	0x3e038602	0.12844089
199	0x3df1f17a	0.11813636
200	0x3df28b43	0.11842968
201	0x3e28b47c	0.164751
202	0xbbc9afbe	-0.0061549833
203	0xbda1197b	-0.07866188
204	0xbce341f5	-0.027741412
205	0x3de97790	0.11399758
206	0xbd55cf32	-0.05219955
207	0x3c47a9dd	0.012186495
208	0x3cb8acf2	0.022543404
209	0x3daa79bf	0.083240025
210	0x3dbdd11b	0.09268399
211	0xbe05196c	-0.12997979
212	0xbd2210ae	-0.03956669
213	0x3de378ac	0.11107001
214	0x3dd3c4a1	0.10340238
215	0xbe2cbb25	-0.16868265
216	0xbdc49620	-0.095989466
217	0x3e0e56fe	0.13900372
218	0x3e056d0f	0.13029884
219	0x3c7320db	0.014839376
220	0xbe16c23f	-0.14722537
221	0x3dea93a3	0.11453941
222	0x3d6d5032	0.05793781
223	0x3c33c671	0.010972605
224	0xbe2ac261	-0.16675712
225	0xbcd7d36a	-0.026345927
226	0x3e23eb77	0.16007791
227	0xbcf5bb8b	-0.029996654
228	0x3e254199	0.16138305
229	0x3d7adbe2	0.061244853
230	0x3e1f18f5	0.15536864
231	0x3d9c7a1f	0.0764048
232	0xbdcdd1c0	-0.10049772
233	0xbe2bf110	-0.16791177
234	0x3d387eea	0.04504291
235	0xbd1c6e0b	-0.038190883
236	0xbc0074be	-0.0078403335
237	0xbc1c2a7e	-0.009531615
238	0x3d112d1b	0.035443407
239	0xbdb7e25f	-0.08978724
240	0xbe3168bc	-0.17325109
241	0xbd4ecafe	-0.050486557
242	0xbdb8ac53	-0.09017243
243	0xbd02937b	-0.03187893
244	0xbdec5ce8	-0.11541158
245	0x3e228ed6	0.158748
246	0x3e0a74de	0.13521144
247	0x3d911a8e	0.07085143
248	0x3dae3683	0.08506491
249	0x3e144a9c	0.14481586
250	0xbba5bd29	-0.00505795
251	0xbc3c98cd	-0.01151104
252	0xbdee6353	-0.11640038
253	0x3dc51ee2	0.09625031
254	0x3dcc8c8c	0.09987745
255	0x3d53860a	0.0516415

bn2.weight f4 [512]
0	0x3eb40357	0.35158798
1	0x3f243c16	0.64154184
2	0x3ea912fa	0.3302229
3	0x3f1d8843	0.61536044
4	0x3f5c997b	0.8617169
5	0x3f2fdbb6	0.6869463
6	0x3f144318	0.57914877
7	0x3ee734e3	0.45157537
8	0x3ed4c9ba	0.41560155
9	0x3efaaa1d	0.4895791
10	0x3eff05b6	0.49809045
11	0x3f142314	0.57866025
12	0x3ecc4a17	0.39900276
13	0x3f0460f8	0.5171046
14	0x3e63452e	0.22194359
15	0x3ede6ecb	0.43443903
16	0x3efe6607	0.49687216
17	0x3f4c83db	0.79888695
18	0x3f83f0d5	1.0307871
19	0x3e967025	0.29382434
20	0x3e97873e	0.2959537
21	0x3ecca257	0.39967605
22	0x3ef4f67c	0.47844303
23	0x3e9119c3	0.28339967
24	0x3eef5e17	0.46751472
25	0x3f59fa0e	0.8514718
26	0x3ed01de6	0.4064781
27	0x3e80543a	0.2506426
28	0x3f30313a	0.68825114
29	0x3ed201b6	0.4101693
30	0x3eb35d9f	0.35032365
31	0x3ebfc4ee	0.37454933
32	0x3f1eb98b	0.62001866
33	0x3ef31c89	0.47482708
34	0x3edd4e24	0.4322368
35	0x3f38e492	0.7222377
36	0x3ebc5660	0.3678465
37	0x3ec3af97	0.38219902
38	0x3fbc19f8	1.4695425
39	0x3ede6f30	0.43444204
40	0x3ef8a5b9	0.48563936
41	0x3e841836	0.2579972
42	0x3f05411a	0.5205246
43	0x3f6e818b	0.93166417
44	0x3ebfcc92	0.37460762
45	0x3e8f803d	0.28027526
46	0x3f06c3c8	0.5264249
47	0x3eecdd46	0.46262568
48	0x3ee92da7	0.45542642
49	0x3f04fa76	0.51944673
50	0x3f08776d	0.5330723
51	0x3e9f4957	0.3111064
52	0x3f23f978	0.64052534
53	0x3e2b8294	0.1674903
54	0x3ebf790a	0.37397033
55	0x3f4a6d94	0.7907345
56	0x3f18ab12	0.5963603
57	0x3ec77d79	0.38962916
58	0x3f097f7b	0.53710145
59	0x3e457c24	0.19285637
60	0x3c744550	0.0149091035
61	0x3e5e4826	0.2170721
62	0x3f0ebb5a	0.55754626
63	0x3eddceaa	0.43321735
64	0x3f0dea76	0.55435884
65	0x3e7ddb18	0.24790609
66	0x3f06afe0	0.52612114
67	0x3ee3b8cb	0.44476923
68	0x3ede6f91	0.43444493
69	0x3ed0f550	0.4081216
70	0x3f623178	0.88356733
71	0x3ee63817	0.44964668
72	0x3ef4610c	0.4773029
73	0x3f139a33	0.57657164
74	0x3ec44a9b	0.3833817
75	0x3f0166ab	0.50547284
76	0x3ee8fe9d	0.45506755
77	0x3edb562b	0.42839178
78	0x3ede3c1d	0.43405238
79	0x3e8819fd	0.26582327
80	0x3ecb6b99	0.39730528
81	0x3ea993a4	0.33120453
82	0x3f067caa	0.5253397
83	0x3eda476b	0.42632613
84	0x3f18d34f	0.5969743
85	0x3f12ce8e	0.5734643
86	0x3ea6005c	0.3242215
87	0x3f1bc2b2	0.60843956
88	0x3e932187	0.28736517
89	0x3eca81b7	0.3955209
90	0x3f374f56	0.7160543
91	0x3f65d39c	0.89776015
92	0x3a2e9dad	0.0006661069
93	0x3f363cf3	0.7118675
94	0xbb2d03db	-0.0026400003
95	0x3f216f21	0.63060194
96	0x3ed8a7a5	0.42315403
97	0x3d00f73e	0.03148579
98	0x3f1a868a	0.6036154
99	0x3e88329a	0.26601106
100	0x3ea65c2d	0.324922
101	0x3813ebb0	3.5267032e-05
102	0x3ead470e	0.33843273
103	0x3f14de48	0.58151674
104	0x3edfbc39	0.4369829
105	0x3f0c495a	0.54799426
106	0x3ec98c3a	0.39364797
107	0x3f06eb07	0.52702373
108	0x3ec62526	0.38700217
109	0x3ea35da7	0.3190739
110	0x3ed4b9c3	0.41547975
111	0x3f29944f	0.66241926
112	0x3e31a9c0	0.1734991
113	0x3e82e1c2	0.25562865
114	0x3e9e1f5a	0.30883294
115	0x3f6a007c	0.9140699
116	0x3ec0e56d	0.37675038
117	0x3f2b001e	0.66797054
118	0x3e3e3906	0.1857644
119	0x3ed68654	0.4189936
120	0x3eab1648	0.33415437
121	0x3f06f5dd	0.5271891
122	0x3ecc837c	0.39944065
123	0x3ed23cd6	0.4106204
124	0x3ed25bcf	0.4108567
125	0x3f04cb31	0.51872545
126	0x3ee723a2	0.45144373
127	0x3f18ff59	0.5976463
128	0x3eb4006f	0.3515658
129	0x3eb10d09	0.34580258
130	0x3f1dcf56	0.61644495
131	0x3ed8c1d7	0.42335388
132	0x3efde274	0.49586833
133	0x3f28eabe	0.6598319
134	0x3e74ab3a	0.23893443
135	0x3ed86da2	0.42271143
136	0x3f023d7d	0.50875074
137	0x3eff35a6	0.49845618
138	0x3f11b9a4	0.5692389
139	0x3eda9cdf	0.42697808
140	0x3ef9072b	0.4863828
141	0x3f0aec6e	0.54267013
142	0x3f1975cd	0.59945375
143	0x3edf41d4	0.4360491
144	0x3ed93636	0.42424172
145	0x3f00cd5b	0.5031335
146	0x3f16c90e	0.58900535
147	0x3ef4a05c	0.47778594
148	0x3edb4450	0.42825556
149	0x3f2267d7	0.634397
150	0x3ee64472	0.44974095
151	0x3f09e369	0.53862625
152	0x3e843221	0.25819495
153	0x3f1ca6f4	0.6119225
154	0x3edbea2d	0.429521
155	0x3cb784db	0.022402218
156	0x3f10e90a	0.5660559
157	0x3f5ed2f8	0.8704066
158	0x3f0f7474	0.5603707
159	0x3f153fa9	0.5830026
160	0x3f1554f9	0.58332783
161	0x3ec896ae	0.3917746
162	0x3ec68bcd	0.38778535
163	0x3f1349b8	0.5753436
164	0x3ea17dcd	0.3154129
165	0x3f00c5ed	0.5030201
166	0x3ebbd844	0.36688435
167	0x3edd9c1e	0.4328317
168	0x3ecd1b8c	0.4006008
169	0x3f02a5ff	0.5103454
170	0x3eb24ae2	0.34822756
171	0x3f804679	1.0021507
172	0x3ec2a2c3	0.38014802
173	0x3f17ed74	0.593467
174	0x3f127c93	0.57221335
175	0x3e21b90e	0.15793249
176	0x3e5e5b3d	0.21714492
177	0x3f119f9e	0.5688418
178	0x3f3183aa	0.6934153
179	0x3eed6e39	0.46373156
180	0x3eef17ff	0.46697995
181	0x3f1db97e	0.61611164
182	0x3f65a942	0.8971139
183	0x3f0ca1c8	0.5493436
184	0x3ea17f00	0.31542206
185	0x3e899f0c	0.26879156
186	0x3eae851f	0.34085938
187	0x3eb9a3d0	0.36257792
188	0x3f218f3f	0.631092
189	0x3ecda406	0.40164202
190	0x3ebc6f87	0.3680384
191	0x3f26204c	0.6489303
192	0x3f26667a	0.65000117
193	0x3f30d062	0.69067967
194	0xbd05bb7e	-0.03264951
195	0x3ed265cc	0.4109329
196	0x3ed4f13c	0.41590297
197	0x3f1d946e	0.6155461
198	0x3e92d23b	0.28676018
199	0x3f0af4d2	0.54279816
200	0xba93ce49	-0.0011276688
201	0x3f06ccfc	0.5265653
202	0x3e9ae65f	0.30253884
203	0x3eb9dfa3	0.36303434
204	0x3f349c07	0.7055058
205	0x3ee397fa	0.44451886
206	0x3f021e15	0.5082715
207	0xbb8b8374	-0.004257614
208	0x3f01f179	0.50759083
209	0x3ef6c201	0.48194888
210	0x3f0a002f	0.5390653
211	0x3eb74e67	0.35802004
212	0x3ec2c9ed	0.38044682
213	0x3f07b66d	0.53012735
214	0x3e815eb0	0.25267553
215	0x3edf8f4e	0.4366402
216	0x3f177e0c	0.5917671
217	0x3f3af715	0.7303327
218	0x3e8eb85f	0.2787504
219	0x3ef3a1fc	0.47584522
220	0x3e6ecf4a	0.23321262
221	0x3f0cd1b0	0.5500746
222	0xbebae22f	-0.3650069
223	0x3f05eaa2	0.52311146
224	0x3e8ea8b0	0.27863073
225	0x3ecb368d	0.39690056
226	0x3f25e632	0.64804375
227	0x3f59d8b8	0.8509631
228	0x3f133f05	0.57518035
229	0x3ed99fb0	0.42504644
230	0x3f243710	0.6414652
231	0x3f053b3e	0.5204352
232	0x3fb4ad47	1.411538
233	0x3eda5a18	0.4264686
234	0x3e72122d	0.23639746
235	0x3ec79d04	0.3898698
236	0x3f052e8f	0.5202417
237	0x3ef30023	0.47461042
238	0x3f40a1b9	0.7524677
239	0x3ee56fe3	0.44811925
240	0x3f1432c2	0.5788995
241	0x3ed2682c	0.41095102
242	0x3ef01d2e	0.46897262
243	0x3ef787d0	0.48345804
244	0x3f1c6936	0.6109804
245	0x3f106cc4	0.56415963
246	0x3f2e795f	0.6815395
247	0x3edd80ce	0.43262333
248	0x3ebb3bd1	0.36569074
249	0x3f1de679	0.616798
250	0x3f1d1e2c	0.61374164
251	0x3f007aba	0.50187266
252	0x3f1e393d	0.6180609
253	0x3f13f434	0.577945
254	0x3f0e191b	0.5550706
255	0x3f0e9c2e	0.5570706

bn2.bias f4 [512]
0	0xbe8d6dac	-0.27622736
1	0xbf1714ec	-0.590163
2	0xbe361a4c	-0.17783469
3	0xbf184a54	-0.59488416
4	0xbf4106a7	-0.75400776
5	0xbeec9f22	-0.4621516
6	0xbefb3897	-0.49066612
7	0xbf076e1d	-0.52902395
8	0xbefdd144	-0.4957372
9	0xbee2e53b	-0.44315514
10	0xbed21ec9	-0.41039112
11	0xbe7f31fe	-0.24921414
12	0xbeb9f161	-0.3631697
13	0xbf104dcd	-0.56368715
14	0xbec4b75e	-0.38421148
15	0xbeab4d8f	-0.3345761
16	0xbf074e7a	-0.5285412
17	0xbe791dfa	-0.24327841
18	0xbedbb40b	-0.429108
19	0xbf02a040	-0.5102577
20	0xbe99d253	-0.30043277
21	0xbe9cc774	-0.3062092
22	0xbeee0fc0	-0.4649639
23	0xbe9b7cda	-0.30368692
24	0xbf00f90c	-0.50380015
25	0xbf07b35d	-0.5300806
26	0xbef2b71e	-0.47405332
27	0xbe869d0f	-0.262917
28	0xbf336cc6	-0.7008785
29	0xbea375ea	-0.319259
30	0xbedeb3a6	-0.43496436
31	0xbe6da0b9	-0.23205842
32	0xbf3ed70e	-0.745469
33	0xbe38193b	-0.17978375
34	0xbe5dc131	-0.21655728
35	0xbf134c2e	-0.57538116
36	0xbe987905	-0.2977983
37	0xbe5b1362	-0.21394113
38	0xbe86693c	-0.26252162
39	0xbe9a6578	-0.3015554
40	0xbf00d5e3	-0.50326365
41	0xbeb19868	-0.3468659
42	0xbf24b676	-0.64340913
43	0xbf08db44	-0.5345957
44	0xbed5bf79	-0.41747645
45	0xbeb0b56d	-0.34513417
46	0xbf4f3ccd	-0.8095215
47	0xbee5fc0b	-0.44918856
48	0xbefac914	-0.48981535
49	0xbf26f761	-0.6522122
50	0xbeacc9bd	-0.33747664
51	0xbee24af5	-0.44197813
52	0xbf1f0643	-0.6211893
53	0xbed7ebb2	-0.4217201
54	0xbeb4f161	-0.35340407
55	0xbed83ced	-0.42233983
56	0xbf21eaf0	-0.6324911
57	0xbebfdf5d	-0.374751
58	0xbeeb844a	-0.45999366
59	0xbee25549	-0.44205692
60	0xbe5d7362	-0.21626046
61	0xbeb77ffe	-0.35839838
62	0xbf17f192	-0.5935298
63	0xbebc8a47	-0.36824247
64	0xbe6fbeb1	-0.23412587
65	0xbed0dfc8	-0.40795732
66	0xbebfaf08	-0.37438226
67	0xbecfaf35	-0.4056336
68	0xbe8ffaa3	-0.28120908
69	0xbf191ea0	-0.59812355
70	0xbe8204e0	-0.25394344
71	0xbe913185	-0.28358093
72	0xbf0c5399	-0.5481506
73	0xbf00ded4	-0.5034001
74	0xbed0e33c	-0.40798366
75	0xbf1d913b	-0.6154973
76	0xbf00e81d	-0.50354177
77	0xbe8fdc2e	-0.2809767
78	0xbf153ef3	-0.5829918
79	0xbe8a244d	-0.2698082
80	0xbf00ba53	-0.5028431
81	0xbec8c311	-0.39211324
82	0xbec02ce7	-0.37534258
83	0xbf13c779	-0.57726246
84	0xbf0805d3	-0.5313389
85	0xbf045875	-0.51697475
86	0xbe69ad88	-0.22820103
87	0xbf2d8370	-0.6777868
88	0xbec49042	-0.3839131
89	0xbed63157	-0.41834518
90	0xbf3b2556	-0.73103845
91	0xbd2cd63c	-0.042196497
92	0xbcc9f1f6	-0.024651509
93	0xbf078a86	-0.52945745
94	0xbdab78cd	-0.0837265
95	0xbe6e245e	-0.2325606
96	0xbef00d20	-0.46885014
97	0xbe1658b9	-0.14682283
98	0xbf0d7da5	-0.55269843
99	0xbeb9d5d1	-0.3629594
100	0xbee300b2	-0.44336468
101	0xbc945ae7	-0.018109752
102	0xbeadf109	-0.33972958
103	0x3cbbc215	0.022919694
104	0xbf184544	-0.5948069
105	0xbeb05594	-0.3444029
106	0xbeea1311	-0.45717672
107	0xbf27e82c	-0.6558864
108	0xbe31b5ec	-0.17354554
109	0xbeb43b7e	-0.3520164
110	0xbf42f7e0	-0.7615948
111	0xbf17091d	-0.5899828
112	0xbeb9324e	-0.36171192
113	0xbf12a3bd	-0.57281095
114	0xbed0b6cc	-0.40764463
115	0xbed5ca53	-0.41755924
116	0xbec51ec6	-0.3850004
117	0xbf00efdb	-0.5036599
118	0xbf055fe5	-0.5209945
119	0xbea8710d	-0.3289875
120	0xbf07f900	-0.5311432
121	0xbed487eb	-0.41509947
122	0xbefc38c1	-0.4926205
123	0xbec70abb	-0.38875374
124	0xbe07b8c4	-0.13254076
125	0xbed21495	-0.41031328
126	0xbf4b6d0d	-0.79463273
127	0xbe838b8b	-0.256924
128	0xbef88b65	-0.4854385
129	0xbf1b6c08	-0.6071172
130	0xbf0b2a63	-0.5436155
131	0xbece19e9	-0.40254143
132	0xbd51da7f	-0.051233765
133	0xbeabf745	-0.3358709
134	0xbef8b9e3	-0.4857932
135	0xbefa7555	-0.48917642
136	0xbf0cbd1c	-0.5497606
137	0xbf3058c3	-0.6888544
138	0xbf18fb3d	-0.5975836
139	0xbeb76135	-0.3581635
140	0xbec9e3db	-0.39431652
141	0xbf076c6b	-0.5289981
142	0xbe9d133d	-0.3067874
143	0xbed0cc60	-0.40780926
144	0xbf2e725e	-0.6814326
145	0xbe5827a3	-0.2110887
146	0xbf3bb8db	-0.7332894
147	0xbf37ee18	-0.7184768
148	0xbe30dbed	-0.17271395
149	0xbe54db77	-0.20786844
150	0xbeb790d8	-0.35852695
151	0xbf13fc75	-0.57807094
152	0xbec6762e	-0.3876204
153	0xbf158f11	-0.58421427
154	0xbef452ba	-0.47719365
155	0xbeb77d34	-0.3583771
156	0xbedcddb7	-0.43137905
157	0xbe777028	-0.24163878
158	0xbf1d4d60	-0.6144619
159	0xbed6b7f1	-0.4193721
160	0xbec77944	-0.38959706
161	0xbe3cb96b	-0.18430106
162	0xbefa9d43	-0.48948106
163	0xbe2a6791	-0.1664107
164	0xbe2835de	-0.16426799
165	0xbea9874a	-0.3311103
166	0xbee7cfed	-0.45275822
167	0xbe9ca7a1	-0.3059664
168	0xbf03cc24	-0.5148337
169	0xbf179788	-0.59215593
170	0xbecc3329	-0.39882782
171	0xbd744ca4	-0.059643403
172	0xbe27adfb	-0.16374962
173	0xbf05595b	-0.5208947
174	0xbee3898b	-0.44440874
175	0xbe903bfc	-0.28170764
176	0xbea0390d	-0.31293526
177	0xbf091551	-0.5354815
178	0x3f0e72a9	0.5564371
179	0xbeef3c57	-0.46725723
180	0xbf01b3c9	-0.50664955
181	0xbf0cf031	-0.55054003
182	0x3eb43a0b	0.35200533
183	0xbf207581	-0.62679297
184	0xbeb6bebc	-0.35692394
185	0xbe230d91	-0.15923144
186	0xbf055799	-0.5208679
187	0xbef2a786	-0.47393435
188	0xbee18b5f	-0.44051644
189	0xbe962305	-0.29323593
190	0xbe63bf6a	-0.22240987
191	0xbf35bc12	-0.709901
192	0xbee83ea3	-0.45360288
193	0xbead405a	-0.3383816
194	0xbe83effe	-0.25769037
195	0xbf18c0b9	-0.5966907
196	0xbeba91cc	-0.3643936
197	0xbf0cbf69	-0.5497957
198	0xbe9b9417	-0.3038642
199	0xbe727315	-0.23676713
200	0xbd386f98	-0.0450283
201	0xbf1dcc4d	-0.61639863
202	0xbe2b868a	-0.16750541
203	0xbec6e8ef	-0.3884959
204	0x3c14e78a	0.009088406
205	0xbef8f145	-0.48621574
206	0xbea41054	-0.32043707
207	0xbcf033d9	-0.029321598
208	0xbf22bc14	-0.63568234
209	0xbece8d67	-0.40342256
210	0xbdd2be8b	-0.102902494
211	0xbe90bac1	-0.28267482
212	0xbccf9800	-0.025341034
213	0xbf494eba	-0.7863575
214	0xbe8dd160	-0.27698803
215	0xbee8e150	-0.454844
216	0xbf33c57a	-0.702232
217	0xbf0b6e83	-0.544655
218	0xbe44538b	-0.19172494
219	0xbf03249b	-0.5122773
220	0xbecf1647	-0.40446684
221	0xbf065729	-0.52476746
222	0xbe384245	-0.1799403
223	0xbf560c4f	-0.8361253
224	0xbe94d5f9	-0.29069498
225	0xbed6b2c9	-0.41933277
226	0xbe86b696	-0.26311177
227	0xbdc62392	-0.09674753
228	0xbeeb12ae	-0.4591269
229	0xbeaff94e	-0.34369892
230	0xbeb72f18	-0.35778117
231	0xbe1276c3	-0.14303117
232	0x3f8e985d	1.1140248
233	0xbebadb03	-0.36495218
234	0xbe93587f	-0.28778455
235	0xbeba8b07	-0.36434194
236	0xbf0e8935	-0.5567811
237	0xbecb1d34	-0.39670718
238	0xbf0738eb	-0.52821225
239	0xbf0a0f40	-0.5392952
240	0xbf11580d	-0.5677498
241	0xbea4dac3	-0.32198152
242	0xbf181c80	-0.5941849
243	0xbef7b007	-0.48376486
244	0xbf09cce2	-0.5382825
245	0xbebbe050	-0.36694574
246	0xbf02e38a	-0.5112845
247	0xbedc0c3b	-0.4297808
248	0xbecb6137	-0.39722607
249	0xbf179f67	-0.59227604
250	0xbf33d609	-0.70248467
251	0xbf072ac4	-0.5279963
252	0xbebc6cdc	-0.36801803
253	0xbea6e07f	-0.32593152
254	0xbf188298	-0.5957427
255	0xbe9bb031	-0.3040786

bn2.running_mean f4 [512]
0	0x3e0fdcbe	0.1404905
1	0x3d74e36d	0.059787203
2	0x3cf09691	0.02936867
3	0xbdfe956f	-0.12430846
4	0x3c370ffc	0.011173245
5	0xbe087864	-0.13327175
6	0x3dcc7aa1	0.09984327
7	0x3df037e4	0.1172941
8	0x3e19b63d	0.15010925
9	0x3dc28b44	0.09499219
10	0x3d8b7335	0.06809083
11	0xbc89198a	-0.01673581
12	0x3e25849c	0.16163868
13	0xbe2b79bd	-0.16745658
14	0xbc8ba432	-0.017046068
15	0x3e302d0f	0.17204688
16	0x3dbe2a6b	0.09285434
17	0xbd729254	-0.05922158
18	0x3e154b33	0.14579467
19	0xbe054426	-0.13014278
20	0xbda4e2f7	-0.080511026
21	0x3e22bce8	0.15892375
22	0xb8a18a65	-7.702856e-05
23	0xbc1ff6dc	-0.009763446
24	0xbd08f9bf	-0.0334413
25	0x3c0efd2b	0.008727352
26	0x3d5e81ba	0.054322936
27	0x3d43be28	0.04778877
28	0x3d8d7cf1	0.06908596
29	0x39d08d38	0.00039778068
30	0x3d7de029	0.061981354
31	0xbd9adf4f	-0.07562124
32	0x3d9a865a	0.07545157
33	0x3b2bb6b9	0.002620144
34	0xbd948460	-0.07251811
35	0xbe0eb186	-0.13934907
36	0xbd8705fd	-0.06592939
37	0x3dc6f96d	0.09715543
38	0x3c901f14	0.017592944
39	0x3d919506	0.07108502
40	0x3c942ae3	0.018086856
41	0xbe11d29d	-0.14240499
42	0x3db49d05	0.088190116
43	0x3de6bf8c	0.112670034
44	0xbc97336c	-0.018457137
45	0x3de47f9d	0.11157153
46	0x3dd7b8a2	0.10533263
47	0xbd1fc532	-0.03900642
48	0xbde41515	-0.111368336
49	0xbd374f68	-0.044753462
50	0x3d5489f3	0.05188937
51	0xbda9a26b	-0.08282932
52	0x3c937d19	0.018003987
53	0x3d967e92	0.0734836
54	0x3ce8fa5d	0.028439695
55	0x3d6e6f04	0.05821134
56	0x3e337452	0.17524841
57	0xbe0a1ce1	-0.13487579
58	0x3d648e03	0.055799495
59	0xbd0286cd	-0.031866837
60	0x3e2a6758	0.16640985
61	0x3df42e7e	0.1192293
62	0x3b880dc7	0.004152033
63	0x3e172701	0.14760973
64	0xbc820330	-0.01587066
65	0xbb3b02a5	-0.0028535512
66	0x3dfc3f2a	0.12316735
67	0x3e0fc8d4	0.14041454
68	0xbd264b16	-0.04059895
69	0x3cc1c0f8	0.023651585
70	0xbd66107b	-0.05616806
71	0x3dcc38da	0.09971781
72	0x3e1689aa	0.14700952
73	0x3e035a82	0.12827495
74	0xbe2f0cdf	-0.17094754
75	0x3e1f2756	0.15542349
76	0xbe12c78c	-0.14333934
77	0xbcccd826	-0.025005411
78	0x3e23d99a	0.16000977
79	0xbdd97808	-0.10618597
80	0xbd87cc69	-0.06630785
81	0x3d4e151c	0.0503131
82	0xbb6105d1	-0.0034335742
83	0xbe1a4e62	-0.15068963
84	0x3d904daf	0.07046067
85	0xbd3dc01b	-0.046325784
86	0x3c380ccb	0.011233519
87	0xbcfa7aa3	-0.030576056
88	0x3e26ac68	0.16276705
89	0x3d4a757e	0.049428456
90	0x3e0cfd96	0.1376861
91	0x3e13bf87	0.1442853
92	0xbe12b5cd	-0.14327164
93	0x3e2013cb	0.1563255
94	0xbd4e3e6a	-0.05035249
95	0x3de83e70	0.11340034
96	0xbd126e12	-0.035749502
97	0x3d62c088	0.055359393
98	0xbe2cf5a9	-0.16890587
99	0x3e062d75	0.13103278
100	0xbe0de8ca	-0.13858333
101	0xbd234d18	-0.039868444
102	0xbe15ad84	-0.14616972
103	0x3dddde6d	0.1083344
104	0xbca3b888	-0.019985452
105	0x3da8fa46	0.08250861
106	0xbdd7e65b	-0.10541984
107	0xbe0db523	-0.1383863
108	0x3e1c3337	0.15253912
109	0x3e00fe28	0.12596953
110	0x3d83ad15	0.06429497
111	0xbdd111b6	-0.10208456
112	0xbe08a261	-0.13343193
113	0x3c74a2e6	0.014931416
114	0x3bf54c13	0.0074858754
115	0x3e27763a	0.16353694
116	0x3e1e0b0e	0.15433905
117	0xbd07dcfb	-0.033169728
118	0xbd9d51d1	-0.07681621
119	0x3d3a79d2	0.045526333
120	0x3c3ebc0e	0.011641515
121	0xbb18b9e4	-0.0023304159
122	0xbde3f960	-0.11131549
123	0xbe2d0d4d	-0.16899605
124	0x3d71beaf	0.05901974
125	0x3dd97878	0.10618681
126	0x3d371b5b	0.044703823
127	0xbdbbe9d6	-0.0917546
128	0x3df76d4d	0.12081394
129	0xbd973f56	-0.07385127
130	0xbd952322	-0.07282092
131	0x3c94a600	0.018145561
132	0x3d1bbc53	0.038021397
133	0x3d9fa036	0.0779423
134	0xbc8f56de	-0.017497476
135	0xbe0898f0	-0.13339591
136	0xbde2e6f2	-0.110792056
137	0xbd8f727f	-0.0700426
138	0x3d2be5a3	0.041967046
139	0xbd706982	-0.05869437
140	0xbdf40717	-0.11915415
141	0xbd9d3eda	-0.076780036
142	0x3e307cf0	0.1723516
143	0xbd05f9a7	-0.03270879
144	0x3e222537	0.15834509
145	0x3c831d62	0.016005222
146	0x3daad316	0.08341043
147	0x3e1243c5	0.14283665
148	0xbe1d63e0	-0.1537013
149	0xbdb30918	-0.08741969
150	0xbdbd21f3	-0.09234991
151	0x3e1b1ea1	0.15148403
152	0xbde64049	-0.1124273
153	0xbe2e9bcd	-0.17051621
154	0x3bd2a81d	0.006428732
155	0xbd62f8a7	-0.055412915
156	0x3c21d976	0.009878507
157	0xbccb3129	-0.024803715
158	0xbd8bea5c	-0.0683181
159	0xbcc33b2d	-0.023831928
160	0x3e01ae0a	0.12664047
161	0xbe036bdc	-0.12834114
162	0xbd8300be	-0.06396626
163	0xbb3f6325	-0.0029203382
164	0xbc83fdcc	-0.01611223
165	0xbce64ad8	-0.02811186
166	0xbdce6fdf	-0.100799315
167	0x3dcfcbae	0.10146271
168	0xbc9ac081	-0.018890621
169	0x3d45fdc3	0.04833771
170	0xbde1abc7	-0.11019092
171	0x3e2e0bfc	0.16996759
172	0x3cf31940	0.029675126
173	0x3e292771	0.16518952
174	0xbc47f0a9	-0.012203374
175	0xbe113762	-0.14181283
176	0x3901fc66	0.00012396424
177	0x3cb08fd4	0.021552958
178	0xbe26fdae	-0.16307709
179	0x3b0d1b55	0.0021531184
180	0xbe0ad013	-0.13555937
181	0xbe1e9168	-0.15485156
182	0x3e1352d4	0.14387065
183	0x3e1e5b95	0.15464623
184	0xbd512c7c	-0.051067814
185	0xbca321c6	-0.019913565
186	0xbd304682	-0.04303599
187	0x3c9d496e	0.019200053
188	0xbddaaba9	-0.10677273
189	0xbd40f369	-0.047107134
190	0x3d62e569	0.055394564
191	0x3dc6dade	0.09709714
192	0x3da5338a	0.08066471
193	0xbd03209c	-0.03201352
194	0xbe249f99	-0.16076507
195	0xbdef553a	-0.116861776
196	0x3df55ff3	0.119811915
197	0xbe2501a8	-0.16113913
198	0x3e04538c	0.12922496
199	0x3dec6b4d	0.115439035
200	0x3df1a688	0.117993414
201	0x3e27d053	0.16388063
202	0xbbbf1737	-0.005831625
203	0xbd9f6fc0	-0.077849865
204	0xbcda7329	-0.02666624
205	0x3dea3464	0.11435774
206	0xbd5e99c7	-0.054345872
207	0x3c464ce1	0.01210329
208	0x3cc80b7a	0.024419535
209	0x3dab5998	0.08366698
210	0x3dba8762	0.091078535
211	0xbe02f364	-0.12788159
212	0xbd1d9e6b	-0.038481157
213	0x3de6b309	0.11264617
214	0x3dd4c92a	0.103899315
215	0xbe2e512f	-0.17023157
216	0xbdc7adad	-0.09749923
217	0x3e0d44ca	0.13795772
218	0x3e050012	0.12988308
219	0x3c858d0d	0.01630261
220	0xbe15d748	-0.14632905
221	0x3de8d5a3	0.11368873
222	0x3d78f60f	0.060781535
223	0x3c206299	0.0097891325
224	0xbe2af79a	-0.16696015
225	0xbcdb8b7d	-0.026799912
226	0x3e221cb2	0.15831259
227	0xbcfcf663	-0.030879205
228	0x3e26ccf4	0.16289121
229	0x3d79ff91	0.061034743
230	0x3e1eba18	0.15500677
231	0x3d9c1163	0.07620504
232	0xbdce0b37	-0.10060733
233	0xbe2dc14a	-0.16968265
234	0x3d2b7fd4	0.041869953
235	0xbd1a3d90	-0.037656367
236	0xbbfcf615	-0.007719765
237	0xbc135b42	-0.0089939255
238	0x3d0ec2f7	0.0348539
239	0xbdb9819c	-0.09057924
240	0xbe30ec0a	-0.17277542
241	0xbd4990c7	-0.049210336
242	0xbdb89537	-0.090128355
243	0xbd033229	-0.03203026
244	0xbdeba5fe	-0.1150627
245	0x3e24c6ba	0.16091433
246	0x3e0c3146	0.13690671
247	0x3d8fe97f	0.07026958
248	0x3db4da9a	0.088307574
249	0x3e16a5e5	0.14711721
250	0xbb330209	-0.0027314445
251	0xbc505e72	-0.01271783
252	0xbdf1d3f7	-0.11808007
253	0x3dc5fe93	0.09667697
254	0x3dcead11	0.100916035
255	0x3d526db7	0.051374163

bn2.running_var f4 [512]
0	0x3e4381a7	0.19092427
1	0x3f593dcc	0.8485992
2	0x3e9ab520	0.30216312
3	0x3f2d9ce3	0.67817515
4	0x3e634f01	0.22198106
5	0x3f14ca66	0.58121336
6	0x3ef3cfc2	0.47619444
7	0x3ea8cb73	0.3296772
8	0x3ebc9144	0.3682958
9	0x3e9dcb9f	0.30819413
10	0x3e3d16c8	0.18465722
11	0x3e7c993d	0.24667831
12	0x3f0f3fa5	0.5595649
13	0x3e795a5b	0.24350874
14	0x3f0aa0da	0.5415169
15	0x3e935469	0.28775337
16	0x3ebe2a29	0.3714154
17	0x3e299ae5	0.16562994
18	0x3d9674fe	0.07346533
19	0x3e47c20a	0.19507614
20	0x3ed607c8	0.41802812
21	0x3f00dd6a	0.5033785
22	0x3e992a49	0.29915074
23	0x3e9d9ead	0.30785123
24	0x3ebdc0ec	0.3706125
25	0x3e97cbfa	0.2964781
26	0x3e9c7a22	0.3056193
27	0x3f016508	0.50544786
28	0x3d554fc7	0.052078035
29	0x3e44408f	0.19165252
30	0x3fc5c8a8	1.545186
31	0x3eabfa5e	0.33589453
32	0x3e9d3506	0.30704516
33	0x3e6b7f24	0.22997719
34	0x3e1ba22a	0.1519858
35	0x3f1a3087	0.60230297
36	0x3e3f6ac7	0.18693076
37	0x3ee72d67	0.45151827
38	0x3d6368b4	0.055519775
39	0x3e45e399	0.19325103
40	0x3f3c4082	0.7353593
41	0x3eca6090	0.39526796
42	0x3f8bd943	1.0925678
43	0x3d22f893	0.03978784
44	0x3f230047	0.636723
45	0x3e92d529	0.28678253
46	0x3ec20b6f	0.37899348
47	0x3ebde5fe	0.37089533
48	0x3e2d9128	0.16949904
49	0x3ed71d63	0.42014608
50	0x3e81a0a6	0.25317878
51	0x3e279a92	0.16367558
52	0x3ebe8d90	0.3721738
53	0x3ea6a6aa	0.3254903
54	0x3e54a61b	0.20766489
55	0x3e9721d2	0.2951799
56	0x3f4202ca	0.75785506
57	0x3f0c40db	0.5478646
58	0x3f3d0557	0.7383627
59	0x3f468832	0.7755157
60	0x3e17effd	0.14837642
61	0x3eabf968	0.3358872
62	0x3e9ad222	0.30238444
63	0x3ea7919c	0.3272828
64	0x3ee9bd84	0.456524
65	0x3ef54dff	0.4791107
66	0x3ee054cc	0.43814695
67	0x3eabfb50	0.33590174
68	0x3ec1d3d4	0.37856925
69	0x3e83a055	0.2570826
70	0x3de5d987	0.11223131
71	0x3e3ae3b4	0.18250924
72	0x3f09904b	0.537358
73	0x3e211f35	0.15734561
74	0x3f0858e5	0.5326064
75	0x3e509e66	0.20372924
76	0x3f008e3f	0.5021705
77	0x3ec7150c	0.38883245
78	0x3f283477	0.65705055
79	0x3e84138f	0.25796172
80	0x3e8f5cf2	0.280006
81	0x3fa45dd7	1.2841138
82	0x3f0d9ddc	0.55319
83	0x3e912e71	0.28355744
84	0x3f48f338	0.7849612
85	0x3e8e40ea	0.277839
86	0x3ed375f9	0.41300943
87	0x3e489f51	0.19592024
88	0x3e8f9475	0.2804295
89	0x3e735e9b	0.23766558
90	0x3f553876	0.8328928
91	0x3df767e0	0.120803595
92	0x3ba1f2cc	0.0049422737
93	0x3eb2361f	0.34806916
94	0x3d1e543e	0.03865456
95	0x3e9890c6	0.29797953
96	0x3e56c064	0.20971829
97	0x3d884436	0.06653635
98	0x3ed5f8f0	0.41791487
99	0x3ebc91f6	0.3683011
100	0x3ea85782	0.32879263
101	0x3ab62177	0.0013895471
102	0x3ed5a02c	0.41723764
103	0x3e761fe0	0.24035597
104	0x3ed3ea11	0.41389516
105	0x3e7e1a09	0.24814619
106	0x3f201d7f	0.6254501
107	0x3e0d3e04	0.13793188
108	0x3f27f0f4	0.6560204
109	0x3e866e85	0.26256195
110	0x3e22b870	0.1589067
111	0x3ee4dadc	0.44698226
112	0x3ea9e3c2	0.33181578
113	0x3e33c698	0.17556226
114	0x3e51f2b1	0.20502736
115	0x3d3d0b52	0.046153374
116	0x3eae348d	0.34024468
117	0x3e5aa1dc	0.21350807
118	0x3ed57e36	0.41697854
119	0x3e749088	0.2388326
120	0x3e4f67a4	0.2025438
121	0x3f6a0ac9	0.91422707
122	0x3f71a4d9	0.9439216
123	0x3ef1e257	0.47242996
124	0x3e98e196	0.29859608
125	0x3eadc17b	0.33936676
126	0x3e7e3ca1	0.24827816
127	0x3de060e0	0.109559774
128	0x3eb9ad91	0.36265233
129	0x3e5259dc	0.20542091
130	0x3f275a97	0.65372604
131	0x3f0239de	0.5086955
132	0x3e8315ea	0.25602657
133	0x3eb651fc	0.35609424
134	0x3e2c4eb1	0.16826893
135	0x3e8bf382	0.2733422
136	0x3f13905d	0.57642156
137	0x3e21cccf	0.15800785
138	0x3f5d1042	0.8635293
139	0x3e3ae2ff	0.18250655
140	0x3e9e7ed5	0.3095614
141	0x3eefbba9	0.4682286
142	0x3e0a1eb5	0.13488276
143	0x3ec06fce	0.375853
144	0x3e49f97d	0.19724078
145	0x3f86df91	1.0536977
146	0x3f4701c7	0.77737087
147	0x3f27461e	0.65341365
148	0x3f13b454	0.57697034
149	0x3e5631af	0.2091739
150	0x3ee59824	0.44842637
151	0x3e99f059	0.30066183
152	0x3e32b365	0.17451246
153	0x3e964bdd	0.29354754
154	0x3f0a6d79	0.5407329
155	0x3e1d057a	0.1533412
156	0x3e8bfbea	0.27340633
157	0x3e80c1ec	0.2514795
158	0x3ebfad11	0.37436727
159	0x3eba5784	0.36394894
160	0x3e307310	0.17231393
161	0x3ebba164	0.3664657
162	0x3f1e8cc3	0.61933535
163	0x3e5b2a77	0.21402918
164	0x3ee57cc5	0.44821754
165	0x3e5ddd4d	0.21666451
166	0x3e98db8a	0.29854995
167	0x3e56dae0	0.20981932
168	0x3e96f2e7	0.29482195
169	0x3e3c7c13	0.18406706
170	0x3e95b7f9	0.29241922
171	0x3e01459e	0.12624213
172	0x3e973d6e	0.29539055
173	0x3f101066	0.5627502
174	0x3dedff35	0.116209425
175	0x3e3dbf51	0.18530013
176	0x3f185d99	0.5951782
177	0x3f8c870d	1.0978714
178	0x3d453419	0.048145387
179	0x3ea4026e	0.32033104
180	0x3e7344c0	0.23756695
181	0x3e267c80	0.1625843
182	0x3d26be03	0.040708553
183	0x3de6faa3	0.11278274
184	0x3eaf4c41	0.34237865
185	0x3ebc4adf	0.36775872
186	0x3f62f050	0.8864794
187	0x3f6c709a	0.92359316
188	0x3ee7234f	0.45144126
189	0x3ea1e7e2	0.31622225
190	0x3ea90499	0.3301132
191	0x3ec824eb	0.39090666
192	0x3e7b5040	0.24542332
193	0x3eb492f5	0.3526837
194	0x3e120bc3	0.14262299
195	0x3f24162c	0.6409633
196	0x3e619b4d	0.22031899
197	0x3e292de9	0.1652142
198	0x3dae6b7f	0.08516597
199	0x3f047a38	0.5174899
200	0x3c834b0f	0.016027002
201	0x3e19d892	0.15024021
202	0x3e8b51c9	0.27210835
203	0x3f61e5eb	0.8824145
204	0x3e0fe03e	0.14050385
205	0x3e654096	0.22387919
206	0x3ed898eb	0.42304167
207	0x3cc27b54	0.023740448
208	0x3e894447	0.26809904
209	0x3f0d567a	0.5521008
210	0x3e691494	0.22761756
211	0x3f49ea6c	0.78873324
212	0x3ebfbe45	0.37449852
213	0x3e536050	0.20642209
214	0x3f0f11c4	0.55886483
215	0x3f880123	1.0625347
216	0x3edf1065	0.43567196
217	0x3ec8a1f3	0.39186057
218	0x3e06e126	0.13171825
219	0x3eb7cad5	0.35896936
220	0x3f2156c4	0.6302302
221	0x3ec1b9db	0.3783711
222	0x3f3d4532	0.7393371
223	0x3e0a912b	0.1353194
224	0x3f07f4cb	0.531079
225	0x3e1a73c4	0.15083224
226	0x3f24586d	0.6419743
227	0x3e26eec6	0.16302022
228	0x3ed907d9	0.423888
229	0x3f1078cd	0.5643433
230	0x3e849521	0.25895026
231	0x3e89a1d6	0.26881284
232	0x3da3be7a	0.07995315
233	0x3ec28151	0.37989286
234	0x3eba0790	0.36333895
235	0x3ede43e5	0.43411174
236	0x3e48756f	0.19576047
237	0x3f0bfb84	0.5468066
238	0x3eab5b09	0.33467892
239	0x3ea9d5a9	0.33170822
240	0x3ecc6d75	0.3992726
241	0x3e337c27	0.17527829
242	0x3e3d1b5f	0.18467472
243	0x3e40626a	0.18787542
244	0x3e09d1e1	0.13458969
245	0x3e9fb33c	0.31191432
246	0x3ec5df38	0.38646865
247	0x3e20c43f	0.15699862
248	0x3e88cc8f	0.26718566
249	0x3e8d014e	0.27540058
250	0x3eaa0558	0.33207202
251	0x3f5b5f3e	0.85692203
252	0x3f06e713	0.5269634
253	0x3f3f2e0a	0.74679625
254	0x3ec68e28	0.38780332
255	0x3f80d9e2	1.0066493

fc2.weight f4 [256, 512]
0	0xbe3e82ba	-0.18604556
1	0x3d2c9471	0.042133752
2	0x3e605f2b	0.21911304
3	0xbdfae8f0	-0.122514606
4	0xbcb49ffa	-0.022048939
5	0x3e2a0d9d	0.16606756
6	0xbdbfc442	-0.09363605
7	0x3ae5ebb0	0.0017541554
8	0xbd514313	-0.051089358
9	0xbe69a24d	-0.22815819
10	0xbe8c6468	-0.27420354
11	0x3e204bdf	0.15653943
12	0xbd8bd412	-0.068275586
13	0x3e96baa4	0.2943927
14	0x3dbf7d21	0.09350038
15	0xbdee5874	-0.11637965
16	0x3daedc12	0.08538069
17	0xbe147c53	-0.14500551
18	0xbe9dcb54	-0.3081919
19	0xbd37a728	-0.044837147
20	0xbe97c7db	-0.29644665
21	0x3e958cca	0.29208976
22	0xbe92f5c0	-0.28703117
23	0xbdbee844	-0.09321645
24	0xbd9eca5b	-0.0775344
25	0xb9b8eaa8	-0.00035270047
26	0xbe7dbe72	-0.2477968
27	0x3ec64e5b	0.38731655
28	0xbe8cf143	-0.27527818
29	0x3e232426	0.15931758
30	0x3e0036aa	0.12520853
31	0x3d064810	0.032783568
32	0xbe59ea6d	-0.21280833
33	0xbc29f5ea	-0.010373572
34	0x3d9e2b04	0.07723048
35	0xbd0e4087	-0.034729507
36	0xbee23994	-0.44184554
37	0x3ebfd823	0.37469587
38	0xbf07ce81	-0.53049475
39	0x3e6f8998	0.23392332
40	0x3d7c99a1	0.06166995
41	0xbe1c9687	-0.15291797
42	0x3e263379	0.16230573
43	0xbef470b9	-0.4774225
44	0x3ec9bba6	0.39400977
45	0xbf2f22c8	-0.68412447
46	0xbe666802	-0.22500613
47	0x3b7315d2	0.0037091863
48	0x3d8ab928	0.06773597
49	0x3e176790	0.147856
50	0xbe6671e0	-0.22504377
51	0xbd56be9e	-0.05242788
52	0xbd29ce87	-0.041456725
53	0xbe95e002	-0.29272467
54	0xbdd76070	-0.10516441
55	0xbe25f04a	-0.16204944
56	0xbd8e2b7d	-0.069418885
57	0x3ed2bf8d	0.41161767
58	0x3e1ea584	0.15492827
59	0x3c65e1a3	0.014030847
60	0xbb987685	-0.0046528005
61	0x3dd398d9	0.10331888
62	0x3da00a8b	0.07814511
63	0xbf067c34	-0.5253327
64	0xbe95515e	-0.2916364
65	0x3d5b1865	0.05349006
66	0xbba43506	-0.0050112037
67	0xbe26ea56	-0.1630033
68	0x3d16af7f	0.03678846
69	0x3abde7f3	0.0014488682
70	0xbf7afa54	-0.9803822
71	0x3ea39b0d	0.31954232
72	0x3e9aeb6c	0.30257738
73	0x3d9a0855	0.075211205
74	0x3e724055	0.23657353
75	0xbe87f3d2	-0.26553208
76	0x3dd9f1a3	0.10641792
77	0xbd9f63da	-0.07782717
78	0x3e060b91	0.1309035
79	0xbe8386fb	-0.2568892
80	0x3d20e5fd	0.039281834
81	0x3e9165dc	0.28398025
82	0xbcefd91f	-0.029278336
83	0xbf055696	-0.52085245
84	0x3e0e89b5	0.13919719
85	0xbea279a4	-0.3173343
86	0x3e3e4f2e	0.18584892
87	0xbe2e92aa	-0.17048135
88	0x3e4090c2	0.1880522
89	0x3e4eae65	0.20183714
90	0xbe9cde49	-0.3063834
91	0xbd3f6239	-0.04672453
92	0x3cd7919a	0.026314545
93	0xbe098cda	-0.13432637
94	0xbdc9a548	-0.09845978
95	0xbe047ace	-0.12937471
96	0xbc8b1c15	-0.016981164
97	0x3dac1e75	0.08404247
98	0x3e35deae	0.17760727
99	0xbe4bf343	-0.19917016
100	0xbe4b82e9	-0.19874157
101	0x3d0f1400	0.034931183
102	0x3ea82b22	0.32845408
103	0xbe2c59f3	-0.16831188
104	0x3dbf5d6a	0.09343989
105	0x3de1622f	0.11005055
106	0x3ebd7e45	0.37010399
107	0xbe766ef4	-0.24065763
108	0xbe44062f	-0.19142984
109	0xbc8ab89e	-0.016933735
110	0x3ea2f18a	0.31824905
111	0xbe85c962	-0.26130205
112	0x3cdc2948	0.026875153
113	0x3e63a9a8	0.22232687
114	0xbe25fb99	-0.16209258
115	0xbf0106f7	-0.5040125
116	0xbf0003c2	-0.50005734
117	0xbe2703ea	-0.16310087
118	0x3efd099f	0.49421403
119	0x3dfe5c18	0.12419909
120	0x3aacdd40	0.0013188496
121	0x3ebe8bba	0.37215978
122	0x3ed7acc9	0.42124012
123	0x3eef3fcf	0.4672837
124	0x3e064679	0.1311282
125	0xbeb01607	-0.34391806
126	0xbf0251dc	-0.5090616
127	0xbdf513d4	-0.119666725
128	0x3d3fc99e	0.046823137
129	0xbee39148	-0.44446778
130	0x3dbed00a	0.09317024
131	0x3f4e1316	0.8049787
132	0x3d6d7ed4	0.05798228
133	0xbe9108d1	-0.2832704
134	0xbe81c842	-0.25348097
135	0xbe5ca417	-0.2154697
136	0xbe81ca67	-0.25349733
137	0xbe48cc48	-0.19609177
138	0xbe2b083d	-0.16702361
139	0xbdf26971	-0.118365176
140	0xbe0b1bfc	-0.13584894
141	0xbf2f6251	-0.68509394
142	0x3e66c656	0.22536597
143	0x3eb17bae	0.34664673
144	0xbe4e23e1	-0.20130874
145	0x3e4d0349	0.20020784
146	0xbe2e5890	-0.17025971
147	0x3e5d5fb0	0.21618533
148	0x3bd17ed0	0.006393291
149	0xbd4e9c9e	-0.05044233
150	0x3c360041	0.011108459
151	0x3e0a4e76	0.13506493
152	0xbe404c06	-0.18779
153	0xbbc5e8c5	-0.006039711
154	0xbe78beb3	-0.24291496
155	0xbea59b41	-0.32345012
156	0x3e0961fc	0.13416284
157	0xbe62c0cb	-0.22143857
158	0xbe10c7e2	-0.14138749
159	0xbe64a079	-0.2232684
160	0xbe2439f1	-0.16037728
161	0xbd3fb09b	-0.046799283
162	0xbdc78334	-0.09741822
163	0xbea45fe1	-0.321044
164	0xbf017733	-0.5057251
165	0xbe679534	-0.2261551
166	0xbe8d007b	-0.2753943
167	0x3f1578d6	0.58387506
168	0x3e606088	0.21911824
169	0xbd8d9488	-0.06913096
170	0xbd091431	-0.03346652
171	0x3ddcefcf	0.10787927
172	0x3e7ae344	0.24500757
173	0xbd528aef	-0.05140203
174	0xbc194c2f	-0.0093565425
175	0xbea65f24	-0.32494462
176	0xbc478982	-0.0121787805
177	0xbc2d12df	-0.010563581
178	0xbf008c21	-0.5021382
179	0xbd6e9b56	-0.05825361
180	0xbf421f58	-0.75829077
181	0xbcd1f394	-0.025628842
182	0xbf18cd48	-0.59688234
183	0xbee22d86	-0.44175357
184	0xbc3a0863	-0.011354539
185	0x3e2b9715	0.16756852
186	0x3dbca1e7	0.09210568
187	0x3e6fd53e	0.23421189
188	0x3d1db4bc	0.03850244
189	0x3d24a185	0.0401931
190	0xbdc2b547	-0.09507232
191	0x3ce10c76	0.027471762
192	0xbd9934cc	-0.07480773
193	0x393454e5	0.00017197763
194	0xbe0732e6	-0.1320301
195	0xbe801fc1	-0.25024226
196	0xbf009d11	-0.50239664
197	0x3cf07014	0.029350318
198	0xbd4cd6a6	-0.050009392
199	0xbe049889	-0.12948813
200	0xbd8cf980	-0.06883526
201	0x3e8a3c89	0.2699931
202	0x3d2f03aa	0.042728104
203	0xbe6f855a	-0.23390713
204	0xbe962b7c	-0.2933005
205	0x3e02a58d	0.12758465
206	0x3e4e5523	0.20149665
207	0x3cd73b14	0.026273288
208	0x3e011ee0	0.12609434
209	0x3ea37362	0.31923968
210	0xbeb434fd	-0.35196677
211	0xbe5ed1a0	-0.21759653
212	0xbe4616fa	-0.19344702
213	0xbe4c285d	-0.19937272
214	0xbc3bfc9d	-0.011473802
215	0x3e443647	0.1916133
216	0xbe732807	-0.23745738
217	0x3d647b84	0.055781856
218	0xbd3f4797	-0.046699133
219	0xbdc87e74	-0.09789744
220	0x3e74ad15	0.2389415
221	0xbd9ebe20	-0.07751107
222	0x3e849158	0.25892138
223	0xbddb498d	-0.10707388
224	0x3de2a552	0.110666886
225	0xbdb63011	-0.08895887
226	0x3e4d8888	0.20071614
227	0xbe41b01f	-0.18914841
228	0x3ed055f2	0.4069057
229	0x3eb649ac	0.35603082
230	0xbe6ffe93	-0.23436956
231	0x3de15e18	0.11004275
232	0xbf10157f	-0.562828
233	0x3ccaea97	0.024770064
234	0x3ed638a9	0.41840103
235	0x3d181124	0.03712572
236	0xbe3ce946	-0.18448362
237	0xbd4fe76d	-0.050757814
238	0xbe1a3559	-0.15059413
239	0xbec74690	-0.38921022
240	0x3e0d2716	0.13784441
241	0x3f01c695	0.5069364
242	0x3dceecaf	0.101037376
243	0xbe411986	-0.18857393
244	0xbf16da79	-0.5892711
245	0x3e87adff	0.26499936
246	0xbb49d5fa	-0.0030797706
247	0x3e9ce5a9	0.30643967
248	0xbe026848	-0.12735093
249	0x3e915375	0.28383985
250	0x3d108ce9	0.035290632
251	0xbe69511b	-0.22784846
252	0xbdb0f0c2	-0.08639671
253	0x3e954234	0.2915207
254	0xbd3191ff	-0.043352123
255	0x3cdf8dfe	0.027289387
